runs/20250317_200419/best_vflAggregator.pt (torch, 3688 bytes, 1 tensors)

weight f4 [1, 128]
-6.918625e-05 0.021486709 -4.4814777e-05 -0.0006491613 -5.865604e-05 0.00029580554 -2.4433797e-05 -0.00043060456
0.00023113996 0.0001078178 -0.00019956849 0.0002791472 0.00028468124 -0.000259515 0.00024255643 -0.000102963204
-0.0008310459 0.00019280598 0.00032215664 -0.00040369018 -0.00035321605 -0.0002813062 -0.00048052796 -4.6115063e-05
-0.0001219446 -0.0005407623 0.000287346 -0.000306351 0.0002634859 -0.0002459475 5.8842088e-05 -0.00030846283
0.00015078775 8.136333e-05 -0.00021415782 -9.664344e-05 0.000120729965 -0.0002696885 6.763314e-05 0.000115606046
-0.0002850457 -0.0005263665 1.6634733e-05 -0.00018337871 0.00024713547 0.0002777935 0.024077183 0.00048751532
-0.0008445587 -9.2846145e-05 -3.0785573e-05 1.7405579e-05 0.00028996562 -9.829124e-05 0.0001405882 0.00022200216
-0.0001296657 0.00013167142 -0.042067703 -0.00033999624 -0.038710635 6.118158e-05 0.0001676406 -0.00012978633
0.0031512773 0.0040444946 0.0021544674 -0.0034319176 -0.0009277762 -0.0004122503 0.002627771 0.0010509437
0.0022634338 -0.003307848 0.0011420202 -0.0020803765 0.0019185147 0.0015409495 -0.0035663715 -0.002201321
0.004091309 0.0028257843 -0.003944205 0.0020031712 0.0029212087 -0.0004982218 0.0002561204 0.0038380064
-0.04159096 0.0013278034 0.0031702204 0.0024805146 -0.0020606667 0.003921331 0.0009160316 0.0005798618
-0.0012535081 -0.0043258048 -0.0024719436 -0.0024613861 -0.0010152146 -0.004619759 0.0025963278 9.435441e-05
0.0022940175 0.0005171243 -0.005913859 0.001609178 0.00017188035 0.003280351 0.0015796184 -0.00122638
-0.00433828 0.002726969 -0.0004937031 0.0012523158 -0.002179531 -0.006413921 -0.00518539 -0.00014704373
0.0026754062 -0.002599751 -0.0022759275 -0.0030055135 0.001748444 0.00023795478 -0.0017756694 -0.0016917541
00000000: 1618 91b8 e504 b03c 80f7 3bb8 7a2c 2aba
00000010: 7205 76b8 5916 9b39 2ef7 ccb7 c4c2 e1b9
00000020: 295e 7239 3e1c e238 4243 51b9 815a 9239
00000030: 4541 9539 840f 88b9 bf56 7e39 f3ed d7b8
00000040: 8cda 59ba f62b 4a39 22e7 a839 61a6 d3b9
00000050: db2f b9b9 477c 93b9 5fef fbb9 ac6b 41b8
00000060: 82bc ffb8 f2c1 0dba eda6 9639 bc9d a0b9
00000070: 7b24 8a39 84f2 80b9 36cd 7638 2eb9 a1b9
00000080: c71c 1e39 9ba1 aa38 8d8f 60b9 0dad cab8
00000090: 6830 fd38 fa64 8db9 44d6 8d38 8671 f238
000000a0: 3072 95b9 dcfb 09ba d18a 8b37 5949 40b9
000000b0: f691 8139 d0a4 9139 833d c53c 3399 ff39
000000c0: 6065 5dba 65b6 c2b8 c21f 01b8 3202 9237
000000d0: 8706 9839 b521 ceb8 dc6a 1339 40c9 6839
000000e0: dff6 07b9 4711 0a39 2f4f 2cbd 8641 b2b9
000000f0: 0b8f 1ebd 9c4e 8038 aec8 2f39 4117 08b9
00000100: a985 4e3b ae87 843b f731 0d3b 06ea 60bb
00000110: 0236 73ba 4c23 d8b9 af36 2c3b d2bf 893a
00000120: 1e56 143b 7bc8 58bb d7af 953a ed56 08bb
00000130: ac76 fb3a aff9 c93a c9b9 69bb 0a44 10bb
00000140: 6310 863b cb30 393b 643e 81bb a347 033b
00000150: c071 3f3b 199b 02ba e647 8639 1087 7b3b
00000160: 485b 2abd b009 ae3a 79c3 4f3b 2190 223b
00000170: 400c 07bb 827e 803b d721 703a de01 183a
00000180: c14c a4ba 7bbf 8dbb 5500 22bb 354f 21bb
00000190: f310 85ba 5961 97bb 2727 2a3b 23e0 c538
000001a0: 3a57 163b a08f 073a 0bc9 c1bb 0eeb d23a
000001b0: c83a 3439 28fb 563b 330b cf3a 7cbe a0ba
000001c0: 2128 8ebb f3b6 323b db6b 01ba bf24 a43a
000001d0: 76d6 0ebb de2b d2bb 34ea a9bb c02f 1ab9
000001e0: de55 2f3b 9660 2abb ba27 15bb 26f8 44bb
000001f0: 0c2c e53a 8083 7939 94bd e8ba d9bd ddba
