runs/20250317_200419/best_mlpLocalModel.pt (torch, 46544 bytes, 8 tensors)

weight f4 [100, 17]
0	0x3f28ce2f	0.6593961
1	0x3fd305f4	1.6486192
2	0x4039461d	2.8949044
3	0x3eb9e982	0.36310965
4	0x3f5475bc	0.8299215
5	0x3de875b7	0.11350577
6	0xbecc3dab	-0.398908
7	0xbfd8808c	-1.6914229
8	0xbeb8c19e	-0.36085218
9	0xbdc16276	-0.09442608
10	0x3e30fb58	0.1728338
11	0x3f10c3b5	0.56548625
12	0xbf8fd2ab	-1.1236166
13	0x3ef4e772	0.4783283
14	0x3ef19026	0.4718029
15	0xbeb0240f	-0.3440251
16	0x3e94ea82	0.29085165
17	0xbfd59f85	-1.6689306
18	0xbff09b2a	-1.8797352
19	0xbf95d70b	-1.1706251
20	0xbf5c73de	-0.861143
21	0xbf998600	-1.1994019
22	0x3c1110ca	0.0088541005
23	0x3acd9e00	0.0015687346
24	0xbdc3a06a	-0.09552081
25	0xbf9524fa	-1.1651909
26	0x3e840df0	0.25791883
27	0x3e5bfad3	0.214824
28	0x3d8b59ac	0.06804213
29	0xbead14bc	-0.33804882
30	0xbf6a52a5	-0.91532356
31	0xbe220427	-0.15821896
32	0x3eb8d0c4	0.36096776
33	0xbf28142f	-0.656558
34	0x407c04c6	3.9377913
35	0x3fb65d6a	1.4247258
36	0x3f63375c	0.88756347
37	0x3f859ae6	1.0437896
38	0x3fbdd491	1.4830495
39	0x3e15c6f6	0.14626679
40	0xbde2db79	-0.11077017
41	0x3e7ae3ef	0.24501012
42	0x3e435479	0.19075193
43	0xbe637fe8	-0.22216761
44	0xbf39b3e6	-0.7254013
45	0xc022f2af	-2.5460622
46	0x3e1e8d0d	0.15483494
47	0x3e63fa3e	0.22263429
48	0xbe4a49bf	-0.19754694
49	0x3e508e5e	0.20366809
50	0x3ea3d7e5	0.32000652
51	0xbef681d6	-0.48145932
52	0x3eddcbea	0.43319637
53	0xbdd43eda	-0.103635505
54	0xbec0c78e	-0.37652248
55	0xbe894cd1	-0.2681642
56	0xbdd9fc96	-0.1064388
57	0xbf29f26d	-0.6638554
58	0x3c485146	0.012226408
59	0x3e1b6ad9	0.15177478
60	0xbece5c16	-0.4030463
61	0x3e86bb97	0.26314995
62	0x3ebf18b2	0.3732353
63	0x3eab3e3f	0.33445928
64	0xbe70c090	-0.23510957
65	0xbe6cb64c	-0.23116416
66	0x3ea0ae88	0.31383157
67	0xbfbb421f	-1.4629554
68	0x3f2e44b9	0.6807361
69	0xbee82c6c	-0.4534639
70	0x3f03a0fe	0.5141753
71	0x3f09b33f	0.5378913
72	0x3e823f92	0.25439125
73	0xbf82ecf6	-1.0228565
74	0x3ec4c974	0.38434947
75	0xbf442333	-0.7661621
76	0xbe250b6b	-0.16117637
77	0x3e70d4ed	0.23518725
78	0xbe15e1ad	-0.1463687
79	0x3e6aba10	0.2292254
80	0x3d8c5c7a	0.06853576
81	0xbe3df672	-0.18551043
82	0x3d4cf091	0.05003411
83	0x3ee30e36	0.4434678
84	0x3e3291ab	0.1743838
85	0xbfc762d7	-1.5577039
86	0xbfb1cb04	-1.389008
87	0xbf992e14	-1.1967187
88	0xbf72e022	-0.9487325
89	0xbf8d962a	-1.1061451
90	0xbf0de4ae	-0.5542706
91	0x3eda8c4d	0.42685166
92	0xbd33d197	-0.043901052
93	0xbe004abc	-0.12528509
94	0x3ec223bb	0.37917885
95	0xbe47a6af	-0.19497178
96	0xbe814499	-0.25247648
97	0x3e2d312a	0.16913286
98	0x3e2564ae	0.16151688
99	0xbeabd255	-0.33558908
100	0xc0028f3c	-2.0399923
101	0xbf969ed9	-1.1767226
102	0xbe05a569	-0.1305138
103	0x3e9f8887	0.3115885
104	0xbe2cd76c	-0.16879052
105	0xbd8f9da9	-0.07012493
106	0xbea08b2e	-0.31356186
107	0xc0120c04	-2.2819834
108	0x3e5bc79c	0.21462864
109	0x3e4b3583	0.19844632
110	0xbf51508a	-0.8176352
111	0x3d52008a	0.051270045
112	0x3e1d2c16	0.15348849
113	0x3e46bf15	0.1940883
114	0x3dde904f	0.108673684
115	0xbfbb3ad1	-1.4627324
116	0x3eacd945	0.33759513
117	0x3e868db4	0.26279986
118	0x3e2e77bf	0.17037867
119	0xbf6e1498	-0.93000174
120	0xbf8bc851	-1.0920507
121	0xbfb39d29	-1.4032336
122	0xbfb6a1d2	-1.4268134
123	0xbf806541	-1.00309
124	0xbe0b9899	-0.1363243
125	0xbd1fb44e	-0.03899031
126	0x3e436f0d	0.19085331
127	0x3d4339a2	0.047662385
128	0xbce699ae	-0.028149452
129	0x3db81a96	0.08989446
130	0x3f5ded3c	0.86690116
131	0xbff15db7	-1.8856725
132	0x3e5578aa	0.20846811
133	0xc02616ee	-2.5951495
134	0xbda0d75a	-0.07853575
135	0xbf90e567	-1.1320008
136	0xbf106a76	-0.56412446
137	0xbe60d65c	-0.21956772
138	0xbfa13d56	-1.2596843
139	0xbf414a42	-0.75503933
140	0xbf988edf	-1.1918601
141	0xbda1f0ed	-0.07907281
142	0xbe2f072b	-0.17092578
143	0xbef26c79	-0.47348383
144	0x3eaca11a	0.3371666
145	0x3e3079c0	0.17233944
146	0x3e12ff01	0.14355089
147	0xbe422c2e	-0.18962166
148	0xbf46183c	-0.7738073
149	0x3ddce1d0	0.10785258
150	0xbe6a00a1	-0.22851802
151	0xbe33f6c7	-0.17574607
152	0x3d2d303d	0.04228233
153	0xbf84d94c	-1.0378814
154	0xbfc26831	-1.5188047
155	0xbf0f6135	-0.560077
156	0xbf7c7b9d	-0.9862612
157	0xbe75b54b	-0.23994939
158	0x3e42fb30	0.19041133
159	0xbe7fb536	-0.2497147
160	0x3d55ca15	0.052194674
161	0x3dff9009	0.124786444
162	0xbec8d13c	-0.39222133
163	0xbf0f017f	-0.5586166
164	0x3d85696c	0.06514248
165	0x3f062843	0.52405185
166	0x3bfaa90e	0.0076495474
167	0x3ec8e773	0.39239082
168	0xbfa35569	-1.276044
169	0x3b63d32f	0.0034763326
170	0xbec2c519	-0.38041
171	0x40c117bd	6.0341477
172	0x40a0977b	5.0184913
173	0x3f8bd60b	1.0924696
174	0xbff7d8d4	-1.9363046
175	0x3ae0d7f5	0.0017154204
176	0xbe670221	-0.22559406
177	0xbd15e789	-0.036597762
178	0xbcfa7a31	-0.030575844
179	0x3ee066f6	0.43828553
180	0xbe2707c5	-0.16311558
181	0x3dca7b03	0.09886744
182	0x3e7994e7	0.24373208
183	0xc021617c	-2.521575
184	0xbe4761b5	-0.19470866
185	0x3e2402f3	0.1601675
186	0x3eeb037e	0.45901102
187	0xbe9c3a9c	-0.30513465
188	0xbf8539dc	-1.0408282
189	0xbf88a5d1	-1.0675603
190	0xbf6168b3	-0.88050383
191	0xbfa57d0e	-1.2928789
192	0xbcca8a8c	-0.024724267
193	0x3e9ba563	0.30399618
194	0xbf058223	-0.521517
195	0x3db09fea	0.08624251
196	0x3e6e7709	0.23287596
197	0xbfc97eb5	-1.5741793
198	0x3e993137	0.2992036
199	0x3e239f84	0.15978819
200	0x3d8619cc	0.06547889
201	0xbe55d606	-0.20882425
202	0x3e3f3338	0.18671882
203	0xbe8aef17	-0.27135536
204	0xc05b165d	-3.42324
205	0xbf5be9a9	-0.8590341
206	0xbf8d89de	-1.1057699
207	0xbe802efe	-0.25035852
208	0x3f56cf04	0.8390963
209	0x3e7ddc9c	0.24791187
210	0x3e41a98f	0.18912338
211	0xbe932ac1	-0.28743556
212	0x3e4b496a	0.19852224
213	0x3d079411	0.03310019
214	0xbeaa641a	-0.33279496
215	0x3e5665f1	0.20937325
216	0x3e86680e	0.26251262
217	0xbebea92f	-0.37238452
218	0x3a87c11c	0.0010357234
219	0x3e2f5309	0.17121519
220	0xbe8d99f3	-0.27656516
221	0xbf596606	-0.849213
222	0x40120044	2.2812662
223	0x3d95e97c	0.07319924
224	0xbf1b79d8	-0.60732794
225	0xbf79112e	-0.9729184
226	0x3e594fcd	0.21221848
227	0x3dbb438c	0.09143743
228	0x3e8d68df	0.27619073
229	0xbe96dc31	-0.29464868
230	0x3c213c85	0.009841089
231	0xbec7b6d9	-0.3900669
232	0x3efb2517	0.49051735
233	0x3dc820d9	0.0977189
234	0xbd05cb02	-0.032664306
235	0xbedd72ea	-0.43251735
236	0x3d8a94d3	0.06766667
237	0xbfd05030	-1.6274471
238	0xbdf2100c	-0.11819467
239	0xbf2ceaaa	-0.6754557
240	0xbf14fd22	-0.5819875
241	0xbeeae744	-0.45879567
242	0xbe996620	-0.29960728
243	0x3eb7c6c5	0.35893837
244	0xbe0bed33	-0.13664703
245	0x3de94f90	0.113921285
246	0xbf0a5183	-0.54030627
247	0xbe8963ad	-0.2683386
248	0xbfc1cc57	-1.5140485
249	0x3e356caa	0.17717233
250	0xbea5c954	-0.32380164
251	0xbe8035f4	-0.25041163
252	0x3f0b93f7	0.5452265
253	0xbf7b1765	-0.9808257
254	0x3e76fb04	0.24119192
255	0x400e2dea	2.2215524

bias f4 [100]
0	0xc041536d	-3.020717
1	0xbfa5e6cd	-1.296106
2	0xbfe7c60f	-1.8107318
3	0xbf356db5	-0.70870525
4	0xbf5b42f2	-0.85649025
5	0x3fc5043f	1.5391921
6	0x3f458116	0.77150095
7	0x3fc6b830	1.552496
8	0x3f81eae6	1.014981
9	0x3f623a7a	0.8837048
10	0x40ea837a	7.3285494
11	0x3f2a969a	0.6663605
12	0xbfd39c29	-1.6532031
13	0x408f1f70	4.4725876
14	0x3eaebb4d	0.34127274
15	0x40f496b4	7.6433964
16	0x3e18eea5	0.14934786
17	0xc0f4a4ef	-7.6451335
18	0x3f8ca5f1	1.0988141
19	0x3fbd242e	1.4776666
20	0xc126c885	-10.423955
21	0x3fb57b89	1.4178325
22	0xc0a7905a	-5.236371
23	0xc0408df8	-3.008665
24	0x3ed5baa4	0.41743958
25	0xbe96820e	-0.293961
26	0x3fc109dd	1.5081135
27	0x400eaceb	2.229304
28	0xc0ea17ae	-7.3153906
29	0x3f360e59	0.7111564
30	0x3e56c491	0.20973422
31	0xc102014b	-8.125316
32	0x3fcdfd83	1.6092991
33	0xc05b3124	-3.4248743
34	0xbfe99f78	-1.8251791
35	0x3f2c5634	0.67319036
36	0x3f13ac86	0.57685125
37	0x3fb53d86	1.41594
38	0xc02d21d2	-2.7051892
39	0x3f6b4a7e	0.9191054
40	0xbf756458	-0.9585624
41	0xbf718642	-0.94345486
42	0x3fd82369	1.6885806
43	0x3eb2c0ee	0.3491282
44	0xc10dd407	-8.8642645
45	0xbe95961a	-0.2921608
46	0x4000bdbc	2.0115805
47	0x40b7afb7	5.7401996
48	0xc1217312	-10.090593
49	0x4083fc23	4.1245284
50	0x409e8f4a	4.9549913
51	0x4002c22c	2.0431013
52	0xc01344dc	-2.3010778
53	0x3e7ebe2f	0.24877237
54	0xbf21f212	-0.63259995
55	0xc108d62c	-8.552288
56	0x400b4f2c	2.1767073
57	0x40216b2c	2.5221663
58	0xc019eaeb	-2.4049633
59	0x4038ce96	2.887609
60	0x3f063ae9	0.5243364
61	0xc05521cb	-3.3301876
62	0x3f973f96	1.181628
63	0x3f07391b	0.5282151
64	0x3f7d4564	0.98934007
65	0x3f672680	0.9029312
66	0x3eace15c	0.33765686
67	0xbffef2b6	-1.991782
68	0x3f864ab1	1.0491544
69	0x3f417a97	0.7557768
70	0xc10741df	-8.453582
71	0x4024f31b	2.577338
72	0xc0e59863	-7.174852
73	0x3feaed31	1.8353635
74	0xc10a49e3	-8.643039
75	0xc085b433	-4.178247
76	0x3e99edae	0.30064148
77	0xbe966d4a	-0.29380256
78	0x3e9a0449	0.30081394
79	0xbe97ec5e	-0.2967252
80	0x3d5fed00	0.05466938
81	0x3ee1e432	0.44119412
82	0xbfae1108	-1.3598948
83	0xc1513856	-13.076254
84	0x3fd838da	1.689235
85	0xc0aa1c75	-5.3159738
86	0x3ecf1599	0.40446165
87	0xc0aa89c5	-5.3293176
88	0xc13946bc	-11.579769
89	0xc0e659a8	-7.1984444
90	0x3ffe0fa3	1.9848522
91	0xc1077e19	-8.468286
92	0xc00e07bb	-2.2192218
93	0x3eb2873f	0.3486881
94	0x3ff4f4a1	1.9137155
95	0xbf68fd08	-0.91011095
96	0x3f437e6e	0.7636479
97	0x3f139f72	0.5766517
98	0x3f57597e	0.8412093
99	0x3e9bcd1f	0.30429932

weight f4 [50, 100]
0	0x3e5fb938	0.21847999
1	0x3dcebb42	0.1009431
2	0x3e5bd0ba	0.21466342
3	0xbe057d27	-0.13036023
4	0xbd20cbc5	-0.03925683
5	0x3de4946e	0.11161123
6	0xbda2545e	-0.07926248
7	0x3e719177	0.23590647
8	0x3f16827b	0.5879285
9	0x3f2f43ea	0.68463004
10	0x3ebd5513	0.3697897
11	0x3e2e31b3	0.17011146
12	0xbeff7c53	-0.4989954
13	0xbef457ef	-0.47723338
14	0xbdab4753	-0.083632134
15	0x3f0cd7c8	0.55016756
16	0x3ee30203	0.44337472
17	0xbe84d9c2	-0.25947386
18	0xbea486d8	-0.32134128
19	0x3dabedac	0.08394942
20	0xbecafcaf	-0.39645907
21	0x3e887380	0.2665062
22	0xbe28d96d	-0.16489191
23	0x3f45889f	0.7716159
24	0x3ed02afe	0.406578
25	0xbeb02431	-0.34402612
26	0x3ebd67e7	0.36993334
27	0x3ec4d386	0.3844263
28	0xbe64678e	-0.22305128
29	0xbf82fb3b	-1.023292
30	0xbe8a4af9	-0.27010325
31	0xbe95b3e3	-0.29238805
32	0xbdcc2427	-0.09967833
33	0x3e2a90e4	0.16656834
34	0xbf19b1d9	-0.60037
35	0xbed80ec3	-0.42198762
36	0x3c781310	0.015141264
37	0x3ea1162d	0.3146223
38	0xbcab9a19	-0.020947503
39	0x3e8bbd28	0.27292752
40	0xbde249e1	-0.110492475
41	0xbfba1f24	-1.4540753
42	0x3eef0477	0.46683094
43	0x3f239b82	0.6390916
44	0x3eb6c509	0.356972
45	0x3f08f160	0.5349331
46	0xbdce81db	-0.10083362
47	0x3eafb0f6	0.34314698
48	0x3f131ba9	0.5746408
49	0xbf909169	-1.1294376
50	0x3ead9e41	0.339098
51	0xbc41d40a	-0.011830339
52	0x3f801d61	1.0008966
53	0x3edf1219	0.43568495
54	0xbe1bdbfb	-0.15220635
55	0xbeb10788	-0.34576058
56	0x3e40ccba	0.18828097
57	0xbed028ba	-0.40656072
58	0x3e25a0be	0.161746
59	0xbd8eca76	-0.0697221
60	0xbea62194	-0.32447493
61	0xbda92cd0	-0.082605004
62	0xbd0dbdcd	-0.034604836
63	0xbe1dd9e5	-0.15415151
64	0x3f1913dd	0.59795934
65	0x3f8feb03	1.1243595
66	0xbf42e321	-0.7612782
67	0xbe835de3	-0.25657567
68	0xbf934f26	-1.1508529
69	0xbecbfe23	-0.39842328
70	0xbe4ab3b3	-0.19795112
71	0x3e90450b	0.28177676
72	0xbed27e2e	-0.41111892
73	0xbf458883	-0.77161425
74	0xbf03d268	-0.5149293
75	0x3e8fda71	0.28096345
76	0xbd9f0279	-0.077641435
77	0xb9332773	-0.00017085466
78	0x3ed78587	0.4209406
79	0x3efe39a1	0.49653342
80	0xbe620b3c	-0.22074598
81	0xbfd910d0	-1.6958256
82	0xbe8b0058	-0.271487
83	0xbe950c0c	-0.29110754
84	0xbf44549b	-0.766916
85	0xbcc4d3b1	-0.024026724
86	0xbbef6b81	-0.0073065166
87	0x3ec8e390	0.39236116
88	0xbf02b400	-0.5105591
89	0x3dce5feb	0.10076889
90	0xbf1250cb	-0.5715453
91	0x3edceaf9	0.4314802
92	0xbd9a4dcc	-0.0753437
93	0xbeb1e071	-0.34741548
94	0x3f019d59	0.5063072
95	0x3cee6668	0.029101565
96	0xbf319592	-0.6936885
97	0xbe8065eb	-0.25077757
98	0x3e69adeb	0.2282025
99	0x3abb6949	0.0014298345
100	0x3ef0590b	0.46942934
101	0x3d86ebd6	0.06587951
102	0xbf09eb9e	-0.5387515
103	0x3dcb0e87	0.0991488
104	0xbf2ce6ba	-0.6753956
105	0x3e15b956	0.14621481
106	0x3ea33711	0.3187795
107	0x3ecf64a8	0.40506482
108	0xbf29a87a	-0.662727
109	0xbfa21089	-1.2661296
110	0xbe9e4c53	-0.30917606
111	0x3eba28a6	0.36359137
112	0xbf062785	-0.5240405
113	0xbf75f5bd	-0.9607809
114	0xbe89d770	-0.26922178
115	0x3eb5be1f	0.35496613
116	0xbe310abb	-0.1728925
117	0x3d2f05e2	0.04273022
118	0xbdee8d98	-0.116481006
119	0x3e1e8438	0.15480125
120	0xbe2bf63c	-0.1679315
121	0xbea143e1	-0.314971
122	0xbf5184ea	-0.81843436
123	0x3e315401	0.17317201
124	0x3f1b1358	0.6057639
125	0x3d717353	0.058947872
126	0xbdc0825a	-0.093998626
127	0x3ea738df	0.32660577
128	0xbf08838f	-0.5332574
129	0x3ca0cf2f	0.019630043
130	0x3d03737b	0.032092553
131	0xbf6a4a33	-0.9151947
132	0xbeaf0776	-0.3418538
133	0xbf853341	-1.0406266
134	0xbf030df5	-0.5119317
135	0xbf3d7f5b	-0.74022454
136	0xbeb8577f	-0.36004254
137	0x3decf799	0.11570663
138	0xbf1f5adc	-0.62248015
139	0xbf0cda27	-0.55020374
140	0x3ddcc5db	0.107799254
141	0x3ec48ad9	0.38387182
142	0xbe6db0af	-0.2321193
143	0xba9066fc	-0.001101702
144	0xbf100983	-0.56264514
145	0x3cba5c53	0.022749102
146	0x3e12b1d9	0.14325656
147	0x3ded4ad3	0.11586537
148	0xbf478d32	-0.7794982
149	0x3cc60cb5	0.024175981
150	0xbe371d6e	-0.1788232
151	0xbeba51db	-0.36390576
152	0xbf182b14	-0.5944073
153	0xbfd99e3c	-1.7001414
154	0xbe1367dd	-0.1439509
155	0xbe24d47a	-0.16096678
156	0x3daf21a4	0.08551338
157	0x3dc42c29	0.095787354
158	0xbd808ce0	-0.0627687
159	0x3e8c7a88	0.27437234
160	0xbd564984	-0.052316204
161	0xbee63efa	-0.44969922
162	0xbe803685	-0.25041595
163	0x3d67cdc8	0.056592733
164	0x3e5cc282	0.21558574
165	0x3e47c10e	0.19507238
166	0x3f1b966c	0.607764
167	0x3e37edc4	0.17961794
168	0xbdee35e0	-0.116313696
169	0x3f340c12	0.7033092
170	0xbebca9f9	-0.3684843
171	0xbecf7d7c	-0.40525424
172	0x3d73ee8e	0.059553675
173	0x3e4219fe	0.18955228
174	0x3c4e8bad	0.0126065435
175	0x3f0e2324	0.5552237
176	0x3ef73946	0.48285884
177	0xbe99dde5	-0.30052105
178	0xbe18020d	-0.14844532
179	0xbeafe053	-0.34350833
180	0x3e1fd036	0.1560677
181	0x3eb1cdbe	0.3472728
182	0xbecf8f56	-0.40539044
183	0xbe955dfd	-0.2917327
184	0x3e529fc2	0.20568755
185	0x3d1bc70c	0.038031623
186	0x3e34c017	0.17651401
187	0xbd96e6f0	-0.073682666
188	0xbe8f1d26	-0.27951926
189	0x3e43964e	0.19100305
190	0x3f79838a	0.9746634
191	0xbdcaf858	-0.09910649
192	0x3e0c99ed	0.13730593
193	0x3ec65ecc	0.387442
194	0x3f2f9c55	0.6859792
195	0xbf75c934	-0.96010137
196	0x3f88c692	1.0685599
197	0xbf3339e8	-0.7001023
198	0xbb8fc259	-0.0043871817
199	0xbe3fb1e0	-0.18720198
200	0x3e8e35b2	0.2777534
201	0x3d3e9cbc	0.046536192
202	0x3eb88c6d	0.36044636
203	0xbe324840	-0.17410374
204	0x3e19c911	0.15018107
205	0xbfbaba50	-1.4588108
206	0x3df4fd72	0.11962403
207	0xbf63c1f9	-0.88967854
208	0x3f068862	0.52551854
209	0x3ce4e3e9	0.027940707
210	0x3dbc7ad0	0.09203112
211	0xbbee854f	-0.007279075
212	0xbe87157d	-0.26383582
213	0x3ea4c611	0.32182363
214	0xbdca2c35	-0.09871713
215	0x3f1d8f9a	0.61547244
216	0x3d830fe8	0.06399518
217	0xbf63818e	-0.8886956
218	0xbe8f7e1a	-0.28025895
219	0xbed391dd	-0.41322222
220	0xbe1a7946	-0.15085325
221	0xbb27a5db	-0.0025581035
222	0xbdb9d50a	-0.09073837
223	0xbdb6d75f	-0.089277975
224	0xbe9d6c03	-0.3074647
225	0x3c196ac9	0.0093638385
226	0x3f14004e	0.57812965
227	0xbddc5be8	-0.10759717
228	0xbfd12afc	-1.6341243
229	0x3eb9c270	0.36281157
230	0x3d9b6a7e	0.07588671
231	0x3f53dac5	0.8275569
232	0xbb83df6d	-0.004024437
233	0xbda0188a	-0.078171805
234	0xbefcba03	-0.49360666
235	0xbe4b7611	-0.19869258
236	0x3c407e80	0.01174891
237	0xbe9664b4	-0.29373705
238	0xbd9b2393	-0.075751446
239	0x3e037e54	0.12841159
240	0xbcf889a5	-0.030339072
241	0xbe6060c3	-0.21911912
242	0xbf0da0da	-0.55323565
243	0xbdd754c9	-0.10514218
244	0x3f2b1861	0.66834074
245	0x3f3dbec5	0.74119216
246	0x3f506888	0.814095
247	0xbe3a7ad5	-0.18210919
248	0xbf3a83bd	-0.72857267
249	0x3e0009e3	0.12503771
250	0xbf83169d	-1.0241276
251	0xbddae78e	-0.10688697
252	0x3d5a168c	0.05324416
253	0xbdda0bda	-0.10646792
254	0xbe78061c	-0.2422108
255	0xbe2ad7e2	-0.16683915

bias f4 [50]
0	0x413b640d	11.711926
1	0x3e873c80	0.26413345
2	0x4046d112	3.1065106
3	0xc1957622	-18.682682
4	0x41a94c2d	21.162195
5	0x411d1809	9.818368
6	0xc078dcc0	-3.8884735
7	0x3fe217ff	1.7663573
8	0xbf8e9081	-1.1137849
9	0x3fb70f2f	1.4301509
10	0xc0964211	-4.6955647
11	0x40c99fab	6.3007407
12	0x3f3e6230	0.7436857
13	0x40cbe950	6.3722305
14	0xc0678be6	-3.6179137
15	0xc1240324	-10.250767
16	0xbf9f3379	-1.2437583
17	0xbf35daba	-0.71036875
18	0xc1631ec4	-14.195011
19	0x3fe055c6	1.7526176
20	0xbfc4473e	-1.5334241
21	0xc1286e8c	-10.526989
22	0xc03727b9	-2.8617995
23	0xc01345db	-2.3011386
24	0xbd108dd9	-0.035291526
25	0x407abd3c	3.9178
26	0x3fc05bb8	1.502799
27	0x41155eaa	9.335611
28	0xbe21449b	-0.15748827
29	0xc000914f	-2.008869
30	0xc1211c0e	-10.069349
31	0x3fed9a37	1.8562688
32	0xc0bdb2c8	-5.928074
33	0xbddca97f	-0.10774516
34	0xc1671c60	-14.4444275
35	0xc165b090	-14.355606
36	0x3f9eef8a	1.2416852
37	0xbfb57d26	-1.4178817
38	0x40b0bfb7	5.5234027
39	0xc179934f	-15.598464
40	0xbd1b1a89	-0.037867103
41	0xc03bbfaa	-2.9335732
42	0x40e4174e	7.127845
43	0xc1653a58	-14.326744
44	0xc0132b5c	-2.2995214
45	0xbde15a51	-0.110035546
46	0x3fcaed77	1.5853719
47	0xba9bf8d9	-0.0011899724
48	0xc03b4b20	-2.9264603
49	0x3e6e6b3f	0.23283099

weight f4 [20, 50]
0	0xbf41a5e8	-0.7564378
1	0xbf04c270	-0.5185919
2	0x3ea609f8	0.3242948
3	0x3db3e1aa	0.087832764
4	0x3eb44c66	0.35214537
5	0x3f1485a7	0.5801644
6	0x3e6f1443	0.23347573
7	0xbdcff1c3	-0.10153534
8	0xbf89beff	-1.0761412
9	0x3e5d7805	0.21627815
10	0x3f5e7b04	0.86906457
11	0xbd6146ad	-0.054999042
12	0x3df34bd4	0.118796974
13	0x3e8ce51f	0.27518556
14	0xbc5057a3	-0.012716207
15	0xbf3e36ce	-0.74302375
16	0x3f75c842	0.96008694
17	0x3de43338	0.11142582
18	0xbe21ed05	-0.15813072
19	0xbf9cb1e4	-1.2241788
20	0x3f0cc788	0.5499196
21	0xbf831f2f	-1.0243891
22	0xbec1baec	-0.37837923
23	0xbe45ff8c	-0.19335765
24	0x3d176b21	0.0369674
25	0x3e720755	0.2363561
26	0xbeeeccc4	-0.466406
27	0xbf04c7e3	-0.518675
28	0xbd053c0f	-0.03252798
29	0xbe5cc4b8	-0.21559417
30	0xbe1f873c	-0.15578932
31	0xbea4c731	-0.3218322
32	0xbf177fe5	-0.59179527
33	0x3ca39f51	0.019973429
34	0x3f5d698f	0.86489195
35	0xbdaab24a	-0.08334787
36	0xbefb3d0c	-0.49070013
37	0x3e1ee47c	0.15516847
38	0xbe887797	-0.2665374
39	0x3efecbda	0.497649
40	0xbd4ecc9d	-0.050488103
41	0xbeac2d80	-0.33628464
42	0x3f09cb80	0.5382614
43	0xbf516dad	-0.81807977
44	0xbf1e00c6	-0.6171993
45	0xbd87f3f9	-0.06638331
46	0xbd394058	-0.04522738
47	0xbd369845	-0.04457881
48	0xbf833366	-1.025006
49	0xbdc20815	-0.09474198
50	0xbc1c12a7	-0.009525931
51	0xbf7a7e7c	-0.9784925
52	0xbeaec299	-0.3413284
53	0xbeb6a13c	-0.35669887
54	0x3e64c1ed	0.22339602
55	0x3ec55674	0.3854252
56	0xbe2f8c43	-0.1714335
57	0xbf23ea8e	-0.6402978
58	0xbf236067	-0.63818973
59	0xbf2aabf6	-0.6666864
60	0x3f455d26	0.7709526
61	0x3d9caca7	0.07650118
62	0xbedb4389	-0.42824963
63	0xbe12b5de	-0.1432719
64	0x3de9a655	0.114086784
65	0xbe04e9d1	-0.12979819
66	0x3f35b5a8	0.7098031
67	0x3b244206	0.0025063767
68	0x3f4f08fc	0.80873084
69	0xbfef575a	-1.8698533
70	0xbf309231	-0.6897307
71	0xbdb57da1	-0.088618524
72	0xbea9f978	-0.33198142
73	0xbee2cb4a	-0.44295722
74	0x3c4ca45f	0.012490361
75	0xbf84baf5	-1.0369555
76	0xbe92ed78	-0.286968
77	0xbf932152	-1.1494544
78	0x3dc60773	0.096693896
79	0xbf3bfda3	-0.73433894
80	0xbd0afc4a	-0.033932008
81	0xbfbc484f	-1.4709567
82	0x3e86b084	0.26306546
83	0xbdca9915	-0.09892479
84	0x3e12e033	0.14343338
85	0x3e96f96c	0.2948717
86	0x3eca0a71	0.3946109
87	0xbe325dc4	-0.17418581
88	0x3e4fee28	0.20305693
89	0xbf4cd5ff	-0.8001403
90	0xbc96c4f1	-0.018404456
91	0x3cf1be7e	0.029509779
92	0x3de2b4f8	0.11069673
93	0x3daad535	0.08341447
94	0xbda2c6ac	-0.0794805
95	0xbd07a604	-0.03311731
96	0xbfae8dfb	-1.3637079
97	0xbd3e4ef8	-0.04646203
98	0xbeb626b3	-0.355764
99	0x3c7bbbfa	0.015364641
100	0xbf3e78d3	-0.74403113
101	0x3ee48288	0.44630837
102	0x3ebbaadc	0.36653793
103	0x3ead03ad	0.33791867
104	0xbe548aff	-0.20756148
105	0xbe840fb9	-0.25793245
106	0x3ea1535b	0.31508908
107	0xbe8bda43	-0.27314958
108	0xbef2b82b	-0.47406134
109	0xbf1d914c	-0.6154983
110	0x3e84819f	0.25880143
111	0x3e964705	0.2935106
112	0xbeac938f	-0.33706328
113	0x3f0dc297	0.55375046
114	0xbf76e1e2	-0.9643842
115	0xbf58b532	-0.8465148
116	0x3ef52577	0.47880146
117	0xbf13e657	-0.57773346
118	0x3d6781d8	0.056520313
119	0xbece2f91	-0.40270665
120	0x3f8a03cb	1.0782408
121	0xbde113ac	-0.1099008
122	0xbed1cd90	-0.40977144
123	0x3ec1b69f	0.3783464
124	0xbd8c246f	-0.06842887
125	0x3f62baa8	0.88566065
126	0xbd46a78a	-0.04849962
127	0x3fbd09bc	1.4768596
128	0xbde57c9b	-0.11205407
129	0x3f08ce06	0.53439367
130	0xbe28c189	-0.16480078
131	0xbfa6af06	-1.3022163
132	0x3e4bd1cd	0.19904251
133	0xbda5d788	-0.0809775
134	0xbf6b738f	-0.91973203
135	0x3ef712a7	0.48256418
136	0x3f158a6f	0.5841436
137	0xbe467cf7	-0.19383608
138	0xbf13b234	-0.5769379
139	0x3e3e7577	0.18599497
140	0xbd10bf52	-0.035338707
141	0xbf1f16a0	-0.621439
142	0x3eb6b440	0.35684395
143	0xbf041ec8	-0.5160947
144	0x3cf81049	0.030281203
145	0x3d741fb1	0.059600536
146	0xbe0e70ae	-0.13910171
147	0xbd1607c8	-0.036628515
148	0xbdaca335	-0.08429567
149	0xbc555366	-0.013020372
150	0xbe0a6227	-0.13514005
151	0xbb45b56f	-0.0030167957
152	0x3e8a7896	0.27045125
153	0xbfafeabb	-1.3743509
154	0x3cae4795	0.021274367
155	0xbfcc440a	-1.5958264
156	0x3f9b0248	1.2110071
157	0x3ac613a6	0.0015112057
158	0xbd64ab8a	-0.055827655
159	0x3e274286	0.1633397
160	0x3f2ce7b9	0.6754108
161	0x3f19434b	0.59868306
162	0x3ee947d0	0.455626
163	0x3e5babf0	0.21452308
164	0xbef0eeeb	-0.4705728
165	0x3e0b9c7f	0.13633917
166	0x3e59dca8	0.2127558
167	0xbf3a59e1	-0.72793394
168	0x3ecf2d9c	0.40464485
169	0xbe12d60a	-0.14339462
170	0x3f238964	0.63881516
171	0x3e535e07	0.20641337
172	0x3f352ec9	0.70774513
173	0x3ea78ea5	0.32726017
174	0xbda95e97	-0.08269995
175	0x3eceba97	0.40376732
176	0xc0107aa6	-2.2574859
177	0xbfa2ae09	-1.2709361
178	0x3c6cf3f8	0.014462464
179	0xbf1c760e	-0.6111764
180	0xbc9f991c	-0.019482188
181	0x3f81a768	1.0129213
182	0xbe48ff36	-0.19628605
183	0xbe03348b	-0.12813012
184	0xbd7b0841	-0.06128717
185	0xbfbf0d40	-1.4925919
186	0xbe1d6930	-0.15372157
187	0xbeca5d8b	-0.39524493
188	0xbf0f3774	-0.5594399
189	0x3ee867d7	0.45391724
190	0x3dc09f6a	0.09405406
191	0x3c76ac00	0.015055656
192	0xbe9d64b2	-0.30740887
193	0xbe884435	-0.26614538
194	0xbe97c366	-0.29641265
195	0xbe030643	-0.12795357
196	0x3ef98735	0.48735967
197	0xbd2e894d	-0.04261141
198	0x3e103ade	0.14084956
199	0xbbf7d2ce	-0.0075629717
200	0xbeb9053c	-0.36136806
201	0x3e5ffd80	0.21874046
202	0xbe1703b5	-0.14747508
203	0xbeaffa3a	-0.34370595
204	0x3c6e99e4	0.014563058
205	0xbfb80b2f	-1.4378413
206	0x3ed5d101	0.4176102
207	0xbd085234	-0.03328152
208	0xbe8344f5	-0.25638548
209	0x3ecd41de	0.40089315
210	0x3d249477	0.04018065
211	0xbee170c5	-0.4403135
212	0x3ec366f4	0.38164485
213	0xbdefab77	-0.11702626
214	0xbd936e94	-0.071988255
215	0xbd844775	-0.06458942
216	0xbea34107	-0.3188555
217	0x3e0514a2	0.12996152
218	0x3e0a8539	0.13527383
219	0xbe4b9032	-0.19879225
220	0x3e1242ad	0.14283247
221	0xbf08b8f3	-0.5340721
222	0x3e8306ad	0.2559103
223	0xbcb34d8b	-0.021887561
224	0xbc979117	-0.018501801
225	0x3f59f82c	0.85144305
226	0xbea9f560	-0.3319502
227	0xbd9f51ae	-0.07779251
228	0xbe156e83	-0.14592938
229	0xbefd05fa	-0.49418622
230	0xbde7b327	-0.113134675
231	0x3f49cebe	0.7883109
232	0x3f4225bf	0.75838846
233	0xbd91e72a	-0.07124169
234	0x3f15857b	0.584068
235	0x3ea7a4be	0.32742876
236	0x3f13b73c	0.5770147
237	0xbd6aa135	-0.057282645
238	0x3ed511ef	0.41615245
239	0xbe078df7	-0.13237749
240	0xbd473f55	-0.048644383
241	0xbe6dc4ea	-0.23219648
242	0xbec427bd	-0.38311568
243	0x3e412c7d	0.18864627
244	0xbe434aa2	-0.19071439
245	0x3d2a92e3	0.04164399
246	0xbe9afb29	-0.30269745
247	0x3d972a23	0.07381084
248	0xbf24ddb2	-0.6440078
249	0xbdf969be	-0.12178372
250	0xbec453ff	-0.38345334
251	0xbf98681e	-1.1906774
252	0x3f24d74c	0.64391017
253	0xbea808ab	-0.32819113
254	0x3f22230d	0.63334733
255	0x3f19e052	0.6010791

bias f4 [20]
0	0xc015f270	-2.3429222
1	0xc104f904	-8.310795
2	0x417ba054	15.726643
3	0xc1a3c872	-20.472874
4	0x3e246c6a	0.16056982
5	0x4103622f	8.211471
6	0xc1079e07	-8.476081
7	0x41042b72	8.260607
8	0x3f69d9f1	0.9134818
9	0x4171add8	15.104942
10	0xc1861105	-16.75831
11	0x3fab71ca	1.3394101
12	0x40085342	2.1300817
13	0x4036f3fc	2.8586416
14	0x40091dcb	2.1424434
15	0x3f4e1110	0.80494785
16	0xbeb35c2f	-0.35031268
17	0x41475be9	12.459939
18	0xc08f013c	-4.4689007
19	0x40b4fbad	5.655722

weight f4 [64, 20]
0	0x3c9cbb9b	0.019132426
1	0xba4f38e8	-0.0007904903
2	0xbc790550	-0.0151990205
3	0xbba08ab0	-0.0048993453
4	0x3c8e3dce	0.017363455
5	0xbd65246e	-0.055942945
6	0x3ce29a54	0.02766148
7	0xbcb81fc4	-0.022476085
8	0x3dbc38f5	0.09190551
9	0x3d1e2ef3	0.038618993
10	0x3ca53a44	0.020169385
11	0xbc1dbd25	-0.009627615
12	0xbc6f6b18	-0.0146129355
13	0xbc8dc6d7	-0.017306728
14	0x3d5afe58	0.053465217
15	0xbd2b0cf0	-0.041760385
16	0xbd770d5b	-0.06031547
17	0xbc65547a	-0.013997192
18	0xbad6275f	-0.0016338638
19	0x3d017d4d	0.031613637
20	0x3bb8172e	0.0056179976
21	0x393a5548	0.00017770112
22	0x3bfc5291	0.0077002724
23	0xbbc16fff	-0.0059032436
24	0xbcead7dc	-0.028667383
25	0x3d51c49d	0.051212896
26	0xbc655117	-0.013996384
27	0xbcf3e052	-0.02977005
28	0xbdbdb113	-0.0926229
29	0xba500015	-0.00079345825
30	0x3ad3aa7f	0.0016148834
31	0x3d5afd45	0.053464193
32	0x3da5f961	0.08104206
33	0x3c459c44	0.012061182
34	0x3d16edac	0.036847755
35	0x3d064e39	0.032789443
36	0x3d3f2597	0.046666708
37	0x3d600d23	0.05470003
38	0x3bdbb49c	0.00670488
39	0x3d92d778	0.07170004
40	0x3bc56ac9	0.0060246927
41	0x3c16a27e	0.009194015
42	0x3c22f2fd	0.009945628
43	0xbc5e2420	-0.013558418
44	0xbce5b719	-0.02804141
45	0x3d51ff45	0.051268835
46	0x3c0f547d	0.008748171
47	0xbd2b1533	-0.041768264
48	0xbd264472	-0.04059262
49	0xbc125cba	-0.008933241
50	0x3c8af8b9	0.016964303
51	0x3bc54f59	0.006021422
52	0x3cffb824	0.031215735
53	0xbb8b2564	-0.0042464007
54	0x3df2d8b3	0.11857738
55	0xbd9e6854	-0.07734743
56	0xbc5b299b	-0.013376619
57	0xbc65cddf	-0.014026134
58	0x3a57b50b	0.00082285766
59	0xbcd05022	-0.025428835
60	0x3bf541be	0.0074846437
61	0x3b4e219f	0.0031453145
62	0xb9b4ab8e	-0.00034460094
63	0x3b8dc729	0.0043267203
64	0xbc482ef8	-0.0122182295
65	0xbd357c22	-0.044307835
66	0xbcbc7688	-0.023005739
67	0xbc28ae2e	-0.010295434
68	0xbd890e79	-0.066922136
69	0xbd5ff670	-0.05467838
70	0xbc200748	-0.009767361
71	0xbd48ef41	-0.049056295
72	0x3cc93ee0	0.024566114
73	0x3c23e2f0	0.010002837
74	0x3db98a26	0.09059553
75	0x3b3a3fdb	0.0028419408
76	0xbd5fa7b3	-0.05460329
77	0x3b8572ad	0.0040725083
78	0x39de73e0	0.00042429473
79	0xbd93fc5d	-0.07225869
80	0xbb223f66	-0.0024757027
81	0xbbade592	-0.005306908
82	0x3ce9047f	0.028444527
83	0x3c1ad7da	0.009450877
84	0x3d43687b	0.047707062
85	0xbcf2bf03	-0.029632097
86	0x3b535b06	0.00322503
87	0xbb4e0f0d	-0.0031442076
88	0x3d22cf15	0.03974827
89	0xbb8fe2f9	-0.004391071
90	0xbc751910	-0.014959589
91	0xbd4492b7	-0.04799148
92	0x3ce82b6a	0.028341014
93	0xbcbaf642	-0.022822503
94	0xbd02cd26	-0.031933926
95	0xbd84bd3c	-0.06481406
96	0x3dc4f42e	0.09616886
97	0xbc1f9211	-0.009739415
98	0x3a07ce38	0.00051805703
99	0xbd6b28db	-0.05741201
100	0xbc878800	-0.016544342
101	0x3c3b9c20	0.011450797
102	0xbc98a023	-0.018631047
103	0xbcaeb51b	-0.021326592
104	0x3b21b5c0	0.0024674982
105	0xbc5ee7da	-0.013605082
106	0xbce2e314	-0.02769617
107	0xbd39fe0a	-0.045408286
108	0x3cdc862b	0.026919445
109	0x3c59739d	0.013272193
110	0x3c2c7bcb	0.010527561
111	0x3d63673d	0.055518378
112	0x3c900b88	0.017583624
113	0xbc61972a	-0.0137689505
114	0x3d8789bd	0.06618068
115	0x3d8144ef	0.06311976
116	0x3d7fa70a	0.06241516
117	0xbd3d1e7a	-0.046171643
118	0xbb2fe3eb	-0.002683873
119	0x3d6581c3	0.056031954
120	0x39df9abf	0.0004264917
121	0x3b2285fa	0.0024799095
122	0xbccca0cf	-0.024979023
123	0xbc176b50	-0.009241894
124	0x3cf48586	0.029848825
125	0xbc30c3e5	-0.010788892
126	0x3cb3e622	0.021960322
127	0x3c0da96f	0.008646353
128	0x3cde1c04	0.027112968
129	0x3d100ae5	0.03516664
130	0x3c7549ae	0.01497118
131	0x3b84433e	0.004036336
132	0x3d125082	0.03572131
133	0xbce7f2f7	-0.028314097
134	0x3c8b4a9c	0.01700335
135	0x3c22d7e2	0.009939166
136	0x3d00af13	0.031416964
137	0xbbbbc5f3	-0.0057303845
138	0xbb21d4ab	-0.002469341
139	0x3c951d17	0.018202348
140	0x3c5971f2	0.013271796
141	0xbc16699d	-0.009180454
142	0x3b85ba8a	0.004081075
143	0x3b799f86	0.0038089468
144	0x3d2e52c2	0.042559393
145	0xbd8250d4	-0.06363073
146	0x3d466887	0.04843953
147	0x3b8f975d	0.0043820576
148	0x3d587ceb	0.052853506
149	0x3cce5c60	0.025190532
150	0x3bea5bf7	0.0071520763
151	0xbd2bd5f5	-0.041952092
152	0xbc97c7ca	-0.018527884
153	0xbd216198	-0.039399713
154	0x3c5477a4	0.012967978
155	0xbddf3ce7	-0.10900288
156	0x3d09b127	0.03361621
157	0xbca77697	-0.02044229
158	0xbb47aba1	-0.003046729
159	0xb9ac1aba	-0.0003282631
160	0x3cafddcf	0.021468071
161	0xbb7b6b15	-0.0038363386
162	0x3c26a4a5	0.01017109
163	0xbb46a83b	-0.0030312676
164	0x3d08221a	0.033235647
165	0xbc539faf	-0.0129164895
166	0x3dc87ddd	0.097896315
167	0xbdaf97ae	-0.085738525
168	0xbd51624c	-0.051119134
169	0x3d063c8a	0.03277258
170	0x395e3d44	0.00021194393
171	0xbc9c3151	-0.019066485
172	0x3d260ad5	0.040537674
173	0xba005b3f	-0.0004896409
174	0x3cb65171	0.022255631
175	0x3d85bdfe	0.06530379
176	0x3db551bb	0.088534795
177	0xbd20b7a7	-0.039237645
178	0xba78204e	-0.0009465263
179	0x3d438f52	0.047744103
180	0x3c1105e1	0.008851499
181	0x3b7c183a	0.0038466589
182	0xbc6423de	-0.013924567
183	0xba9b29b5	-0.0011837991
184	0x3cdc4bf1	0.02689168
185	0xbd244021	-0.04010022
186	0xbd003a30	-0.031305492
187	0x3c925a38	0.017865285
188	0xbc796460	-0.015221685
189	0x3b5f54bb	0.0034077603
190	0xbcb2b59b	-0.021815112
191	0xbd518863	-0.05115546
192	0x39b2e20e	0.0003411923
193	0x3b1a0152	0.0023499322
194	0x3d1859b9	0.03719494
195	0xbcb32d12	-0.021872077
196	0x3da241e6	0.079227254
197	0x3bdfe26e	0.0068324124
198	0xba80753a	-0.0009800561
199	0xbd20b8fe	-0.039238922
200	0xbbe66e4f	-0.007032193
201	0xb90a2d60	-0.00013177609
202	0x3cb09f3c	0.021560304
203	0x3b9ee3ed	0.004848948
204	0x3cdd21c7	0.026993645
205	0x3ba865e6	0.0051391004
206	0x3aa10692	0.0012285283
207	0xbc5996ea	-0.01328061
208	0xbd2a03a2	-0.04150737
209	0xbc96aa6e	-0.018391814
210	0xbb3d5e1a	-0.00288952
211	0xbcc74611	-0.024325402
212	0xbba87975	-0.005141432
213	0xbd2c70d3	-0.042099785
214	0xbc30e6c2	-0.010797204
215	0x3dbd6021	0.09246851
216	0x3d533555	0.051564533
217	0x3d205c93	0.039150786
218	0x3b11fadb	0.0022274766
219	0x3d42d647	0.047567632
220	0xbcc479ab	-0.023983797
221	0x3b02682e	0.0019898522
222	0xbb7bc4a5	-0.003841677
223	0xbbc69eab	-0.006061395
224	0x3d248c30	0.040172756
225	0xbd2c20e3	-0.04202355
226	0xba5fde23	-0.0008539876
227	0x3be060f7	0.0068474966
228	0x3d2667e5	0.040626425
229	0x3c27f17b	0.0102504445
230	0x3b71b283	0.0036880083
231	0xbcec70ab	-0.028862318
232	0x3a1e4832	0.00060379796
233	0xbcf56452	-0.029955063
234	0xb8ace905	-8.2450024e-05
235	0x3d8b3c1d	0.06798575
236	0xbb502ede	-0.0031766216
237	0xbc27dffc	-0.010246273
238	0xbbb305ef	-0.005463354
239	0x3b88a684	0.004170241
240	0xbbb25b75	-0.0054430314
241	0xbb9d7f29	-0.0048064184
242	0x3ceda411	0.029008897
243	0x3b08c248	0.0020867754
244	0xbc89977d	-0.016795868
245	0x3d8b0332	0.06787719
246	0x3c8fb4d5	0.017542282
247	0x3b5f766b	0.0034097682
248	0xbdbe234a	-0.092840746
249	0xbc1dd18b	-0.0096324785
250	0xbc22533c	-0.00990754
251	0xbbf7badb	-0.0075601167
252	0x3c831436	0.016000848
253	0x3b96b82e	0.0045995926
254	0xbd5a3e79	-0.053282235
255	0x3d2eb647	0.042654302

bias f4 [64]
0	0xbde2f848	-0.11082512
1	0x3e46cac9	0.19413294
2	0xbdd619ee	-0.104541644
3	0x3debe943	0.115191005
4	0x3e576b5a	0.21037045
5	0xbcb992e5	-0.022653053
6	0xbf06b5bb	-0.5262105
7	0xbef65b9f	-0.48116776
8	0xbd90b1f7	-0.07065194
9	0x3ea1a24f	0.31569144
10	0x3de7a9ae	0.11311661
11	0xbe8f99dc	-0.28047073
12	0xb8afc98c	-8.382191e-05
13	0x3e9c228b	0.30495104
14	0xbd0d1bae	-0.034450226
15	0x3f0d98f6	0.55311525
16	0x3d1de8bf	0.038552042
17	0x3e8e2b7a	0.27767545
18	0x3d1429c3	0.03617264
19	0xbe285a4b	-0.16440694
20	0x3e8f0c56	0.279391
21	0xbe043950	-0.12912488
22	0xbe0e00a2	-0.13867429
23	0xbdf37e8a	-0.1188937
24	0xbf738a98	-0.9513335
25	0xbea5d380	-0.32387924
26	0x3e60bfe0	0.21948195
27	0x3e57a8e4	0.2106052
28	0x3f3ddd96	0.7416624
29	0x3e82dc67	0.2555878
30	0x3f04bebf	0.51853555
31	0x3d877b44	0.06615308
32	0x3e88a069	0.26684883
33	0x3d7025b3	0.058629703
34	0xbe185dc9	-0.14879526
35	0x3e80721d	0.25087062
36	0xbdd3181a	-0.103073314
37	0xbe75db95	-0.24009545
38	0x3f065e1a	0.5248734
39	0x3e8392b7	0.25697872
40	0xbee34ff0	-0.44396925
41	0xbe08ca02	-0.1335831
42	0xbe880127	-0.2656338
43	0x3e3d735d	0.18501039
44	0x3eb87991	0.36030248
45	0xbed7f491	-0.42178777
46	0x3eb23b09	0.34810665
47	0x3d5a860a	0.053350486
48	0x3e2ed341	0.17072774
49	0xbeb3c680	-0.3511238
50	0xbe5886cd	-0.21145172
51	0xbe263a26	-0.1623312
52	0xbdc857ea	-0.09782393
53	0xbcf45c71	-0.029829236
54	0xbe907a74	-0.28218424
55	0xbe7db438	-0.24775779
56	0xbea073fb	-0.31338486
57	0xbe084b76	-0.13310036
58	0x3e867f7e	0.26269144
59	0xbe066273	-0.13123493
60	0xbe63b548	-0.22237122
61	0x3ecf21e4	0.40455544
62	0xbe299b72	-0.16563204
63	0x3d45c26a	0.04828111
