runs/20250317_200419/best_lrLocalModel.pt (torch, 6397 bytes, 2 tensors)

weight f4 [64, 6]
5.4104472e-05 -0.008719766 0.6166387 0.2862845 -0.20615105 -13.686696 -0.090799846 -0.1653123
-1.4960359 -0.37653324 0.27339348 12.664637 4.742538e-05 0.0074759675 1.5393941 0.27529797
-0.22464283 -11.814339 0.0004280934 -1.2903304 -1.9496441 -1.131221 -1.6126266 -19.506575
-4.2463864e-05 0.13368359 0.60430706 0.36145306 0.26053557 -13.807484 -0.00011612609 0.32709882
-0.12151216 -0.6194362 0.32346237 17.833284 4.1839005e-05 0.669373 1.9142807 0.823303
-0.29025573 -11.82948 0.00030015066 -1.1080209 -1.0075489 -0.36594734 -1.092293 -17.246971
-7.284218e-05 0.04160325 0.6157574 0.36173782 0.06851384 14.6192875 3.9892413e-05 -0.55476975
-1.346577 -0.78205854 -0.14962097 13.586298 4.6206398e-05 0.6885668 1.664538 1.0966889
-0.114068106 -11.467348 -0.00013395396 0.25981802 -1.4641773 -0.43187913 0.23656216 11.575847
-8.54384e-05 -0.13872793 -0.24711491 -0.65100247 0.21510799 17.845016 0.00013677296 0.2307052
0.75100636 0.16281469 -0.50242317 -15.516361 -0.00012967586 -0.5842355 -1.1780016 -0.26628178
0.3248016 11.827057 3.645337e-05 0.31888562 2.0276656 0.5127594 -0.22947162 -11.49076
0.00046482898 -1.2725755 -1.1316919 -1.2744187 -1.7923547 -25.187948 -4.8732945e-06 -0.3603435
0.16673689 -0.53948444 -0.20615874 11.735758 -0.00023797412 0.99194497 1.1016817 0.47668016
0.80808026 14.76541 0.00020702211 -0.4491518 -0.14705084 -0.04305198 -0.7163366 -21.376448
0.00016752967 -0.22683339 -0.1909605 -0.432225 -0.51767814 -20.710888 9.123159e-05 0.7303321
1.2529488 0.74684286 -0.118443586 -14.458861 0.00026444098 -0.7737706 -0.57504636 -0.76274765
-0.91216105 -21.924263 -8.001596e-05 0.59546816 1.60277 0.9419285 0.30325016 -11.551303
-1.4570336e-05 0.3500254 0.8814251 0.6337575 0.08772006 -12.686818 0.00030278758 -1.0310218
-1.1857537 -0.5048559 -1.0711619 -22.265041 -0.00011489341 -0.35864946 -1.1076431 -0.8140425
0.2977893 15.098399 0.0002244546 -0.81130934 -0.39969245 -0.83942336 -0.44781476 -11.704545
-0.00015395593 0.76707786 0.6944381 0.26294786 0.46180832 17.268278 6.53741e-05 0.04078983
0.119636565 -0.5043913 -0.06592109 -16.008064 -9.980949e-05 0.43380243 0.3972306 0.10426977
0.37808308 8.117656 0.00021989676 -0.14094281 -0.65390533 -0.3803791 -0.66199017 -12.333852
1.4516736e-05 -0.3808613 -1.025162 -0.8391982 -0.103141144 14.379568 3.9154165e-05 -0.29074332
-1.3807781 -0.7646402 -0.14084442 11.1373415 2.0306274e-05 -0.21673995 0.004149447 -0.21355581
0.22820488 -13.1671095 -1.9050494e-05 0.690678 2.2603364 0.8358315 0.1002358 -12.161607
-3.701655e-05 0.4093981 -1.4970065 -0.567713 0.16298255 11.665143 0.00012553937 0.087630235
0.3818128 0.520476 -0.4687282 -19.24782 5.2106738e-05 -0.3806935 -1.5333968 -0.7704001
-0.19430856 12.963131 -7.7669276e-05 -0.29165825 -0.98434925 -0.08644815 0.33043686 13.852493
8.6853506e-05 0.18799815 0.1447433 0.2655679 -0.1868117 -17.792437 0.0002953362 -0.41671073
-0.61370593 -0.15912034 -1.1042205 -22.279406 -4.505214e-05 0.5142637 0.060419906 0.32244638
00000000: 3cee 6238 59dd 0ebc 09dc 1d3f e293 923e
00000010: 4319 53be b5fc 5ac1 45f5 b9bd a147 29be
00000020: 1b7e bfbf f7c8 c0be 3bfa 8b3e 5aa2 4a41
00000030: 9dea 4638 f6f8 f43b de0a c53f dbf3 8c3e
00000040: c508 66be 8807 3dc1 b971 e039 8c29 a5bf
00000050: f08d f9bf dacb 90bf 8c6a cebf 770d 9cc1
00000060: 3a1b 32b8 5ae4 083e deb3 1a3f 6010 b93e
00000070: eb64 853e 74eb 5cc1 b888 f3b8 7f79 a73e
00000080: 5edb f8bd 5f93 1ebf dc9c a53e 91aa 8e41
00000090: 4a7c 2f38 075c 2b3f 2607 f53f fcc3 523f
000000a0: 669c 94be 8d45 3dc1 8a5d 9d39 a1d3 8dbf
000000b0: 5df7 80bf 735d bbbe 42d0 8bbf ccf9 89c1
000000c0: d9c2 98b8 2b68 2a3d 47a2 1d3f b335 b93e
000000d0: fc50 8c3d 9ae8 6941 2752 2738 6405 0ebf
000000e0: a35c acbf fd34 48bf 3d36 19be 7a61 5941
000000f0: becd 4138 ea45 303f 950f d53f 4d60 8c3f
00000100: 8a9c e9bd 427a 37c1 fe75 0cb9 de06 853e
00000110: 296a bbbf 431f ddbe 5a3d 723e ab36 3941
00000120: 642d b3b8 b20e 0ebe b10b 7dbe 19a8 26bf
00000130: 4545 5c3e 98c2 8e41 b66a 0f39 fc3d 6c3e
00000140: f441 403f e5b8 263e ce9e 00bf 0443 78c1
00000150: 99f9 07b9 7590 15bf c2c8 96bf 1656 88be
00000160: 654c a63e a03b 3d41 82e5 1838 fa44 a33e
00000170: 46c5 0140 3344 033f 9cfa 6abe 27da 37c1
00000180: 4ab4 f339 c1e3 a2bf 48db 90bf 2720 a3bf
00000190: e16b e5bf eb80 c9c1 4885 a3b6 f17e b8be
000001a0: 13bd 2a3e a71b 0abf 471b 53be aac5 3b41
000001b0: b188 79b9 1bf0 7d3f e803 8d3f 6c0f f43e
000001c0: 59de 4e3f 1f3f 6c41 1314 5939 3af7 e5be
000001d0: 7f94 16be 4657 30bd d661 37bf f702 abc1
000001e0: e7aa 2f39 0347 68be 268b 43be 984c ddbe
000001f0: 8e86 04bf e6af a5c1 9653 bf38 0bf7 3a3f
00000200: a060 a03f 1831 3f3f 8d92 f2bd 7f57 67c1
00000210: aba4 8a39 d415 46bf 3d36 13bf 6e43 43bf
00000220: 6383 69bf e464 afc1 3ece a7b8 9a70 183f
00000230: 9127 cd3f 3a22 713f 9b43 9b3e 23d2 38c1
00000240: 1e73 74b7 8736 b33e 13a5 613f ee3d 223f
00000250: 93a6 b33d 35fd 4ac1 76bf 9e39 86f8 83bf
00000260: c7c6 97bf 3c3e 01bf d51b 89bf ce1e b2c1
00000270: eef2 f0b8 e7a0 b7be 40c7 8dbf 1765 50bf
00000280: d777 983e 0b93 7141 935b 6b39 f8b1 4fbf
00000290: 7da4 ccbe 73e4 56bf fa47 e5be d145 3bc1
000002a0: 3b6f 21b9 375f 443f b2c6 313f 1aa1 863e
000002b0: 2472 ec3e 6f25 8a41 7419 8938 3d13 273d
000002c0: 0404 f53d ca1f 01bf a301 87bd 8410 80c1
000002d0: d050 d1b8 5a1b de3e cf61 cb3e 648b d53d
000002e0: 1b94 c13e ebe1 0141 1694 6639 5053 10be
000002f0: 5766 27bf 0dc1 c2be 3078 29bf 7557 45c1
00000300: e88c 7337 4100 c3be 8238 83bf b1d5 56bf
00000310: aa3b d3bd b612 6641 7739 2438 4fdc 94be
00000320: 56bd b0bf 76bf 43bf 8539 10be 8d32 3241
00000330: 6457 aa37 14f1 5dbe 16f8 873b 60ae 5abe
00000340: 8aae 693e 7bac 52c1 a0ce 9fb7 46d0 303f
00000350: 5aa9 1040 0ef9 553f 6d48 cd3d f195 42c1
00000360: 3842 1bb8 a19c d13e e99d bfbf a455 11bf
00000370: e6e4 263e 6da4 3a41 38a3 0339 7b77 b33d
00000380: f87c c33e ea3d 053f 25fd efbe 89fb 99c1
00000390: 2f8d 5a38 42ea c2be 5946 c4bf f138 45bf
000003a0: d3f8 46be fc68 4f41 60e2 a2b8 3b54 95be
000003b0: 50fe 7bbf ba0b b1bd 052f a93e d0a3 5d41
000003c0: 1f25 b638 9682 403e 9637 143e 84f8 873e
000003d0: 914b 3fbe e956 8ec1 5bd7 9a39 1c5b d5be
000003e0: d51b 1dbf 71f0 22be 1957 8dbf 393c b2c1
000003f0: 5ef6 3cb8 c9a6 033f dd7a 773d b117 a53e

bias f4 [64]
-0.28387365 1.1031666 -1.0453086 -1.2231222 -0.520234 0.07482153 -0.576592 -0.61998653
0.1588448 0.06501359 -0.05910616 0.44816473 -0.31409514 -0.09856037 0.7914309 -0.19212258
-1.7404609 -0.006547845 0.36079168 -0.5927421 -0.52856725 -0.12449268 -0.9354955 -0.43865657
-0.35820997 -0.81257826 0.61465514 -0.7137075 0.57764214 0.015133767 0.03696388 -0.85320675
0.3327667 0.15484332 -0.23476143 -0.24044721 0.29792818 0.0804805 -0.24656554 0.35338446
-0.25527158 -1.0578481 -0.05327555 -0.2382285 0.57501954 0.09476667 0.9008372 0.8081915
-1.9469504 -0.5886495 -1.3023677 0.5527907 -0.098291576 -0.34302473 0.29838708 -0.25462052
-0.6046173 0.8487812 -0.45410386 -0.89849424 -0.5673802 0.60509795 0.1299814 -0.54944384
00000000: e357 91be 9034 8d3f accc 85bf 458f 9cbf
00000010: 0e2e 05bf 083c 993d 899b 13bf 70b7 1ebf
00000020: 36a8 223e d825 853d 4d19 72bd d975 e53e
00000030: 14d1 a0be 05da c9bd 379b 4a3f c8bb 44be
00000040: 6cc7 debf 4e8f d6bb b0b9 b83e f2bd 17bf
00000050: 2f50 07bf 05f6 febd a27c 6fbf 9897 e0be
00000060: 4c67 b7be 2105 50bf 0a5a 1d3f 89b5 36bf
00000070: 5be0 133f 9ff3 773c 7067 173d c26b 5abf
00000080: 6660 aa3e 3f8f 1e3e 4d65 70be cb37 76be
00000090: 0b8a 983e f6d2 a43d ad7b 7cbe cfee b43e
000000a0: f5b2 82be 9167 87bf 7737 5abd 2cf2 73be
000000b0: 7b34 133f 0715 c23d 449d 663f a3e5 4e3f
000000c0: ac35 f9bf bcb1 16bf fcb3 a6bf b183 0d3f
000000d0: 184d c9bd f0a0 afbe 31c6 983e 9f5d 82be
000000e0: 33c8 1abf ba49 593f 4d80 e8be b803 66bf
000000f0: d43f 11bf b3e7 1a3f d819 053e 5aa8 0cbf
