runs/20250317_181343/lrLocalModel.pt (torch, 4978 bytes, 2 tensors)

weight f4 [16, 6]
0	0xb8c0bdda	-9.190636e-05
1	0xbf318923	-0.6934988
2	0xbf9bb4ba	-1.2164528
3	0xbfb61ddd	-1.4227864
4	0x3f24ab4d	0.64323884
5	0x421b100b	38.765667
6	0x36bfc6f8	5.7154066e-06
7	0x3f8feaa2	1.1243479
8	0x40550845	3.3286297
9	0x4024d5f7	2.5755594
10	0xbe804f65	-0.25060573
11	0xc24e7dfc	-51.62303
12	0xb8ec27fa	-0.00011260803
13	0xbfac3f74	-1.3456864
14	0xc01c463d	-2.441787
15	0xc0294f25	-2.6454556
16	0x3f3d20fe	0.7387847
17	0x424c1da4	51.028946
18	0x3778df60	1.483396e-05
19	0x3fd1599c	1.6355472
20	0x404b1eab	3.1737468
21	0x4051b53e	3.2766871
22	0xbe2c50cf	-0.16827701
23	0xc2442244	-49.033463
24	0x39c9133c	0.00038352038
25	0xbea33661	-0.31877425
26	0xbdf12a0d	-0.11775599
27	0xbd7190c7	-0.05897596
28	0xbec8a9f4	-0.39192164
29	0xc175f657	-15.372642
30	0x37434b68	1.1640463e-05
31	0x3f0096b7	0.5022997
32	0x3f3002ce	0.6875428
33	0x3e96f4c5	0.2948362
34	0xbdd3dd36	-0.10344927
35	0xc18b48cd	-17.410547
36	0xb94e0c1c	-0.00019650202
37	0x3f47a66e	0.77988327
38	0x3f2b6be7	0.6696152
39	0x3e749def	0.23888372
40	0x3f8e4e3b	1.1117624
41	0x414fa609	12.978036
42	0xb8df9e04	-0.00010662901
43	0xbe12064c	-0.14260215
44	0xbf3459c0	-0.7044945
45	0xbf13b2de	-0.57694805
46	0x3f27f00e	0.6560067
47	0x41dfb887	27.965101
48	0xb827dc92	-4.0021325e-05
49	0x3f9d280e	1.2277849
50	0x4015f7bf	2.3432462
51	0x3fe4543c	1.7838206
52	0x3c9c4361	0.019075098
53	0xc20b7bb2	-34.870796
54	0x3983893c	0.00025088515
55	0x3f0c7da6	0.54879224
56	0x3fc0df1f	1.5068091
57	0x3f8cf3ad	1.1011864
58	0xbfcba4a1	-1.5909616
59	0xc25cf47c	-55.238754
60	0xb964301f	-0.00021761701
61	0x3f0269e3	0.5094282
62	0xbed11f22	-0.40844065
63	0x3d9e4fcd	0.077300645
64	0x3fac43e5	1.345822
65	0x41bf9113	23.945837
66	0x399dbb60	0.0003008498
67	0xbed2d223	-0.41175947
68	0xbf46a158	-0.7758994
69	0xbe2c2ceb	-0.1681401
70	0xbfdde6bc	-1.733604
71	0xc1b54ca5	-22.662424
72	0x3877cc8e	5.9079895e-05
73	0x3e3f3237	0.18671499
74	0x3e47bbaa	0.19505182
75	0x3eb5a577	0.35477802
76	0xbeaf095c	-0.34186828
77	0xc1a5ac96	-20.70927
78	0xb91d8032	-0.00015020443
79	0x3f5f2ff4	0.87182546
80	0x3f088ece	0.533429
81	0x3f71e7ff	0.9449462
82	0x3f4c58b1	0.7982283
83	0x410275ae	8.15373
84	0xb7892818	-1.6350343e-05
85	0xbff2f840	-1.898201
86	0xc04ac4d5	-3.1682637
87	0xc023da48	-2.5601978
88	0x3ee82992	0.45344216
89	0x4241b231	48.424015
90	0x384fa8b0	4.950975e-05
91	0xbe8f645f	-0.28006265
92	0x3ce39c67	0.02778454
93	0xbee8c86d	-0.45465413
94	0xbe8cd981	-0.27509692
95	0xc0a7754a	-5.2330675

bias f4 [16]
0	0x3f4fdc91	0.8119593
1	0xbf13ed87	-0.5778431
2	0x3f1742fe	0.59086597
3	0x3d495f75	0.0491633
4	0xbf3fced0	-0.74924946
5	0x3e81119b	0.25208744
6	0x3f64d79b	0.8939149
7	0x3de9e1cd	0.11420021
8	0xbe8fd910	-0.28095293
9	0xbfc1e13c	-1.5146861
10	0x3f6dd5cc	0.92904353
11	0xbf6d2da8	-0.9264779
12	0xbf04a4f3	-0.5181419
13	0x3ef25bd1	0.47335675
14	0xbed568d0	-0.41681528
15	0x3dbd08af	0.09230172
