runs/20250317_181343/mlpLocalModel.pt (torch, 42357 bytes, 8 tensors)

weight f4 [100, 17]
18.27972 14.229669 21.372837 17.305298 11.524153 0.5185693 0.20643428 0.27547568
-0.011228749 0.31848145 0.16593958 -2.5260491 0.18864524 -2.4821355 -0.49346924 0.07847309
-0.14155777 4.6472263 1.66481 2.4164455 -1.5524735 -1.5171188 0.48210743 0.02158727
0.38566285 -0.28073078 -0.69799507 -1.025802 -1.3775206 0.42557535 -0.21257229 0.1414427
0.085717954 0.049127646 10.591749 14.795641 14.789621 11.682491 11.063044 -0.37302712
-0.16991381 -0.26034895 0.09450709 0.25898078 -0.17250648 0.25569972 -0.8437899 -0.7558123
-0.73584265 -0.20049573 -1.2658753 0.9314026 -0.12063198 1.1945083 0.4789406 -4.157371
0.026516516 -0.65478677 -0.800023 -0.49749777 0.98009896 -0.5477 0.5406677 -0.63737303
-0.49731886 -0.09733965 -2.2425063 0.10882339 -0.19494003 -0.39203826 -0.43103436 -0.27219245
-0.24181572 -2.8406417 -1.9390417 -0.19950967 -0.62066 0.5076469 0.19561799 -0.2562205
-0.032747373 -0.76363605 -0.15299295 0.27681965 -1.4501266 0.46053347 -0.06574222 -0.06664024
0.10542427 0.088017546 0.15873557 -0.49469495 0.5183925 0.13724202 -0.47128296 -0.54585844
-2.4435604 -0.35708782 0.40317303 0.39796168 -0.6554652 -1.3568968 6.4451156 6.4754267
6.846069 4.0149155 3.819816 -0.6637774 0.008483965 0.35668537 0.1414527 -0.27857307
-0.17064165 0.3959799 0.6332427 0.36877164 -2.608349 -0.063785695 -1.7370543 9.328644
8.587803 9.568188 10.2637615 9.908671 -0.18954617 -0.13356614 -0.09618449 0.05039039
0.011520009 0.08074379 -0.44402105 -0.9065021 -0.41625243 -0.76882195 -0.082846895 -0.7119452
2.3131523 3.4613764 3.787426 4.693425 3.549817 -0.31437835 -1.4013827 -0.40053275
0.2931157 -0.1921705 0.55922866 -1.5216659 -0.55210286 0.21690081 -0.15376596 0.82415676
0.12160701 -0.8517331 -1.2770078 1.0273836 0.77168924 2.1195514 -0.89214313 -0.4030363
-0.45253533 -0.5831089 -0.22616209 -0.04145677 -0.10184484 -0.63723224 0.29140353 -1.7763413
0.14843357 -0.01086402 8.737771 7.9025297 7.9391313 7.0125356 3.4792604 -0.41211656
-0.3560973 -0.4438059 -0.36778855 0.26947215 0.9822313 -0.84824055 -0.7876722 -1.0100658
-0.3536329 0.36754322 0.026124239 3.27954 3.121359 1.9127295 -0.16561462 0.5655764
0.60786647 -0.51045626 0.29848385 0.034814175 -0.35219148 0.121738374 0.7244502 0.22498734
-0.9476604 0.4494987 -0.5669487 -3.028627 -2.6386406 -1.4720562 0.21535611 1.4901292
-0.80376107 -0.14778952 -0.032685522 -1.0578914 -0.96842134 0.24591815 0.14509062 0.22767748
-0.22279705 -0.07415177 0.43551427 -0.2645659 -0.4641229 1.186488 0.21025002 -0.13030738
-0.05529752 -0.2522485 -0.5213826 -0.3903161 -0.22013201 -0.6649649 -0.46381032 0.080008864
-0.33961922 -0.4693031 -0.16894302 -0.86732715 -0.13651808 0.002451555 -0.65757924 5.0620522
-0.774659 -0.8125457 -2.1380727 0.36584425 -0.3631672 -0.0108243255 -0.05287738 -0.44989568
0.21968316 0.9500921 -1.3917054 0.26134327 -0.09473155 0.43613413 0.18210578 9.495341
00000000: de3c 9241 b9ac 6341 92fb aa41 4071 8a41
00000010: ee62 3841 f5c0 043f 8263 533e 260b 8d3e
00000020: c9f8 37bc 0010 a33e 11ec 293e caaa 21c0
00000030: 382c 413e 4fdb 1ec0 00a8 fcbe 80b6 a03d
00000040: 85f4 10be 14b6 9440 7e18 d53f 0ba7 1a40
00000050: 74b7 c6bf f330 c2bf c9d6 f63e c9d7 b03c
00000060: 9a75 c53e f2bb 8fbe ceaf 32bf 7b4d 83bf
00000070: 9852 b0bf 03e5 d93e 8dac 59be 5bd6 103e
00000080: e58c af3d 123a 493d ce77 2941 f2ba 6c41
00000090: 4aa2 6c41 7ceb 3a41 3a02 3141 69fd bebe
000000a0: e3fd 2dbe 754c 85be ef8c c13d 2199 843e
000000b0: 8aa5 30be 13eb 823e 9d02 58bf ea7c 41bf
000000c0: 2f60 3cbf c14e 4dbe 3408 a2bf 6770 6e3f
000000d0: e60d f7bd a6e5 983f b437 f53e 2f09 85c0
000000e0: 2a39 d93c 1ba0 27bf 4fce 4cbf 07b8 febe
000000f0: c4e7 7a3f 1136 0cbf 3369 0a3f e12a 23bf
00000100: 94a0 febe 035a c7bd 3985 0fc0 ccde de3d
00000110: 5c9e 47be 3db9 c8be 89b0 dcbe cf5c 8bbe
00000120: 8a9e 77be 13cd 35c0 8532 f8bf 434c 4cbe
00000130: 93e3 1ebf 26f5 013f 1550 483e 552f 83be
00000140: 1c22 06bd a77d 43bf 2faa 1cbe 4ebb 8d3e
00000150: c09d b9bf 0bcb eb3e dba3 86bd ae7a 88bd
00000160: aee8 d73d 8b42 b43d 948b 223e a848 fdbe
00000170: 5fb5 043f 2c89 0c3e 004c f1be 61bd 0bbf
00000180: 4b63 1cc0 37d4 b6be b26c ce3e a2c1 cb3e
00000190: 91cc 27bf cbae adbf 633e ce40 b236 cf40
000001a0: ff12 db40 307a 8040 de77 7440 51ed 29bf
000001b0: 5400 0b3c 779f b63e fad8 103e 21a1 8ebe
000001c0: afbc 2ebe e1bd ca3e 321c 223f a3cf bc3e
000001d0: 31ef 26c0 13a2 82bd cc57 debf 2042 1541
000001e0: a467 0941 4c17 1941 5e38 2441 eb89 1e41
000001f0: 6418 42be 90c5 08be 60fc c4bd 2766 4e3d
00000200: 6bbe 3c3c 005d a53d ba56 e3be 8610 68bf
00000210: 0a1f d5be 84d1 44bf a2ab a9bd 0a42 36bf
00000220: b00a 1440 3187 5d40 3065 7240 8a30 9640
00000230: 3430 6340 33f6 a0be 8260 b3bf a112 cdbe
00000240: 4313 963e 58c8 44be 9c29 0f3f f3c5 c2bf
00000250: 9d56 0dbf 3f1b 5e3e d374 1dbe f0fb 523f
00000260: 190d f93d 2e0b 5abf fe74 a3bf 4e81 833f
00000270: 6d8d 453f bba6 0740 7e63 64bf c65a cebe
00000280: b6b2 e7be a046 15bf 0997 67be 93ce 29bd
00000290: 0794 d0bd a721 23bf d832 953e 275f e3bf
000002a0: f8fe 173e 01ff 31bc e9cd 0b41 86e1 fc40
000002b0: 5d0d fe40 b166 e040 34ac 5e40 f100 d3be
000002c0: 6352 b6be 873a e3be c84e bcbe 41f8 893e
000002d0: 8373 7b3f 4b26 59bf e3a4 49bf d649 81bf
000002e0: 5f0f b5be a02e bc3e 8002 d63c fce3 5140
000002f0: 59c4 4740 52d4 f43f e196 29be 9dc9 103f
00000300: 239d 1b3f 43ad 02bf e0d2 983e 4f99 0e3d
00000310: 7152 b4be f851 f93d 9175 393f 1563 663e
00000320: df99 72bf b224 e63e 8d23 11bf 06d5 41c0
00000330: 7ddf 28c0 566c bcbf 5086 5c3e 8ebc be3f
00000340: 49c3 4dbf 2356 17be 41e1 05bd fc68 87bf
00000350: 76ea 77bf f8d1 7b3e a392 143e 4924 693e
00000360: e924 64be e2dc 97bd bafb de3e 2f75 87be
00000370: 84a1 edbe d7de 973f c84b 573e 4c6f 05be
00000380: a77f 62bd b726 81be 5479 05bf 83d7 c7be
00000390: 496a 61be 243b 2abf 8c78 edbe b0db a33d
000003a0: 92e2 adbe 7f48 f0be 66ff 2cbe 2709 5ebf
000003b0: 65cb 0bbe 45aa 203b 1d57 28bf 55fc a140
000003c0: 0d50 46bf ff02 50bf 2fd6 08c0 f04f bb3e
000003d0: 0df1 b9be 8358 31bc f495 58bd ba58 e6be
000003e0: 9ff4 603e 3c39 733f 6723 b2bf c9ce 853e
000003f0: 9d02 c2bd f94c df3e f079 3a3e ebec 1741

bias f4 [100]
2.5599113 2.6575298 1.4729757 -1.144927 0.36424148 0.22394149 0.8462591 0.7496106
-0.08682762 -3.5345688 -2.419641 1.1543633 -3.7074218 -0.05307717 -0.40133056 0.66281706
0.28507587 -0.7057688 -2.4120705 -1.5121984 3.3239112 -1.1169419 -2.396978 -0.16512562
4.163826 -1.2358533 1.5460123 0.34050283 -1.7325318 -4.9037676 2.4713366 0.53675973
0.3233997 0.7295727 -0.48397923 -5.950485 -0.16263658 0.36444676 -4.6389337 -0.71634924
-4.1099453 -1.8345357 4.2960324 -3.1562462 -0.02637185 0.5405624 -0.10044201 -1.6346012
-0.38587183 2.6068206 -1.5609593 -1.0275197 -2.6195788 0.6555263 -2.3495607 -2.999263
1.0394207 -1.8333758 -1.9391656 2.766735 2.3716927 1.4509026 1.8682793 2.0968158
-0.3549384 -1.4088321 -2.068133 -0.82032424 1.3039072 0.9574053 1.3921803 0.76087403
-0.13843295 -0.022821452 -1.8943111 4.3188686 -0.3849 -0.34095466 6.018221 -2.1809294
5.3965626 -1.6870594 3.7807956 -0.6440788 3.303422 1.5460513 0.8501307 0.15024246
-0.9039272 -0.46918365 -0.17160024 1.0852278 -0.70189375 -3.408339 -0.5936233 -1.2819275
-0.35093415 0.3168704 0.6370053 -0.9345115
00000000: 96d5 2340 f814 2a40 788a bc3f f88c 92bf
00000010: dc7d ba3e eb50 653e 70a4 583f 7be6 3f3f
00000020: aed2 b1bd 6036 62c0 66db 1ac0 2dc2 933f
00000030: 6646 6dc0 7267 59bd 337b cdbe 61ae 293f
00000040: 77f5 913e 44ad 34bf 5d5f 1ac0 b88f c1bf
00000050: f6ba 5440 f4f7 8ebf 1668 19c0 b116 29be
00000060: 103e 8540 7130 9ebf bbe3 c53f 6356 ae3e
00000070: 9ac3 ddbf aaeb 9cc0 612a 1e40 1669 093f
00000080: a594 a53e 47c5 3a3f 20cc f7be 606a bec0
00000090: 348a 26be c498 ba3e 2572 94c0 aa62 37bf
000000a0: ac84 83c0 11d2 eabf 1979 8940 f0ff 49c0
000000b0: c709 d8bc 4c62 0a3f 8ab4 cdbd 9d3a d1bf
000000c0: fe90 c5be 26d6 2640 84cd c7bf c485 83bf
000000d0: 2ea7 27c0 92d0 273f 345f 16c0 edf3 3fc0
000000e0: bd0b 853f 0fac eabf 9436 f8bf 3012 3140
000000f0: d0c9 1740 2db7 b93f c723 ef3f 3b32 0640
00000100: 7cba b5be 9c54 b4bf 4b5c 04c0 c500 52bf
00000110: 6ee6 a63f 8418 753f f732 b23f a4c8 423f
00000120: 5ec1 0dbe 0ef4 babc c978 f2bf 2c34 8a40
00000130: 9d11 c5be 9c91 aebe 4495 c040 5994 0bc0
00000140: a4b0 ac40 90f1 d7bf 8ef8 7140 59e2 24bf
00000150: 446b 5340 02e5 c53f 2aa2 593f 29d9 193e
00000160: c667 67bf d738 f0be f9b7 2fbe bfe8 8a3f
00000170: 4faf 33bf 3a22 5ac0 b2f7 17bf 3316 a4bf
00000180: a4ad b3be d63c a23e c812 233f 253c 6fbf

weight f4 [50, 100]
-0.449869 -0.4077826 -0.26219842 -0.04759084 -0.38205498 0.09052817 -0.59417075 0.06184888
-0.63175905 -0.12695614 -0.84115463 0.24996701 -0.39099318 0.041216232 0.18957907 0.07433936
0.036903802 -0.18884291 0.44100994 -0.19711219 -0.07098363 -0.06362676 -0.9822255 -0.7441738
-0.0133025935 0.066737205 -0.3818402 -0.06319542 -0.33749995 0.11614951 -0.2388822 -0.6604851
0.045979917 0.0022616605 -0.036125865 -0.4477547 -0.9463296 -0.82389444 0.19090155 -0.23712237
0.0047841533 0.021424744 0.008322498 -0.24831197 -0.04347637 -0.11505729 0.24313554 -0.8670359
-0.38209838 -0.2264466 0.11191768 0.13473527 0.29995206 -0.44408092 -1.3427374 0.23482753
-1.141328 -0.5566351 -0.18022195 -0.58350784 0.026952043 -0.09568079 -0.10220112 -1.2741219
-0.6642683 0.38735205 -0.24220029 -0.72212505 0.16213268 -0.13316263 0.3405777 0.40804246
-0.7857626 -0.64834857 0.38249493 -0.12623927 -0.735329 0.10323394 0.10969567 -0.33136338
-0.20671436 0.035073757 -0.022775674 -0.65079755 0.2565251 -0.866014 -0.007603408 -0.015193172
-0.5447508 -0.830336 -0.28266034 0.006327469 -0.304691 -0.7468859 -0.5476975 0.22253408
-0.8123305 0.34903315 -0.5156058 -0.13719964 -0.22549836 0.0021630428 0.04009983 -0.062770374
-0.15700361 0.010958878 -0.3840509 -0.084690146 -0.2919509 0.044099532 -0.28047687 -0.031943806
0.011946763 -0.024964048 -0.2093394 -0.1589984 -0.2933604 -0.116917975 -0.4630326 -0.012657627
-0.028102268 -0.93362015 -0.16390724 -0.19292255 -0.21536188 -0.4260139 -0.06784344 0.107435845
-0.41638792 0.012841568 -0.3577243 -0.121693455 0.26507923 -0.22049709 -0.24008466 -0.051029775
0.8038915 -0.13485853 -0.35362422 -0.008283225 -0.068876915 -0.25737852 -0.10707649 -0.6683404
-0.053795505 -0.077847496 -0.13983546 -0.023066843 -0.5501891 -0.3174827 0.18905395 -0.20101033
-0.10141578 0.023581566 0.3272081 -0.18072915 -0.08026954 -0.16699076 -0.3022334 -0.5013347
-0.6170846 -0.2987422 0.042761028 0.17210999 -0.04285212 -0.20976278 -0.13763818 0.0019499442
0.20104656 -0.016582418 -0.19012617 0.14210802 -0.21357185 0.09182093 -0.53106165 -0.15851954
0.034621876 -0.046197493 -0.86823434 -0.06853382 -0.0947978 -0.5957196 0.038777232 -0.84662473
0.080361456 -1.2555999 0.040309407 0.052073237 -0.1509468 0.009995388 -0.27853987 0.52083147
-0.6896398 -0.17655632 -0.04915631 0.13044778 0.47931758 -0.18656217 -1.3524702 -0.50753903
0.10477608 -0.045626502 -0.76533514 -0.15340233 -0.5769635 -0.89150894 -0.5216401 0.020770038
-0.94146746 0.2909999 0.08018013 -0.26842293 0.37254253 -0.1073449 0.0318927 -0.14393035
-0.5884657 -0.13920513 -0.42138234 0.27616337 -0.25433576 0.36352745 0.2558644 -0.5532628
-0.50751793 0.3371673 0.45528895 -0.42467374 0.02639133 -0.16646188 -0.11188878 -0.84747946
0.6602746 0.31384552 -0.63864547 -0.5184176 -0.3632483 0.60717714 0.030319637 -0.58016664
0.13699214 -0.34418744 -0.15492855 -0.12171034 -0.18663208 0.14094238 0.1751413 -0.58841807
-0.6097574 0.022116804 -0.052352183 0.10333948 0.07685852 -0.64872897 -0.56561786 -0.2939741
00000000: 3b55 e6be e2c8 d0be df3e 86be 9dee 42bd
00000010: b69c c3be d566 b93d 931b 18bf 4055 7d3d
00000020: f6ba 21bf ca00 02be e955 57bf 5af7 7f3e
00000030: 4230 c8be 5ad2 283d 0421 423e 3c3f 983d
00000040: 7128 173d 0960 41be 0ecc e13e c7d7 49be
00000050: de5f 91bd bf4e 82bd 2173 7bbf 2d82 3ebf
00000060: 1ff3 59bc 84ad 883d 8f80 c3be 9a6c 81bd
00000070: cbcc acbe cbdf ed3d 899d 74be 8d15 29bf
00000080: 7055 3c3d 5e38 143b b7f8 13bd 1b40 e5be
00000090: a842 72bf bfea 52bf b27b 433e 35d0 72be
000000a0: 63c4 9c3b f282 af3c 165b 083c 7e45 7ebe
000000b0: 4714 32bd 28a3 ebbd 86f8 783e 11f6 5dbf
000000c0: 66a2 c3be 9ee1 67be 1935 e53d 0bf8 093e
000000d0: 5193 993e 935e e3be d2de abbf a176 703e
000000e0: 0917 92bf a37f 0ebf 1a8c 38be c560 15bf
000000f0: 88ca dc3c 4af4 c3bd d24e d1bd 6d16 a3bf
00000100: 7d0d 2abf 0253 c63e 5a03 78be 30dd 38bf
00000110: 1c06 263e c95b 08be 3360 ae3e f1ea d03e
00000120: bd27 49bf 2cfa 25bf 60d6 c33e de44 01be
00000130: 853e 3cbf 516c d33d 20a8 e03d 76a8 a9be
00000140: eeac 53be 80a9 0f3d 0d94 babc ab9a 26bf
00000150: 4257 833e 18b3 5dbf 0226 f9bb c8ec 78bc
00000160: ca74 0bbf e690 54bf dbb8 90be a856 cf3b
00000170: 7500 9cbe ea33 3fbf e735 0cbf f9df 633e
00000180: e4f4 4fbf 79b4 b23e befe 03bf 107e 0cbe
00000190: 0be9 66be d6c1 0d3b b83f 243d c18d 80bd
000001a0: 8ec5 20be de8c 333c 52a2 c4be 0772 adbd
000001b0: 977a 95be b6a1 343d aa9a 8fbe 82d7 02bd
000001c0: 5bbc 433c 6781 ccbc 115d 56be 7ad0 22be
000001d0: 5633 96be b172 efbd 9c12 edbe f061 4fbc
000001e0: ba36 e6bc bb01 6fbf 4dd7 27be 7d8d 45be
000001f0: d387 5cbe 7e1e dabe 80f1 8abd 5307 dc3d
00000200: cc30 d5be 7165 523c a427 b7be 6b3a f9bd
00000210: 77b8 873e fdc9 61be c1d8 75be 9904 51bd
00000220: d5cb 4d3f 5b18 0abe 3c0e b5be 5db6 07bc
00000230: 570f 8dbd 1ec7 83be eb4a dbbd 5b18 2bbf
00000240: ad58 5cbd 826e 9fbd 0731 0fbe adf6 bcbc
00000250: 31d9 0cbf 188d a2be 5c97 413e a7d5 4dbe
00000260: 14b3 cfbd 212e c13c d287 a73e 1011 39be
00000270: 5b64 a4bd a0ff 2abe 56be 9abe 7957 00bf
00000280: 42f9 1dbf bdf4 98be 3026 2f3d 9a3d 303e
00000290: b485 2fbd 0ecc 56be 06f1 0cbe 4595 ff3a
000002a0: 26df 4d3e dad7 87bc 6fb0 42be c484 113e
000002b0: 94b2 5abe 9d0c bc3d a8f3 07bf f252 22be
000002c0: abcf 0d3d 9539 3dbd 9b44 5ebf 765b 8cbd
000002d0: 5925 c2bd 1481 18bf e0d4 1e3d 66bc 58bf
000002e0: 8c94 a43d 7fb7 a0bf 7a1b 253d bf4a 553d
000002f0: cc91 1abe b2c3 233c c79c 8ebe 3655 053f
00000300: 3c8c 30bf 2ecb 34be 2058 49bd 1a94 053e
00000310: 1d69 f53e 270a 3fbe be1d adbf 14ee 01bf
00000320: d794 d63d dbe2 3abd 01ed 43bf 8015 1dbe
00000330: e1b3 13bf ee39 64bf 358a 05bf ed25 aa3c
00000340: 0304 71bf f0fd 943e 7b35 a43d bb6e 89be
00000350: e5bd be3e a5d7 dbbd eba1 023d 7a62 13be
00000360: b0a5 16bf ca8b 0ebe 6dbf d7be 4965 8d3e
00000370: 4c38 82be 4520 ba3e a900 833e a2a2 0dbf
00000380: b2ec 01bf 31a1 ac3e a21b e93e d66e d9be
00000390: a132 d83c fc74 2abe f225 e5bd 6af4 58bf
000003a0: c207 293f 5cb0 a03e 457e 23bf 04b7 04bf
000003b0: aefb b9be f66f 1b3f e360 f83c cd85 14bf
000003c0: ab47 0c3e 5639 b0be 97a5 1ebe 4543 f9bd
000003d0: 7b1c 3fbe 3353 103e 3e58 333e 91a2 16bf
000003e0: 1019 1cbf 4d2e b53c 3e6f 56bd a6a3 d33d
000003f0: 0068 9d3d 1a13 26bf 55cc 10bf c683 96be

bias f4 [50]
-0.47484156 1.1604019 -2.0401194 -0.37028998 -0.6338472 4.5439014 1.5539547 0.8777371
-0.1256672 0.3202655 1.2009978 -0.31439784 1.2082889 0.6793227 -3.629503 -6.2703595
-5.2379174 -9.143323 2.2929037 1.8237258 -6.168571 -3.4316666 3.0109155 -1.2515078
-0.47461674 1.4886091 1.593038 -2.9052944 -2.3518767 3.4912014 3.716992 -0.28679058
-0.64301133 1.638138 6.5477996 1.5325617 2.6797352 1.6224339 5.936012 -0.16949861
-0.28365755 -0.016667448 1.0164406 -0.41248906 1.28231 -0.29093072 1.8112947 -0.15863925
-0.4324219 -3.4781885
00000000: 6f1e f3be 0d88 943f 5191 02c0 a696 bdbe
00000010: cf43 22bf a467 9140 fde7 c63f 61b3 603f
00000020: e7ae 00be d7f9 a33e 4cba 993f c1f8 a0be
00000030: 36a9 9a3f 18e8 2d3f c749 68c0 c9a6 c8c0
00000040: 059d a7c0 0d4b 12c1 efbe 1240 d96f e93f
00000050: ef64 c5c0 6da0 5bc0 d7b2 4040 6831 a0bf
00000060: f700 f3be be8a be3f abe8 cb3f 58f0 39c0
00000070: 2685 16c0 d86f 5f40 32e3 6d40 37d6 92be
00000080: 649c 24bf 82ae d13f 9387 d140 fb2a c43f
00000090: c880 2b40 eaab cf3f cff3 bd40 0b91 2dbe
000000a0: 903b 91be 2c8a 88bc ba1a 823f c431 d3be
000000b0: bc22 a43f dff4 94be 81d8 e73f 5472 22be
000000c0: 6766 ddbe a49a 5ec0

weight f4 [20, 50]
-0.10441954 -0.08663591 -0.19355492 -0.14888276 -0.10568485 -0.07377437 -0.17127994 -0.17662147
-0.06215639 -0.018432323 -0.109996565 -0.12167985 -0.02928824 -0.5558428 -0.49161792 -0.30229068
-0.07430492 -0.26565278 -0.19131756 0.020651374 -0.4383519 -0.23347515 -0.28085575 -0.47334662
-0.3502501 -0.022964103 0.014554058 -0.25841266 -0.46917674 -0.413004 -0.03203457 -0.05829636
-0.30376548 -0.11014688 -0.5811305 -0.04093829 -0.048091844 -0.16851187 -0.053222056 -0.111381315
-0.05490657 -0.10158703 0.045815397 -0.069980584 0.083130434 -0.12019237 0.09890259 -0.13573143
0.06893225 -0.37508917 -0.32797998 -0.08053384 -0.044995002 0.06448655 0.2992858 -0.047230862
0.27106395 -0.19800265 0.06189051 -0.39498124 0.09077843 -0.0812082 -0.31135905 -0.05466868
-0.102920964 0.111111395 -0.2619362 -0.315332 0.038925637 -0.030881235 -0.17808641 -0.1200606
-0.4161391 -0.3064126 -0.43403077 0.1252162 0.17086983 -0.18949136 -0.10768795 -0.34155232
0.0031489893 -0.009369748 -0.12578876 -0.05665988 -0.4073298 -0.18257608 -0.007031661 -0.035988253
0.047325745 -0.04932356 0.06822963 0.110524945 -0.081719205 0.0394401 -0.09030135 -0.064372145
-0.4991651 0.027687093 -0.11058509 -0.1648142 -0.6509246 0.0059425374 -0.031846944 0.013668489
0.18729573 -0.019664627 -0.020507978 -0.5812817 -0.07924155 0.48237136 0.035524126 0.16299519
-0.84310657 -0.13537937 -0.3056889 -0.08856493 -0.20842719 -0.43097165 0.07693516 -0.080031194
-0.5972221 -0.938353 0.43032807 -0.47184035 -0.20653105 -0.217745 -0.040401567 -0.107083604
-0.031373557 -0.32358736 -0.098044634 0.07604292 -0.26387903 -0.01551493 -0.24364372 0.077488594
-0.024955213 -0.16338183 -0.1689454 0.2001338 0.10348056 0.10567357 -0.09955529 0.028388212
-0.16029386 -0.04109738 -0.3266797 -0.08426198 -0.12060936 -0.09715111 -0.07993887 -0.77280074
-0.45049542 0.1206223 -0.22406788 -0.5686409 0.101680234 0.20076317 -0.072010644 -0.14117093
-0.5714694 0.20545463 0.39072013 -0.036860555 -0.39616266 -0.84895915 -0.34251225 -0.39711058
-0.297848 -0.22190887 -1.0488647 -0.06503531 -0.74894756 -0.93369395 -1.1569617 -0.06311773
0.08318117 -0.12115378 -0.15566355 -0.06457426 -0.034067165 -0.26299092 -0.14479645 -0.042488262
-0.24769878 -0.15498829 -0.082179286 -0.31027198 -0.76032853 -0.11319651 -0.17399997 -0.23328303
0.26031032 -0.10382891 0.07412348 -0.14148048 -0.21488835 0.15272538 0.068091355 -0.06044967
-0.8787699 -0.41987535 -0.41053134 0.0041389065 0.2854435 -0.40337268 -0.097558856 0.5426177
-0.1379313 0.011845932 0.28289124 -0.10831687 -0.058742907 -0.13016602 -0.8753126 -0.30626932
-1.1452266 -0.41083953 0.11161663 -0.29190958 -0.55985117 -0.17764358 0.52613735 -0.22319528
-0.3046874 -0.25912365 -0.20981039 -0.6796644 -0.38186637 -0.08214249 -0.09707684 0.18375039
-0.1219669 0.059623837 -0.070071094 0.1417376 0.30794966 0.035378013 -0.33919722 -0.03227368
0.040265072 0.098435566 -0.064224645 -0.39081937 -0.30453363 0.0066366834 -0.511842 -0.17414829
0.010621237 -0.020863613 -0.09051609 0.3159525 0.08367082 0.020100769 0.3030687 -0.17537081
00000000: e9d9 d5bd 2b6e b1bd 4333 46be b974 18be
00000010: 4c71 d8bd 0417 97bd 0264 2fbe 42dc 34be
00000020: b397 7ebd 62ff 96bc e145 e1bd 4933 f9bd
00000030: e4ed efbc b74b 0ebf 58b5 fbbe d8c5 9abe
00000040: 2e2d 98bd a403 88be c0e8 43be 122d a93c
00000050: a96f e0be 1c14 6fbe 53cc 8fbe 7d5a f2be
00000060: fb53 b3be 371f bcbc 2574 6e3c aa4e 84be
00000070: ef37 f0be 4375 d3be ae36 03bd 2ac8 6ebd
00000080: 2687 9bbe b094 e1bd f8c4 14bf e9ae 27bd
00000090: f4fb 44bd 608e 2cbe 5fff 59bd e31b e4bd
000000a0: b6e5 60bd dc0c d0bd eda8 3b3d fb51 8fbd
000000b0: 4a40 aa3d 6b27 f6bd 718d ca3d 2efd 0abe
000000c0: 5a2c 8d3d b00b c0be feec a7be edee a4bd
000000d0: ae4c 38bd 8611 843d fd3b 993e 2675 41bd
000000e0: e5c8 8a3e 35c1 4abe e780 7d3d fb3a cabe
000000f0: 0bea b93d 7c50 a6bd 746a 9fbe 44ec 5fbd
00000100: 3ac8 d2bd 5f8e e33d 801c 86be 3273 a1be
00000110: 7d70 1f3d a5fa fcbc 495c 36be 55e2 f5bd
00000120: 2f10 d5be 1de2 9cbe 4839 debe ad38 003e
00000130: 80f8 2e3e 060a 42be 808b dcbd f2df aebe
00000140: 465f 4e3b 9283 19bc c5ce 00be 3114 68bd
00000150: 888d d0be 39f5 3abe d969 e6bb 6b68 13bd
00000160: a4d8 413d 8007 4abd fabb 8b3d e75a e23d
00000170: 665c a7bd f18b 213d eaef b8bd 8bd5 83bd
00000180: 9192 ffbe 0bd0 e23c 707a e2bd 0ec5 28be
00000190: ffa2 26bf 9eb9 c23b f171 02bd ccf1 5f3c
000001a0: 74ca 3f3e b617 a1bc 5900 a8bc e1ce 14bf
000001b0: 6549 a2bd 61f9 f63e bf81 113d 36e8 263e
000001c0: d5d5 57bf e4a0 0abe 4183 9cbe 8861 b5bd
000001d0: f06d 55be 51a8 dcbe 2e90 9d3d 65e7 a3bd
000001e0: 8ce3 18bf e737 70bf f653 dc3e 0f95 f1be
000001f0: e07c 53be 8cf8 5ebe 1d7c 25bd a64e dbbd
00000200: 8f81 00bd 3ead a5be a0cb c8bd 64bc 9b3d
00000210: 271b 87be 5532 7ebc bd7d 79be 57b2 9e3d
00000220: e06e ccbc 914d 27be 0600 2dbe e0ef 4c3e
00000230: 9eed d33d 626b d83d a5e3 cbbd 658e e83c
00000240: 1324 24be ba55 28bd 9042 a7be 8c91 acbd
00000250: 0a02 f7bd 29f7 c6bd feb6 a3bd 45d6 45bf
00000260: 56a7 e6be d308 f73d 0d72 65be 7392 11bf
00000270: ba3d d03d dc94 4d3e 517a 93bd 1d8f 10be
00000280: d24b 12bf b362 523e 780c c83e 18fb 16bd
00000290: d5d5 cabe 6355 59bf c45d afbe 1452 cbbe
000002a0: 887f 98be 143c 63be 3341 86bf 3c31 85bd
000002b0: 07bb 3fbf 9106 6fbf 5217 94bf de43 81bd
000002c0: e45a aa3d 791f f8bd 4466 1fbe 823f 84bd
000002d0: 038a 0bbd bfa6 86be 8545 14be 2c08 2ebd
000002e0: c0a4 7dbe 40b5 1ebe 9d4d a8bd f8db 9ebe
000002f0: e4a4 42bf 92d3 e7bd 0c2d 32be bfe1 6ebe
00000300: 6547 853e 40a4 d4bd 0dce 973d 42e0 10be
00000310: b10b 5cbe 0b64 1c3e 7b73 8b3d 139a 77bd
00000320: 10f7 60bf e7f9 d6be 2a31 d2be aa9f 873b
00000330: a725 923e dd86 cebe f0cc c7bd fee8 0a3f
00000340: dd3d 0dbe 7115 423c 1fd7 903e 3cd5 ddbd
00000350: 679c 70bd 3e4a 05be 7d14 60bf 55cf 9cbe
00000360: c996 92bf 8f59 d2be 4297 e43d 2c75 95be
00000370: 6852 0fbf 33e8 35be f0b0 063f 4e8d 64be
00000380: fdff 9bbe dbab 84be 89d8 56be 7cfe 2dbf
00000390: fd83 c3be 523a a8bd 39d0 c6bd 1029 3c3e
000003a0: c8c9 f9bd 2038 743d 6f81 8fbd a923 113e
000003b0: 94ab 9d3e 89e8 103d 42ab adbe 6831 04bd
000003c0: fdec 243d 9698 c93d 3688 83bd 7a19 c8be
000003d0: d5eb 9bbe 8978 d93b 1408 03bf ee53 32be
000003e0: b204 2e3c 2bea aabc 8060 b9bd 87c4 a13e
000003f0: 9b5b ab3d 5eaa a43c d22b 9b3e 6894 33be

bias f4 [20]
0.75984246 -0.28446737 -1.1227342 0.19044596 0.51914513 -3.7988274 -2.3688674 -6.4901185
0.095164046 -2.7879345 2.229 -0.7446712 -0.69953257 -0.056015648 -2.8152683 1.7563943
-2.9374964 -0.9879735 1.5603089 -0.7279485
00000000: 0985 423f b5a5 91be c1b5 8fbf 4404 433e
00000010: b2e6 043f fd1f 73c0 869b 17c0 0daf cfc0
00000020: 5ee5 c23d 856d 32c0 f0a7 0e40 c6a2 3ebf
00000030: 9114 33bf aa70 65bd 5b2d 34c0 87d1 e03f
00000040: f1ff 3bc0 d5eb 7cbf 34b8 c73f d55a 3abf

weight f4 [16, 20]
-0.174553 -0.3020319 0.017251583 -0.21984835 0.00015626119 -0.0939351 0.006504128 0.01544741
-0.0889365 -0.078658 0.08769033 -0.25086734 -0.07860727 -0.43130422 -0.03565852 -0.10617552
-0.31368306 0.08615448 -0.19514832 0.07184016 0.104752325 -0.054238323 -0.21446563 0.038298
0.015417305 -0.10199563 -0.050631892 -0.019128185 0.026374137 -0.047415383 0.16259614 -0.24076311
-0.03293212 -0.0067265965 -0.10210038 0.012477862 -0.44193193 0.13528386 0.10907041 -0.059450764
0.31506762 -0.3584756 -0.17180929 -0.16738978 -0.1142169 0.14194582 0.13683154 -0.012128145
-0.28486356 0.07512381 -0.24874303 0.20063351 -0.12207285 -0.18392421 0.12127235 0.23109134
0.49673817 -0.0478721 -0.018846232 -0.1879156 -0.036276747 0.098030865 0.101012506 0.0015379689
0.062351383 -0.032443766 0.39467278 0.10146137 0.19625828 0.17223321 -0.17633493 -0.13072675
0.16395785 0.1337401 -0.16914432 0.08744482 0.106515676 0.21926807 0.12543586 0.3675983
0.06745147 -0.21990275 -0.17535697 -0.282143 -0.0052229264 0.11065197 -0.2111438 0.12946226
-0.027672464 -0.025614072 0.060337182 -0.09258203 -0.19494371 -0.30686212 0.35055637 0.016429685
0.23840435 -0.01888665 -0.08871819 -0.17239478 0.18611561 0.18637563 0.0132640805 -0.16077617
-0.20912395 0.2728342 0.19537118 0.12094927 0.06909376 -0.07168186 -0.026491951 -0.19297963
-0.15109289 0.5179032 0.15300961 -0.25551683 0.2194527 0.22954594 -0.113634355 0.017829971
-0.052116968 -0.25339887 0.14489634 -0.18054798 -0.015324036 0.09845845 0.27205625 0.092392415
0.26921 0.08120551 -0.08410462 0.20564388 0.11254376 0.23971723 0.13944368 0.027181372
0.2847401 0.027758872 -0.069811195 0.3668356 0.58906865 0.17673536 0.009693115 0.039487336
-0.103291735 0.120131284 -0.0029508623 0.060642153 0.31729013 0.13185064 0.09586858 -0.012667674
0.18672784 0.38624138 0.26810023 0.05911186 0.2269489 0.27020875 0.08785254 0.1931045
-0.025491174 0.299833 0.0040990002 0.18694271 -0.07217857 0.09015747 0.12491964 -0.043284923
0.27058998 0.11565328 -0.14304249 0.07998785 -0.0061744656 0.28937325 0.15909465 -0.0651218
0.18499838 0.039208777 -0.008488055 0.060980346 0.25848365 0.078747965 0.28915977 0.039890002
0.13774715 -0.13636497 -0.09103375 0.007289214 0.06659506 0.113350086 0.15616922 0.13938868
0.17434661 0.027966226 0.4744621 -0.26284617 0.20211607 0.12735829 -0.17255716 0.06370321
-0.13231465 0.11073537 0.1671155 0.18751188 -0.09249581 0.0060264966 0.25423303 0.015778929
0.44662088 0.14613341 -0.18640369 0.029064907 -0.14052922 0.1650426 0.0074847564 -0.06320335
0.15806496 0.06658634 -0.022515126 -0.0051899534 0.35215464 0.13024843 0.06940701 0.20715527
0.061714336 0.08961687 0.098253414 -0.014332449 0.30479777 0.045139067 -0.1916176 0.091544636
0.14197236 0.11685563 0.0620148 -0.057427496 0.24773347 0.058096483 0.05860314 0.16493443
-0.28763857 0.09040532 0.008274964 0.24573429 0.09750564 -0.08075401 0.41102841 0.03449497
-0.0626928 -0.024217293 -0.10787535 -0.19941801 -0.11856677 0.12119972 -0.26858243 0.0034554366
00000000: 06be 32be eda3 9abe 3153 8d3c ed1f 61be
00000010: 0bda 2339 0c61 c0bd 9520 d53b 2217 7d3c
00000020: 5724 b6bd 7217 a1bd fd96 b33d af71 80be
00000030: d9fc a0bd e8d3 dcbe ab0e 12bd 8d72 d9bd
00000040: 119b a0be c371 b03d f6d4 47be ef20 933d
00000050: 6388 d63d 0129 5ebd e19c 5bbe 5dde 1c3d
00000060: dd98 7c3c 16e3 d0bd 6363 4fbd b6b2 9cbc
00000070: 930e d83c a236 42bd 9a7f 263e 9b8a 76be
00000080: d5e3 06bd c86a dcbb 011a d1bd f26f 4c3c
00000090: e744 e2be da87 0a3e 4f60 df3d a582 73bd
000000a0: 8b50 a13e 1d8a b7be c6ee 2fbe 3a68 2bbe
000000b0: 8dea e9bd 3f5a 113e 911d 0c3e 21b5 46bc
000000c0: a3d9 91be 83da 993d 7eb6 7ebe df72 4d3e
000000d0: 5501 fabd a156 3cbe a35d f83d 35a3 6c3e
000000e0: 7754 fe3e 8915 44bd 6a63 9abc f26c 40be
000000f0: ed96 14bd 68c4 c83d a5df ce3d ac95 c93a
00000100: 2a64 7f3d c1e3 04bd 8d12 ca3e fbca cf3d
00000110: eef7 483e e75d 303e 2591 34be 3cdd 05be
00000120: 91e4 273e 2af3 083e 2b34 2dbe 4516 b33d
00000130: e424 da3d cf87 603e 4272 003e d835 bc3e
00000140: ff23 8a3d 302e 61be c790 33be 0c75 90be
00000150: 1525 abbb 809d e23d 1536 58be c191 043e
00000160: 5db1 e2bc 9ad4 d1bc 1f24 773d a69b bdbd
00000170: 539f 47be 081d 9dbe 207c b33e 8c97 863c
00000180: 4520 743e 2db8 9abc e2b1 b5bd 4288 30be
00000190: 1795 3e3e 41d9 3e3e 9651 593c 82a2 24be
000001a0: 9724 56be edb0 8b3e 620f 483e 40b4 f73d
000001b0: 0781 8d3d f0cd 92bd a605 d9bc 749c 45be
000001c0: 18b8 1abe 4e95 043f 8dae 1c3e 1ad3 82be
000001d0: 35b8 603e 170e 6b3e 21b9 e8bd 2910 923c
000001e0: 9a78 55bd 7fbd 81be b55f 143e 92e1 38be
000001f0: aa11 7bbc 95a4 c93d f54a 8b3e 3c38 bd3d
00000200: e5d5 893e 134f a63d 0b3f acbd 4f94 523e
00000210: 587d e63d 6f78 753e 53ca 0e3e 78ab de3c
00000220: 74c9 913e 9366 e33c 2cf9 8ebd e0d1 bb3e
00000230: 34cd 163f 1dfa 343e dfcf 1e3c 79bd 213d
00000240: 9e8a d3bd 6407 f63d 4163 41bb e863 783d
00000250: da73 a23e db03 073e bf56 c43d 138c 4fbc
00000260: 9535 3f3e 6ec1 c53e 6f44 893e 471f 723d
00000270: 4b65 683e cd58 8a3e 08ec b33d 30bd 453e
00000280: ded2 d0bc b683 993e e850 863b e96d 3f3e
00000290: 5cd2 93bd 7ba4 b83d ded5 ff3d 884b 31bd
000002a0: c58a 8a3e a0db ec3d bb79 12be abd0 a33d
000002b0: 2c53 cabb bb28 943e b5e9 223e 945e 85bd
000002c0: 3770 3d3e 6299 203d 7c11 0bbc 87c6 793d
000002d0: f857 843e 9d46 a13d c00c 943e b363 233d
000002e0: 970d 0d3e 42a3 0bbe e76f babd 5cda ee3b
000002f0: fe62 883d 1724 e83d d3ea 1f3e e8bb 0e3e
00000300: eb87 323e 6d19 e53c b2ec f23e c693 86be
00000310: 84f7 4e3e 366a 023e d3b2 30be d476 823d
00000320: 7e7d 07be 3ac9 e23d 5320 2b3e 1d03 403e
00000330: 716e bdbd eb79 c53b d52a 823e d042 813c
00000340: 7eab e43e ffa3 153e 9ce0 3ebe 8719 ee3c
00000350: e4e6 0fbe ed00 293e b042 f53b c270 81bd
00000360: c8db 213e 6b5e 883d a471 b8bc 7c10 aabb
00000370: 9d4d b43e d85f 053e 4325 8e3d 8320 543e
00000380: 2cc8 7c3d 0d89 b73d 1639 c93d a6d2 6abc
00000390: 740e 9c3e bee3 383d 6737 44be c17b bb3d
000003a0: 3461 113e 0152 ef3d 3b03 7e3d 1839 6bbd
000003b0: d8ad 7d3e 94f6 6d3d d909 703d 92e4 283e
000003c0: 5d45 93be 6d26 b93d b793 073c c5a1 7b3e
000003d0: 09b1 c73d 5c62 a5bd 5172 d23e 994a 0d3d
000003e0: 1565 80bd 5863 c6bc c0ed dcbd 3c34 4cbe
000003f0: 22d3 f2bd 8f37 f83d a383 89be 9b74 623b

bias f4 [16]
-0.09512249 -0.1728328 -0.12687804 0.49446034 -0.026392143 -0.27122557 0.042908832 0.19272351
0.39416587 -0.3871347 0.38741702 0.31906745 0.1326909 0.19466256 0.551293 0.40629756
00000000: 94cf c2bd 15fb 30be 51ec 01be e829 fd3e
00000010: 5634 d8bc 14de 8abe 2cc1 2f3d 5059 453e
00000020: 1cd0 c93e 8536 c6be 865b c63e cf5c a33e
00000030: 20e0 073e 9f55 473e 8a21 0d3f 3c06 d03e
