runs/20250317_181343/vflAggregator.pt (torch, 3249 bytes, 1 tensors)

weight f4 [1, 32]
000000 96 ce 82 3a 4b 0d b7 ba d8 a5 3b 3b f0 1d 2a bb
       0.000997978 -0.0013965754 0.0028632786 -0.0025957786
000010 6d f7 c0 ba da c1 14 ba c2 5f 9a 39 be 29 71 3a
       -0.0014722176 -0.0005674638 0.00029444514 0.00091996405
000020 8d 84 42 ba 94 c9 97 ba bf 4d 0e 3a d5 56 31 ba
       -0.00074202643 -0.0011580461 0.0005428455 -0.0006764953
000030 4e 83 0c ba a8 50 59 39 f4 2f 8b 3a d4 12 57 b9
       -0.0005360142 0.0002072478 0.001061915 -0.00020511012
000040 2f c3 b6 3c 04 8c 3f 3d 1e a1 ac bd c9 e7 53 be
       0.022309868 0.04676439 -0.08429168 -0.20693888
000050 53 8c 15 3c ef e1 09 be 32 fc 8e bb f7 f2 a0 3c
       0.009127694 -0.13465093 -0.00436356 0.019647105
000060 8c dc 14 bb fe 7d 0f bc 97 f7 fa bc b9 40 2d 3d
       -0.0022714464 -0.008758066 -0.030635638 0.042298052
000070 6e 22 a1 3d fd 03 5a 3d 45 9d 8a bc 21 81 17 bd
       0.07867895 0.05322646 -0.016920695 -0.03698838
