runs/20250317_181645/lrLocalModel.pt (torch, 4978 bytes, 2 tensors)

weight f4 [16, 6]
00000000: 2aa1 21be 6618 7b3e abeb 24bf 367d 2b3e
00000010: e7a1 d83d e5e8 c940 0784 88bd 2e46 7bbd
00000020: 0c59 6ebe 425f 22be c6e3 b73e 49f3 bc40
00000030: bfa1 8dbe 3700 34be 82d9 6fbe 3d9c 653d
00000040: e619 20bc 7d93 c340 2973 a9be 1c32 ec3e
00000050: 0faf ef3e 2186 2dbe 61d2 16bd 14b1 c2c0
00000060: 2481 cabd 6eff 7b3c d9ed 5f3e 8515 053f
00000070: 998e 86bd fb34 cbc0 7566 0a38 89ab c6bd
00000080: c743 f8bd 228b 02be a8d9 11be 7656 0c40
00000090: adfd abb8 8a18 f0bd cc21 ca3c aec9 123f
000000a0: 8158 953e c67d 5740 4c06 463d 3cc0 1c3e
000000b0: 607d f2be 985f 02bf 1644 90be a286 c240
000000c0: e245 8538 56ed dbbd 462a c03d 9522 efba
000000d0: cbd8 3fbe cf53 bac0 32e8 113e 8061 4a3d
000000e0: b031 5cbf f172 bbbe 0a46 96be 9a68 bf40
000000f0: ac0d 9abe d7ea bbbd a915 023f 1796 d43d
00000100: 5aff b8be f73c ccc0 ce42 88be 5f5c d3be
00000110: c898 89be 90a0 05bf 85ea cf3e 0a61 be40
00000120: 373d 433e d6ca 2ebe 0457 a43e 7d57 6f3e
00000130: 1f50 193e 162d c8c0 5189 973e 6e06 51bd
00000140: 0a6c 3dbf c23e 13bf 0f04 843e cef8 bf40
00000150: 12ec 2abe 60ba cebd 5070 3cbf 8cb2 18bf
00000160: 40f7 313d 269c ca40 fb0c 043e 8b4c aa3e
00000170: a183 373f 1731 bd3e ac01 85ba c9a8 cbc0
-0.15784135 0.24521026 -0.644221 0.16746983 0.105777554 6.3096795 -0.06665807 -0.061346225
-0.23276156 -0.1585665 0.35915965 5.904698 -0.27662465 -0.17578207 -0.23422816 0.056057204
-0.0097718 6.111754 -0.33095673 0.4613198 0.46813247 -0.16945697 -0.036821727 -6.084116
-0.09887913 0.015380723 0.21868075 0.5198596 -0.06570167 -6.3502173 3.2997184e-05 -0.097006865
-0.121223025 -0.12748387 -0.14243186 2.1927772 -8.201166e-05 -0.117234305 0.024674319 0.5733899
0.29169086 3.3670516 0.04834585 0.15307707 -0.4736128 -0.50927114 -0.28176945 6.0789347
6.354951e-05 -0.107386276 0.09383063 -0.0018244559 -0.18735044 -5.8227305 0.14248732 0.04940939
-0.8601332 -0.3661113 -0.2935031 5.9815187 -0.30088556 -0.091756515 0.508143 0.1038019
-0.36132318 -6.382442 -0.26613468 -0.4128141 -0.26874375 -0.52198124 0.40608612 5.9493456
0.1906632 -0.17069563 0.32097638 0.23373218 0.1497197 -6.2555037 0.29596952 -0.051031522
-0.7399298 -0.57517636 0.25784346 5.9991217 -0.16691616 -0.10094142 -0.73608875 -0.5964744
0.043448687 6.331561 0.12895577 0.33261523 0.71685225 0.36951515 -0.0010147593 -6.3643537

bias f4 [16]
00000000: 49e7 573e a7dc fbbd 08ff ac3c aea1 c5bb
00000010: a620 7fbe 6057 14be b376 263f 3dde 8dbc
00000020: f25e 7dbe b1cc 4d3c 08ca c53c 0484 653d
00000030: 01ff 82bd 83a4 80be 2fb0 3abe 18cc 8fbc
0.21084322 -0.122979455 0.021117702 -0.0060312366 -0.24914798 -0.14486456 0.6502487 -0.017317886
-0.2474325 0.012561009 0.024144188 0.056034103 -0.063962944 -0.25125512 -0.18231271 -0.017553374
