runs/20250317_181645/mlpLocalModel.pt (torch, 42357 bytes, 8 tensors)

weight f4 [100, 17]
00000000: 8df7 f9bd b593 663e e122 3d3f 133c 19be
00000010: e5f6 f63d 4f6d 9c3d 4a03 ecbb 8470 113e
00000020: 6ddd adbd 4fd9 b13d 9e31 c13d f27a 83bd
00000030: 7725 86bd 7e00 34bd d1bc b33d 4cca 553e
00000040: 87c2 a9be a000 48bf 79f0 91bf cd67 dfbe
00000050: 6af9 0ebf 61f6 45bf 937d 9cbf b982 b33e
00000060: 278d 103e 5068 78bc 63a2 dc3c ef2c 52be
00000070: f4e3 65be 2a4f 9abd 31b2 2e3d 0c36 a43e
00000080: 62ae 35be 8a94 853d 514e 88bf d58f 6dbd
00000090: 8209 29bd 4ff7 e4bd 8dea 0cbe 095d 923e
000000a0: 7f29 fb3d bbf8 72be 3a22 0dbf 30dd 46be
000000b0: 8fd6 18bd 2fd8 033e 649f 623e 715e 8cbe
000000c0: 51fe d03d 28c1 183e 1c8a 5bbd f033 c5bf
000000d0: b5d2 77bf 395e c33f 5026 a03f cdf8 e03f
000000e0: 9b65 c8bc 85b5 2f3e 2578 7fbe 7d0e 203d
000000f0: 7379 903d 9528 173e 3e26 6cbe 87d5 f73d
00000100: cdeb fa3d 67e0 013e 390b 81be b591 fa3c
00000110: b4cb ab3f b4ee 2b3f 3e4c 743f 77a2 ed3f
00000120: c299 0d40 75bd 223e 2600 543c 1370 3c3e
00000130: 7855 77be bb23 c7bd c259 2cbe 85a3 033e
00000140: 521d aebe 7a07 2a3e 8859 523e 696f 96bd
00000150: f729 f43d b210 b83f f996 b1bf f5aa 07bf
00000160: 18ab d93e 98a5 073e 54d6 063e 2b9b 8fbd
00000170: 031f 08be 8ec6 75bc cb5e 2dbd a4b0 973d
00000180: 269b 09bc 3c24 62bc c7aa ef3c f175 223e
00000190: 5894 233e 3e0a 143e 0a4a 3540 06bf e63f
000001a0: 0147 6e40 8fac 9740 0a02 8c40 8ec1 65be
000001b0: 38e9 1e3e d275 7d3e ee46 7bbc b2f4 5bbe
000001c0: 3557 593d 92ac d63d 3daa aebe aefe a23e
000001d0: 653e 9e3d 3472 f33d 6f46 2cbc 8be4 dabf
000001e0: dc1b 09c0 8e0a 13c0 b411 dfbf f6f0 dbbf
000001f0: 2034 683d 08bb 2e3d eb66 9d3d 861f 74be
00000200: 51fa 6fbe c8a6 debc 969a 3fbf b085 d8be
00000210: 0226 41be 1db3 d0be b634 ec3e 93a8 1d3d
00000220: 3a49 b4be a561 b0be 35b1 30bf 1acc 5ebd
00000230: 8e71 dc3e 3d54 023e 2236 bbbe c53a 113d
00000240: 592a 0abe 2d11 b63c 2a6e c53c 656c 2b3e
00000250: cec4 193e 8d1e 233c a991 2c3e 64f5 56be
00000260: f24a ef3d 268a b33f ac8e cf3f d79a 853f
00000270: 536c 983f 8749 313f e2d1 303e e973 05bd
00000280: 1d78 e13c 4b56 383e f943 93be 7bf1 ce3d
00000290: e02a a0be 2207 6a3c 04d9 243e 1a4b 993d
000002a0: 13d7 013e 6c4a 22bf 9115 73bf 41fc 05be
000002b0: 1112 24bf 62d9 edbe 0f68 43be a60f a5be
000002c0: 7575 35bd 2ef2 953c 88ab 3ebe 047f a13d
000002d0: d5dc 2ebe d0bc 183d fd72 b23d 1408 ae3e
000002e0: 0131 6a3e bbc3 36bf 0404 f5be 8c79 01c0
000002f0: 6ae8 1dc0 af54 17c0 8335 08c0 2702 06c0
00000300: cd2b d43d 3e0f fa3d 2e00 a2bd 1461 013e
00000310: aef1 10be 60d1 70be a26c 44bf e0c1 75bf
00000320: 3c97 94bf c0b5 0fbe a1c8 2b3d f304 2f3d
00000330: c3ca 69bd 4ba9 9dbc 1778 243d 376b d73e
00000340: 4e32 003d b090 b3be 75fe 16be eaee 20be
00000350: 6e92 5f3e 39b5 d03d 0006 873d f83f b9bc
00000360: d56e b4be a290 1c3e bfb8 f73d 1e07 0a3e
00000370: 2d89 47bd 7875 14c0 3a23 08c0 cbe1 11c0
00000380: 1ba6 1fc0 9324 14c0 943b 23bf fb38 af3d
00000390: e282 fb3c 0cc3 c93e 07c6 0abf aaf6 963d
000003a0: 8624 53be 670c 1bbc 5432 4f3d ff5d d9be
000003b0: 799b 443d c981 fa3c d3d5 453e 7b57 44bf
000003c0: d05a abbf e8ae 92bf 2ece 95bf f704 583d
000003d0: 78ee 6fbe 14e9 593c 555a 6d3d 1a81 303e
000003e0: 3419 abbc 0f89 493e 2eaa 79bd d449 17be
000003f0: 80b6 82bc 9838 f43d 260d 92bd 8ec0 d83f
-0.1220542 0.22517283 0.73881346 -0.14964323 0.1205881 0.076380365 -0.0072025405 0.14203078
-0.08489499 0.086840264 0.09433292 -0.06419934 -0.065501146 -0.043945782 0.08776248 0.20877951
-0.33156225 -0.78125954 -1.1401511 -0.4363388 -0.55849326 -0.7732907 -1.2225822 0.3506067
0.14116345 -0.015161589 0.0269329 -0.20524953 -0.22450238 -0.075346306 0.042650405 0.32072484
-0.17742303 0.06522472 -1.06489 -0.057998497 -0.041268833 -0.11179983 -0.13761349 0.28586605
0.12263774 -0.23727696 -0.5513035 -0.19420314 -0.037313994 0.12875436 0.22131115 -0.27415803
0.10204757 0.14917433 -0.05359851 -1.5406475 -0.9680589 1.526313 1.2511692 1.7575928
-0.024462512 0.17159088 -0.24948175 0.039076317 0.070544146 0.14761575 -0.23061463 0.12101274
0.12252007 0.12683259 -0.25203875 0.030587057 1.342154 0.6716111 0.95428836 1.8565205
2.2125096 0.15892585 0.0129394885 0.18402128 -0.24153697 -0.09723612 -0.16831115 0.12855347
-0.34006745 0.16604415 0.20541966 -0.073454686 0.11922067 1.4380095 -1.3874198 -0.52995235
0.42513347 0.13246763 0.13167697 -0.07012018 -0.1329308 -0.015000952 -0.04232673 0.074067384
-0.008398807 -0.013802584 0.029256238 0.15865304 0.15974557 0.14457032 2.832644 1.8027046
3.7230837 4.7398143 4.375249 -0.22437117 0.15518653 0.24751976 -0.015336735 -0.21480063
0.053061683 0.10482134 -0.34114257 0.3183493 0.077267446 0.11887017 -0.01051484 -1.7100996
-2.1423254 -2.2975192 -1.7427278 -1.718291 0.056690335 0.042658836 0.07685646 -0.2384015
-0.23435332 -0.027179137 -0.74845254 -0.42289495 -0.18862155 -0.40761653 0.46133965 0.038490843
-0.35212117 -0.34449497 -0.69020396 -0.054393865 0.43055385 0.12727447 -0.36564738 0.035456438
-0.13492717 0.022224987 0.024100382 0.16740568 0.15016481 0.009956014 0.1685244 -0.20992047
0.116842166 1.4026535 1.6215415 1.0437878 1.1908058 0.6925282 0.17267564 -0.032581244
0.027523095 0.18001668 -0.28762797 0.101046525 -0.3128271 0.014283927 0.1609841 0.074850276
0.126797 -0.6339481 -0.9495478 -0.13084508 -0.6409007 -0.46454912 -0.19082664 -0.322385
-0.04430147 0.018303957 -0.18620121 0.078855544 -0.17076428 0.03728944 0.087133385 0.33990538
0.22870256 -0.7139241 -0.47854626 -2.0230436 -2.4673104 -2.3645437 -2.128266 -2.0938814
0.10359917 0.122099385 -0.079101905 0.12634689 -0.14154693 -0.2351737 -0.7672826 -0.95998955
-1.1608653 -0.14034176 0.04193938 0.04272933 -0.057078134 -0.019245764 0.04015359 0.42073986
0.031297974 -0.35071325 -0.14745505 -0.15716138 0.21833202 0.101908155 0.06592941 -0.02261351
-0.35240808 0.15289548 0.120957844 0.13479277 -0.048714805 -2.3196697 -2.12715 -2.2794063
-2.4945133 -2.3147323 -0.63762784 0.0855579 0.030702058 0.3940662 -0.54208416 0.07371266
-0.20619401 -0.009463406 0.050585106 -0.42454526 0.047999833 0.030579465 0.19319849 -0.76695985
-1.3387089 -1.1459627 -1.1703546 0.05273911 -0.23430812 0.013300199 0.057947475 0.17236748
-0.020886041 0.1968119 -0.06095331 -0.14774257 -0.015956163 0.11924857 -0.07131414 1.6933763

bias f4 [100]
00000000: b6c4 14ba 410d b13f 8a8d e63e b73c 0bbf
00000010: c834 15c0 19a5 16c0 1b33 94c0 06a7 0c40
00000020: 5c46 8fbf 0cb7 323e 88eb 33bd 8597 f23f
00000030: 2c77 4a3f 2f42 b63f 52ce cb3f 9a94 473f
00000040: 00a7 50c0 fbaa f3be fafe 3240 5d12 083f
00000050: 3bfb 0f3f d07b 7f3e f470 683e 775d 123d
00000060: b8c9 683f 9453 3bc0 1329 1cc0 bed2 e23f
00000070: a3ab 8abf 375f 213f a300 413f 1d10 26be
00000080: 4d12 833c 48ee 7ac0 66d8 aa3f 3016 113f
00000090: c98a ad3f 07e1 fc3e bbb5 c8be 0b66 81c0
000000a0: 19fa 10c0 bd4b e0bf 9c57 1940 46d3 2ac0
000000b0: 4a11 ad3f 413e f83f ee49 8e3e 867d 5b40
000000c0: 553b 09bd a366 87be f49e 393f b66b 92c0
000000d0: 398f 893f 123f 4e3f a793 0340 f98d 31c0
000000e0: 019c 7dbe 4035 b03f 136e 7e3f 92c9 c53f
000000f0: c599 b03f f92b d83f 94b7 85c0 80c6 c1bf
00000100: ef4c 0f3f d39d 5a3f 3483 ec3f c05a 873f
00000110: d927 9b3f 4940 1b40 0fe3 bc3f ffae 77c0
00000120: 9943 3d40 1712 00c0 a4e3 823e 4aa9 993f
00000130: 6c29 3dc0 7049 a23e 74a7 66bf 25d7 1d40
00000140: e0c7 e3be 8918 26bf af77 293e f998 b6bf
00000150: 053b 4ebe 247a 3f40 11b4 d03e c763 c33f
00000160: ea95 fd3f 94b1 473f 53cc 3ec0 7a20 0cbe
00000170: 4c4a 403f 1a4f 0d40 a5f9 dcbf 92d2 abc0
00000180: 5e30 6fbf b094 f83f 8508 8f3f 0592 4440
-0.0005675064 1.383217 0.4502986 -0.5438952 -2.3313465 -2.3538268 -4.6312385 2.1976943
-1.1193347 0.1745264 -0.043925792 1.895249 0.7908809 1.4238948 1.5922339 0.77961123
-3.2601929 -0.47591385 2.7968125 0.5315302 0.5624272 0.24949574 0.22699338 0.035733666
0.909328 -2.9269762 -2.440007 1.7720563 -1.0833629 0.6303591 0.75391597 -0.16217084
0.015999937 -3.9207935 1.334729 0.5667448 1.3557979 0.49390432 -0.3920115 -4.0437064
-2.2652647 -1.7523113 2.3959723 -2.669145 1.3520901 1.9393998 0.2779078 3.4295363
-0.03350385 -0.26445493 0.7250817 -4.5756483 1.0746833 0.8056499 2.055887 -2.7742903
-0.24766542 1.3766251 0.9938671 1.5452139 1.3796927 1.6888419 -4.1786594 -1.5138702
0.55976766 0.8539707 1.847754 1.057457 1.2121536 2.4257987 1.4756793 -3.870056
2.9572508 -2.001104 0.255643 1.2004788 -2.9556532 0.31696653 -0.90099263 2.4662564
-0.4448843 -0.6488119 0.16549562 -1.4265434 -0.20139702 2.9918299 0.4076238 1.5264825
1.9811375 0.7800534 -2.981221 -0.13684264 0.7511337 2.207953 -1.7263685 -5.3694544
-0.9343318 1.9420376 1.1174475 3.0714123

weight f4 [50, 100]
00000000: db09 5ebe 42fa 3d3e af81 14bf a31a b3bd
00000010: 1127 12be 60d3 efbc 543b cfbd 0557 313f
00000020: e7e5 0bbe 4b6a 33bd 61f4 a1be bc59 fbb9
00000030: 827e e9bd 0f7c 133f b370 5a3d a4a2 cebe
00000040: 28d3 a53e 1bac 0fbe 4469 81bd 95c4 b4bd
00000050: 86fd 9e3b 30f5 043f bf75 23bc 7487 4b3e
00000060: 5eed 2a3e 2846 d93b a465 793c 1159 163c
00000070: 83cb 91be 949d a63d f604 6dbd 77c4 6cbd
00000080: 98b7 c33d 5a95 11be b53b 07be edf3 4d3c
00000090: e32d 58be a73e dfbe 47b5 5e3c 295e 84bd
000000a0: 61f0 01bf 9a0c 3f3e 52e2 0fbd 9901 eabe
000000b0: 1314 953d 895b 55be e872 93bd 76c3 b6be
000000c0: af24 3dbe 9ee4 a33e 8f79 2b3e bb0a 85be
000000d0: 981e 013f 0b1f dd3d 119c 583e 8e04 09bf
000000e0: 76b3 803d 3eed 013e f8fe 963d 2f0c 253d
000000f0: 5fd1 f53d 840d 473e 1349 2dbe a852 113d
00000100: db0b a7be 3345 463d f1fb 153d e6c1 473e
00000110: 7dda 5e3e df1c dcbd fc68 7bbf cda5 2ebe
00000120: 51f6 e2be 9909 9d3c e413 f0bd aa6f 043f
00000130: 5cc1 15be 81ac dcbc 9cf6 b4bf afda bdbe
00000140: 2656 30be 2c06 de3c 387a 4abe b446 613d
00000150: 004d f7bd 5994 9abe 86d4 953e 7e0b 45bf
00000160: 62f7 c4bd 4b91 533e ec16 0a3d e051 5dbf
00000170: 4d03 023f 4918 03be d4ff 573a 37f3 1dbe
00000180: 93b1 d13e 060c 15bd 6b48 f9be 1806 e43d
00000190: 8b32 633d ade0 c33c 8e0e 183e 87fa 1bbf
000001a0: e036 803e 7053 4fbe 2af9 e5bd bfee 96be
000001b0: 5019 67be b2b7 04be 8ea0 4ebe e71f 0abf
000001c0: 83c1 e33d bff1 663e 8d46 f73d 731b d9be
000001d0: c38e 943e d9cc 1abf b2a9 773e fb48 523e
000001e0: 6536 7a3c eb6f 373e 7a57 b5bc d886 153e
000001f0: 63e8 aabe e725 633d 1704 68bc 8380 b3be
00000200: 512e 763d 0be6 633e c7cf 563d 1b13 d2be
00000210: 3d1b 75be bedb 1ebe 6cb1 0ebe a290 95bc
00000220: 9e3c bb3e fab5 34bf 926c 5fbe 9112 ab3d
00000230: c1f7 86be ce0d ad3d 88b4 e9bd e856 9f3d
00000240: 8a80 c9be f7e6 433d d71b b43c 9819 88bd
00000250: b23a f2bd be60 59be 021d 213e 11ec f0bd
00000260: fa8f 6ebb fc34 ce3b 273b 78be ff8d efbd
00000270: dbd6 843e db0f c33e 04bf 903c 0930 8e3e
00000280: 8861 a43e f0a9 bb3d 8609 d7be 39ab d0bc
00000290: a9dc 9a3d 1396 c9be db1c 863e 8f0a e23d
000002a0: 4152 acbe c1a6 9fbd bab8 b43d d194 7839
000002b0: c97d 66be ee05 f63d d0f1 d2bd 3f0c bd3c
000002c0: 0ee5 f0bc 9870 0dbe bc4b d73c 6b65 f53c
000002d0: 0af9 4cbd 769a c0bd e0eb e7be 16d9 a03c
000002e0: 8414 b93d b274 683d 0b6f 243d 0dec 2bbe
000002f0: 2f9e e73e 387d ac3d 1eb1 c73d 569d b43c
00000300: afca 0fbe 9c55 a53e a56d 813d 39fe 28be
00000310: 669c 0f3e ce19 283c 90d3 8cbe e8d8 b1bc
00000320: ad0b 54bd a5df abbe 33ec 12bc 9da3 d2bd
00000330: beeb cb3d c113 0abe 82bd cc3d be76 8ebd
00000340: 1fbb 38be 9ca4 74be 3c28 46be d8ce 0bbf
00000350: 9521 253e 2c38 21bf e53b 433e e324 b9be
00000360: a6a9 a6bc f2d4 9f3d 7c20 053e 1186 b3bd
00000370: c32c 1cbe c6d3 a43c ab23 8bbd 6858 cfbd
00000380: 0617 fabe 79ee be3d d09f f33d 3d7f a23e
00000390: 1463 93bd 3753 70bc 41b0 bcbe 132a 323e
000003a0: 3647 c8bd a68c 3fbc f291 773c 0561 013e
000003b0: 945f 4dbe 30ec 82be 7c2a b13c 1d24 813e
000003c0: ff10 d33e 27b7 83be ef37 09be fe01 e83d
000003d0: 1668 2a3e e685 913e 8b1f 133e cb94 aebc
000003e0: 1be6 cebd 59c0 3abe 6c5d 1c3e ab6a 1e3e
000003f0: 0a46 25be 0fcb 95bd 46ed be3c 5ded 14be
-0.21683447 0.18552497 -0.5801038 -0.08745315 -0.14272715 -0.029275596 -0.10118738 0.69273406
-0.1366192 -0.04380254 -0.3163176 -0.00047941308 -0.114010826 0.57611173 0.053330135 -0.4035846
0.32387662 -0.14030497 -0.06318906 -0.088265575 0.0048519997 0.51936626 -0.009976803 0.1987589
0.16692111 0.0066306777 0.015221987 0.0091765085 -0.2847558 0.081355244 -0.05786606 -0.05780455
0.09556502 -0.1421713 -0.1320637 0.0125703635 -0.21111254 -0.43602487 0.013593025 -0.06463272
-0.50757414 0.18657151 -0.035127945 -0.45704344 0.072792195 -0.20835699 -0.07199651 -0.35696
-0.18471025 0.3201036 0.1674559 -0.2598475 0.5043731 0.107969366 0.21153285 -0.53522575
0.062842295 0.12688157 0.0737285 0.040294822 0.12002825 0.1943875 -0.16922407 0.035479218
-0.32626233 0.048405837 0.036617223 0.1950756 0.21763034 -0.10747694 -0.9820707 -0.17055435
-0.4432855 0.019169616 -0.11722544 0.51732886 -0.14624542 -0.026937725 -1.4137759 -0.37080905
-0.17220363 0.027102552 -0.19773185 0.05499907 -0.120752335 -0.30191305 0.29263705 -0.7697066
-0.09617497 0.20660894 0.033713266 -0.86453056 0.50786287 -0.12802233 0.00082397205 -0.1542481
0.4095579 -0.03638842 -0.48688063 0.11133975 0.055468123 0.023910845 0.14849302 -0.6092915
0.25041866 -0.20246673 -0.11229165 -0.29479024 -0.2256825 -0.12960699 -0.20178434 -0.5395493
0.11120894 0.22553156 0.12074003 -0.42403755 0.2901517 -0.6046882 0.24185827 0.20535652
0.015271758 0.17913787 -0.022136439 0.1460222 -0.33380422 0.05545607 -0.014161131 -0.35058984
0.060102765 0.22255723 0.052444246 -0.410302 -0.23936172 -0.15513512 -0.13934869 -0.018257443
0.36569685 -0.70590174 -0.2181876 0.08353151 -0.26360896 0.08449899 -0.11411387 0.07780248
-0.3935588 0.047827687 0.021985931 -0.066455066 -0.118276015 -0.2122831 0.15733722 -0.11763776
-0.0036401735 0.0062929373 -0.24241315 -0.116970055 0.25945172 0.38098034 0.017669208 0.27771023
0.3210566 0.091632724 -0.41999453 -0.02547227 0.07561619 -0.3937231 0.2619389 0.1103717
-0.33656505 -0.07795478 0.08824296 0.00023706561 -0.2250892 0.1201285 -0.10300028 0.023077128
-0.029406097 -0.13812482 0.02628123 0.029955586 -0.05004219 -0.09404461 -0.45297146 0.019634765
0.09037116 0.056751914 0.04014496 -0.16789265 0.45237872 0.08422321 0.09750579 0.02204768
-0.14042161 0.32291877 0.06319741 -0.16503228 0.14024505 0.010260059 -0.2750516 -0.021709874
-0.051768947 -0.33569065 -0.008967447 -0.10285113 0.09957074 -0.13484098 0.09997083 -0.06956242
-0.18040131 -0.23890918 -0.19351286 -0.54612494 0.16126092 -0.62976336 0.19065817 -0.36160955
-0.020344567 0.07804288 0.13000673 -0.087658055 -0.1525145 0.020120513 -0.067939125 -0.10124284
-0.4884569 0.09322829 0.11895716 0.317377 -0.07196632 -0.014668277 -0.3685322 0.17398863
-0.097792074 -0.011691248 0.01511048 0.12634666 -0.20055991 -0.25570822 0.021626703 0.25222865
0.41223904 -0.25725672 -0.13400243 0.11328505 0.16641268 0.2842247 0.14367501 -0.021311184
-0.10102483 -0.18237437 0.15270013 0.15470378 -0.16139999 -0.07314121 0.0233065 -0.14543672

bias f4 [50]
00000000: a7c7 cc3f 6682 7640 51e6 cabf 4f92 593f
00000010: 83eb 83bf 2162 0ac0 34aa 2ec0 3887 37bb
00000020: 0e97 1840 21c5 ea3f 1ce8 dbbd cde3 8ec0
00000030: 3ff1 1c3e dd1e 343f 2841 1040 1a1a 93c0
00000040: 9485 ad3d db74 cb3b 6c6e 9e40 7563 01bf
00000050: d401 3d3f e32f 0b3f 10d0 1b40 622c d2bc
00000060: 6242 95c0 1012 dbbd 6d1e 0d40 03c2 073f
00000070: 8e71 933f 2eca 983f 64a5 43c0 1278 793e
00000080: 305b 96c0 7725 34bf 8b5f f13f 4a7a 0e40
00000090: 0532 a8c0 128a 363f 5f8a a3bf 9457 9c3d
000000a0: 9984 ebbc cc79 b0bd be9e 3840 7cc1 2740
000000b0: de9b 39bf 19ed 6b3f 890a 083f 5174 463e
000000c0: c04c 5440 e105 b2c0
1.5998429 3.851709 -1.5851537 0.84988874 -1.0306247 -2.1622393 -2.7291384 -0.002800418
2.3842196 1.8341409 -0.10737631 -4.4653077 0.15326403 0.70359594 2.2539768 -4.596936
0.08472744 0.0062089986 4.950979 -0.50542384 0.73830914 0.54369944 2.4345741 -0.025655929
-4.6643534 -0.106968045 2.204982 0.53030413 1.1519029 1.19367 -3.0569696 0.2436221
-4.6986313 -0.70369667 1.8857282 2.226214 -5.256106 0.7130443 -1.2776603 0.07633892
-0.02874975 -0.08616981 2.8846889 2.6211843 -0.7250346 0.9215866 0.53141075 0.19380309
3.3171844 -5.5632176

weight f4 [20, 50]
00000000: 6577 3bbe f564 713e 23b1 79be 5e0e 89be
00000010: c170 9d3b fb34 99bd c9e9 0bbf b67e 853d
00000020: 15a9 99bd 49d4 2ebe 1fc0 2b3f a40b 80be
00000030: 3b5a 893e e1cc 0f3e 5635 a53d 477d 97bd
00000040: c520 babd 9761 4dbf 2916 893e 2303 4c3d
00000050: aea9 fd3e 165a e73c 27de 8dbd 444c a43d
00000060: 2498 c5be f16c eabb dc8d 6c3d ff07 a8be
00000070: 1039 54be 9f27 843e f23a f5bd c052 5a3d
00000080: 6ed2 613e 1314 eb3d 5e14 c2bd d436 03bf
00000090: 847b d1bd af51 9dbd ec57 103d b287 2ebd
000000a0: b7cf bf3d bab7 fa3c f9af 2d3f ad5b 163e
000000b0: f9bc b7bd d832 89be 2920 fb3d a26c ddbd
000000c0: f1b2 8f3e fd0e f4bd 4481 4bbf c00e c23e
000000d0: bbd2 a23e a28a 6fbe c7f2 eebe 3bb3 ef3e
000000e0: 2971 11bd 0510 c03d a6cc 2c3e 4194 fb3d
000000f0: 38d8 a93e 4f5a c63e 0824 56bf a953 f83d
00000100: e4f9 473e 49c2 013e 8b37 b3bd f76a 4c3c
00000110: 74ce 16bf bbca a9bd 26ea fb3e 5b6c c7bd
00000120: ca12 51bd 3088 3f3d 646e 59bd e6e0 cb3d
00000130: 527a 5f3f aab2 5a3e e64e 2e3e d1e1 5ebf
00000140: 735a b9be fc05 29bf fad9 e4be 847d 94be
00000150: 1249 2cbe f552 8c3f e637 b0bd 2f99 f73d
00000160: 99b7 66be 7f74 d0bd fd55 0a3d 0fd5 b5bd
00000170: 8164 163f a6d2 39be f5b5 98bf 74f5 e23e
00000180: d9a9 6dbe 8271 c4bd 037b a33e c552 0cbe
00000190: c12f d23e 33f1 09bf 7402 30be e2ee 85bd
000001a0: 8e6b 493d 6a39 d33e 3ccf 04be 11b9 18bd
000001b0: 4883 47bd 12cd cf3d 1b37 b13d 7646 a23d
000001c0: 3aa5 5ebe dd1e e6be f4cd ff3d 91df 27bf
000001d0: 6b01 ddbd fc39 1dbe 6f48 243e 7566 bb3d
000001e0: 2a1b aebd bd51 213e f8f3 0b3d bec0 943d
000001f0: 3a50 b2be 8bad 1bbe f915 dc3c 1fb6 113e
00000200: cb7c 6fbf d905 9bbe 44f0 4d3d f747 a2bd
00000210: a6d0 4cbc 7784 a6bf 3db9 95be a922 eb3c
00000220: ef82 34be 87bd 04be c7ef 8f3c d8de ddbc
00000230: 0eae 413b aed9 913c 000c 9a3c 6834 4bbf
00000240: 69c9 c4be 56cf 18be 520d 3c3e eb3d 94be
00000250: 3d1e 4abd 96e0 5c3d c406 babe b5c0 05be
00000260: 046a 5fbf 2829 7bbe f30a 97be 96b3 db3e
00000270: 0b62 cc3d 41ed f73b a251 df3d 0c06 2f3e
00000280: 84f9 a4be 3aa7 6f3e bf64 28be 747c 9ebe
00000290: b099 d73c 82e3 19bf a9ac c8bd 8918 75be
000002a0: ee3f dfbb 91e6 6cbc 847a 8abe ea54 26be
000002b0: 8514 88bc 7768 263d 79d6 11bf 593c 69be
000002c0: c64e 04be e2de 5bbe 78f7 a63e 80f5 5b3e
000002d0: 211c 3dbe 03f7 d63e 8b9d 80be 525b ccbd
000002e0: a5d2 6bbe 647b 003f 03ca 5dbd fcd8 febd
000002f0: 9281 d0be d861 c9bd 826d c0bd 2f95 0dba
00000300: 68b8 013f f930 903c d693 c03d 1db7 e93d
00000310: 3fdb c8bd 70e9 e7be 98de dd3e 08e4 893c
00000320: 48f9 223e c708 48be 8151 3bbd 557b 7abe
00000330: 7491 34be cf84 cb3d 64d0 7e3e 343e 333d
00000340: 3528 043d 969d 7bbe 80b3 2cbf 2049 b9bc
00000350: 1f21 7a3d 5a15 853e dde1 15be e565 99bd
00000360: ae5a bdbd 9a16 bfbe 81bb 1f3e 19cf 95be
00000370: af9e 29bd 21cb dcbe 1f96 0b3f 055c 96bb
00000380: 7d1f 01bd 5bcb 47be 70b9 69bd b520 46be
00000390: 0f13 123e 2819 bc3e 7a0c 99be 910e 933c
000003a0: 66bb 723e 3ff0 753d 1804 363f bd01 9f3b
000003b0: 65ed 8bbd 4155 b8bc 8e98 f83a a89d c3bc
000003c0: 9326 08be d799 3c3b ef5d e2be 5cbf 273e
000003d0: 2152 883e 509a 80be 2f68 97be 381e 18bf
000003e0: c89d 85bf 68e6 4cbe 2048 48be 7486 40be
000003f0: 12c2 283e 4731 c1bd a7c5 ef3c d495 0f3f
-0.18307264 0.23573668 -0.24383979 -0.26768774 0.004804701 -0.07480808 -0.546536 0.06518309
-0.07502953 -0.17073168 0.6709003 -0.2500888 0.26826653 0.14042999 0.08066814 -0.07396942
-0.090882815 -0.80227035 0.2677472 0.04980768 0.49543518 0.028241199 -0.06927138 0.08022359
-0.38592637 -0.0071541 0.057752475 -0.328186 -0.20724893 0.25811478 -0.119741336 0.053301573
0.22052929 0.11478438 -0.09476541 -0.51255536 -0.10228637 -0.076815955 0.0352401 -0.042609878
0.0936579 0.030605186 0.6784664 0.14683409 -0.089715905 -0.26796603 0.122619934 -0.10811736
0.2806621 -0.11916921 -0.7949412 0.37901878 0.318014 -0.23392728 -0.466696 0.4681643
-0.03550831 0.093780555 0.16874942 0.122841366 0.33172774 0.38740775 -0.8364873 0.12125332
0.1952892 0.1267177 -0.08750828 0.012476674 -0.5890877 -0.08290621 0.4920208 -0.09737464
-0.05104331 0.046760738 -0.053083792 0.09955005 0.8729602 0.21357217 0.17022285 -0.8706332
-0.3620182 -0.66024756 -0.44697553 -0.2900201 -0.16824749 1.0962816 -0.08604412 0.12089764
-0.22530974 -0.1017847 0.03377341 -0.08878528 0.58747107 -0.18146762 -1.1930529 0.4432789
-0.23209323 -0.095919624 0.31929788 -0.13703449 0.41052058 -0.53883666 -0.17188436 -0.06539704
0.049174838 0.4125474 -0.12969679 -0.037285868 -0.048709184 0.10146536 0.08653089 0.079235956
-0.21742716 -0.44945422 0.12490454 -0.6557551 -0.10791286 -0.1535415 0.16043256 0.091504015
-0.08501275 0.15753837 0.034168214 0.07263325 -0.34826833 -0.1520292 0.026865946 0.1422963
-0.93549794 -0.302779 0.050277963 -0.079238825 -0.012500918 -1.3009175 -0.29242888 0.02870305
-0.17628072 -0.12962924 0.01757039 -0.0270838 0.0029553208 0.017803993 0.01880455 -0.7937684
-0.38434914 -0.14922842 0.18364456 -0.2895349 -0.049345244 0.05392512 -0.36333287 -0.13061793
-0.8727114 -0.24527419 -0.2950054 0.4291045 0.09979638 0.0075661247 0.10904242 0.1709215
-0.32221615 0.23403636 -0.16444682 -0.30954325 0.026318401 -0.60112774 -0.09798557 -0.2393514
-0.006813041 -0.014459268 -0.27046597 -0.1624333 -0.016611347 0.04062697 -0.56967884 -0.22776927
-0.12920675 -0.21471742 0.3261068 0.2148037 -0.18467762 0.4198533 -0.25120196 -0.099783555
-0.23029573 0.5018828 -0.05414773 -0.1244373 -0.40723854 -0.09833115 -0.09395887 -0.0005400953
0.50672007 0.017601477 0.094031975 0.11411879 -0.09807443 -0.45295286 0.43333888 0.016832367
0.15915406 -0.19534598 -0.045732025 -0.2446111 -0.17633611 0.099374406 0.24884182 0.043760493
0.032264907 -0.24571833 -0.67461395 -0.022617877 0.061066743 0.25992852 -0.14636941 -0.07490138
-0.092458114 -0.3732193 0.15598871 -0.29259565 -0.041411098 -0.43123725 0.5452594 -0.0045886063
-0.03152417 -0.19511168 -0.057061613 -0.19348414 0.14265083 0.36737943 -0.2989233 0.017951282
0.237043 0.06004357 0.71099997 0.004852502 -0.06832389 -0.02250159 0.0018966363 -0.023878887
-0.13295965 0.002877822 -0.4421229 0.16381592 0.2662516 -0.2511773 -0.29571673 -0.5942111
-1.0438776 -0.20009768 -0.19558764 -0.1880129 0.16480282 -0.09433227 0.029269053 0.56087995

bias f4 [20]
00000000: 6a38 afbc e4ef 8fbf 8716 fbbf 5180 d33b
00000010: 85b0 c93f 04d6 643f 39c8 9b3f 65b4 b63f
00000020: 6870 8a3e 197a ef3f 7194 54be 3004 833d
00000030: cc5d 45c0 762c 1cbf 5953 923f cdfc 4abf
00000040: e4b8 8bbf f36f 84c0 aa15 f73e 0fd9 3abf
-0.021389205 -1.1245084 -1.961625 0.0064545055 1.5756994 0.8938906 1.2170478 1.4273802
0.27038884 1.8709136 -0.20759751 0.06397283 -3.08385 -0.6100534 1.1431686 -0.79291993
-1.0915799 -4.1386657 0.48258716 -0.72987455

weight f4 [16, 20]
00000000: 95b7 14be b391 91be f9d6 213c 1992 cabe
00000010: 8f04 aa3e 277b b93c 4a40 273e 5ee9 243e
00000020: 3d8a 57bb b2d0 a13e eb2f ccbd 89ca 85bc
00000030: ac66 be3e 3dd8 23be 9945 44be 58b1 f23d
00000040: 96b2 bfbc c2e4 153e 1c0d 5ebb d42d a8bd
00000050: 32d3 b6bb 3521 2dbe 58f3 4bbe 51e4 b5be
00000060: ac5d b43d 8eb8 983e 6daa 603e 1ca8 d93d
00000070: 6823 b13c 0cff 1c3e e1f6 bdbd 9e87 d03d
00000080: be47 933d 62da 0b3d 96eb 8cbe 0736 28be
00000090: 4a2a 8b3e edba 4c3e 6c65 2ebd 4dae 543d
000000a0: df94 88be df1c 80be 2546 96be 91ff abbe
000000b0: 3832 183d 0cf4 b83e 0e9e f33d 8584 e6ba
000000c0: 76fb 393e 07ea 853e 6d57 8bbe 86bc b73a
000000d0: 2cce 703e 4ce1 c23d 5d15 b3be efbd 443e
000000e0: 85ba b43e 01c8 763e 4601 6abe ee49 203e
000000f0: 8105 73bd 4bbb aa3d 4b44 693d 3e14 49be
00000100: 573e 133d b5e2 8c3c d516 a0bb a005 7e3d
00000110: df18 85bc 942e 6c3e 465e cbbc 83be 893c
00000120: 87ce 933d 8628 7c3b bf39 07be b987 0c3d
00000130: c0af 523d d7d2 af3d ba98 ef3b c961 86bc
00000140: 7f5f 6cbe 0bee ba3d d7eb 2d3e 7018 23be
00000150: 8184 973e acb2 003e 6cd0 bc3d 8018 52bc
00000160: 6db4 dfbc c18e 9d3d d3c0 45bc cf82 dfbb
00000170: 07ea 4d3d 7c17 50bd 90b9 16be e2a9 ae3d
00000180: 389c 1f3e ee29 3f3e b9e9 14bd 2dc4 72bb
00000190: 239d 8cbe 38e0 4fbd c2d8 a6bd 6cd8 c2be
000001a0: 0557 953d ce4a bf3e a588 963e b424 8e3e
000001b0: cb83 583e 122b f4bb 042d 60be 42f2 d9bd
000001c0: f4a5 cd3e 83af 19be 66a8 2dbe 01dc 1bbe
000001d0: 9fe3 4a3e 5c7b 703e 8821 96be 0cfc 1ebe
000001e0: 4e4c 793d fefb d83d d63e 51bd a390 7fbd
000001f0: d672 89bd 3988 023e 6626 aebb 6e96 333d
00000200: aec0 b1bc 3e95 8dbd a0eb ebbc d440 623c
00000210: 6cf0 4f3d b26b 5d3c 0c08 b2bd d92e 08bb
00000220: fb98 593e 7ec7 5e3d a067 013d 4267 e7bb
00000230: b05e 2e3e 4030 143d 4f90 be3d 702f 273d
00000240: 35b3 f4bc 7a94 acbd ea97 623d 4c27 f93d
00000250: 7640 36bd 100a 1fbe 1417 e93d 057a 95bd
00000260: 88e9 65be b1b8 443d c687 ee3d 14c9 89bd
00000270: b3b4 20be 3fd5 11be bcd5 353e d986 4b3d
00000280: c84f d3bd 2010 fc3d bbcf 933e b05a c93e
00000290: cd68 99be 3bab 86bc d077 98be 1082 97bd
000002a0: f062 42be 2482 ccbd 062f 1b3e 126b 27be
000002b0: 1b37 83be aefe e83c a450 5b3e 8971 eebc
000002c0: 7b34 91be 50f1 b8be 195d 093e f726 603e
000002d0: 2e6a 24bd b3d4 babc a6e6 36be a20c 5bbd
000002e0: 787c 213e 75e7 253e cb60 453e 237b cb3b
000002f0: dc66 e1bb 1d3b 9abd 5239 043d ca53 50bc
00000300: a016 013d 0fa4 c33c 9057 0b3e 869d 4dbd
00000310: c832 49bd 487c 503d b0f3 33bd 91c7 803c
00000320: 2c53 9e3e 0997 a2bd 433c 843e ac8f 473e
00000330: d443 d1be 4e6a 8fbb 3dc1 01be 0bb6 1cbe
00000340: a8a2 2c3d 0cc3 debc 8683 853d 3ac2 13be
00000350: 92db c9be 3de9 21be d1d3 9d3e 9deb 99bd
00000360: d299 c7be 4a5f d2be cb86 b73e 4688 1d3e
00000370: 0aaf 7ebe 3e37 dc3c ff8e 62bc 96cc 39be
00000380: faac 853d 3226 e63d 6b67 a5bb b16e 96bd
00000390: 3c1b 05bc ed4f 4ebd 9bf4 16be fd80 c4bd
000003a0: bec4 de3e 82f0 693d da13 f1be 4636 173e
000003b0: 8cdc 933d 52e6 b33e 6370 82bd d2a9 4abe
000003c0: 0049 993e e99f 893e 618f f5bc 5ad4 493e
000003d0: 9c19 42be d4dc b5be dd6f 6bbe 9225 6ebd
000003e0: e98f 43be f824 97be 0d05 753e a845 01be
000003f0: f034 c0be 8ddc b33d 26a4 003e 40be 71bd
-0.14523156 -0.28431472 0.009877914 -0.3956459 0.33206603 0.022641731 0.16333118 0.16104648
-0.0032888793 0.31604534 -0.09970077 -0.016331928 0.37187707 -0.16000457 -0.19167174 0.11850232
-0.023400586 0.14638045 -0.0033882326 -0.08211866 -0.0055793757 -0.16907199 -0.19917047 -0.35525754
0.08806929 0.29828304 0.21940012 0.106277674 0.021623328 0.15331668 -0.09275604 0.10182117
0.07191418 0.034143813 -0.27523488 -0.1642686 0.27180701 0.19993182 -0.042577192 0.05192404
-0.2667608 -0.25022027 -0.2935039 -0.3359342 0.037157267 0.36123693 0.11895381 -0.0017587101
0.18162331 0.2615511 -0.27215138 0.0014017976 0.23516148 0.09515628 -0.34977236 0.19213079
0.35298553 0.24099733 -0.22852048 0.15653202 -0.05933142 0.083365045 0.056949895 -0.19636628
0.035948124 0.017197946 -0.0048855343 0.062017083 -0.016247211 0.23064643 -0.024825227 0.016814476
0.07217126 0.0038476302 -0.13205622 0.034309123 0.05143714 0.085851364 0.0073119076 -0.01640405
-0.23083304 0.09127434 0.16984497 -0.15927291 0.2959328 0.12568158 0.09219441 -0.012823224
-0.027307713 0.07693244 -0.012069899 -0.0068210135 0.050272014 -0.050803646 -0.14719224 0.08528496
0.15586936 0.18668339 -0.036355708 -0.00370432 -0.27463636 -0.05075094 -0.08146812 -0.38055742
0.07291988 0.3736176 0.29401127 0.27762377 0.21144025 -0.0074514234 -0.21892172 -0.1064191
0.40165675 -0.15008359 -0.1695877 -0.15220644 0.19813393 0.23484558 -0.29322457 -0.15525836
0.060863785 0.10594939 -0.051085316 -0.062393796 -0.06711356 0.12747277 -0.005314636 0.043844633
-0.021698322 -0.06913231 -0.028798878 0.013809402 0.050766394 0.013514446 -0.08692941 -0.0020779877
0.21249764 0.05438947 0.031592965 -0.00706187 0.17028308 0.036178827 0.093048684 0.040816724
-0.029870609 -0.08426757 0.055320658 0.121656984 -0.04449507 -0.15531182 0.11381355 -0.07298664
-0.22452366 0.048027698 0.116469905 -0.06727806 -0.15693931 -0.14241503 0.17757314 0.049689148
-0.103179514 0.12307763 0.28869423 0.39327002 -0.2996277 -0.01643907 -0.2977891 -0.07397854
-0.18983054 -0.0998576 0.15154657 -0.16349438 -0.2562798 0.028441753 0.2141748 -0.029106872
-0.28360352 -0.36121607 0.1341442 0.21889864 -0.040140323 -0.022806501 -0.17861423 -0.053478844
0.15770137 0.16201575 0.19275205 0.0062097474 -0.006878717 -0.07530806 0.032281227 -0.012715289
0.031515718 0.02388194 0.13607621 -0.050199054 -0.049120694 0.050899774 -0.04393357 0.01572016
0.3092283 -0.07938964 0.25827226 0.194884 -0.4087206 -0.004376686 -0.12671371 -0.15303819
0.04214731 -0.027192615 0.06519227 -0.1442956 -0.3942533 -0.1581163 0.30825666 -0.07515643
-0.38984543 -0.41088325 0.35845026 0.15384015 -0.2487146 0.02688181 -0.013828038 -0.1814445
0.06527133 0.11237754 -0.005047729 -0.073453315 -0.008124169 -0.050369192 -0.14741747 -0.09594915
0.43509477 0.05711413 -0.47085458 0.14766797 0.072198 0.35136658 -0.06369092 -0.19791344
0.29938507 0.26879814 -0.029975595 0.19709912 -0.18955082 -0.3552004 -0.22991891 -0.0581413
-0.19097866 -0.29520392 0.23927708 -0.12624228 -0.37540388 0.08782301 0.12562618 -0.059019327

bias f4 [16]
00000000: 4b34 45be b35f 60be 631c db3d fd72 833d
00000010: 47d0 a43a 5ac4 cebc 9ed0 2dbe 4af8 b5bb
00000020: 18ed c7bc 753b dfbd f915 9c3e 8026 a33d
00000030: 6047 e8bc 8fe8 75be a34e 183d 70cd f7bd
-0.1925823 -0.21911506 0.10698774 0.06418417 0.0012574279 -0.025240112 -0.16974112 -0.00555328
-0.024405047 -0.109000124 0.30485514 0.07966328 -0.028354347 -0.24014495 0.03718437 -0.12099731
