runs/20250317_181645/vflAggregator.pt (torch, 3249 bytes, 1 tensors)

weight f4 [1, 32]
0.040877864 0.09827488 0.19534461 -0.11789439 -0.02071881 -1.7999683e-06 5.705227e-06 0.09727449
1.3646366e-05 0.06400623 -0.13826372 0.09199269 -0.087685816 0.114904985 0.122076854 -0.01524863
-0.11499391 -0.0037429393 -0.10849989 0.002420166 -0.0027899859 -0.13487974 -0.0050993958 -0.0057832086
0.17595284 -0.0010016855 0.19668072 -0.092054494 0.07354818 -0.13369234 -0.053499952 -0.108683385
00000000: 8c6f 273d 5744 c93d 6b08 483e 9d72 f1bd
00000010: 7eba a9bc 7196 f1b5 876f bf36 d937 c73d
00000020: b2f2 6437 b315 833d 0195 0dbe aa66 bc3d
00000030: 9f94 b3bd 4e53 eb3d 6e03 fa3d 64d5 79bc
00000040: ed81 ebbd 1a4c 75bb 3135 debd a69b 1e3b
00000050: 32d8 36bb ea1d 0abe d518 a7bb 1281 bdbb
00000060: fb2c 343e fd4a 83ba ac66 493e 1187 bcbd
00000070: 6ea0 963d a5e6 08be c422 5bbd 6595 debd
