runs/20250317_195934/best_lrLocalModel.pt (torch, 6397 bytes, 2 tensors)

weight f4 [64, 6]
3.85936e-05 0.041694317 0.21237035 0.043308634 -0.10064231 -3.082435 0.0001720622 -1.0014361
-0.196922 -0.4441696 -0.45354465 -16.729683 -4.5372402e-05 -0.12191954 2.1072757 0.53602606
0.3216611 -12.977723 -0.0001514773 0.21900904 -0.14473775 -0.06714788 0.4253722 13.353343
0.000116419375 0.07431912 -0.7175604 0.05927087 -0.56339777 2.2344265 -3.1020947e-05 0.4439918
1.303245 0.12206751 0.27146262 -13.917998 4.4649278e-05 -0.08634854 1.3759093 -0.3409201
0.014935285 -15.475389 -7.1835035e-05 -0.14005189 1.7671192 0.18132418 0.4831336 -14.120165
-3.0121766e-05 -0.04647314 -1.4106108 -0.27842832 -0.042412758 15.854262 -8.766848e-05 -0.22050846
-1.7219957 0.049484286 0.21310137 13.721002 3.516599e-05 0.36079204 -0.13243876 0.22005212
-0.12497679 -4.4188957 -0.00015795656 0.045925986 -1.5450475 -0.5150421 0.50284934 13.191786
1.0405081e-05 0.5192922 1.0916861 0.6865156 0.10252242 -15.439023 6.847275e-05 -0.43195248
1.8578703 -0.05585231 -0.10729499 -13.149056 3.779153e-05 0.4213335 1.5202007 0.93208325
-0.042572282 -14.557725 0.00016354922 -0.48995182 1.8330721 -0.026452256 -0.5083007 -13.405488
0.00015662555 -0.7452706 -0.53348947 -0.32522556 -0.3666542 -16.746796 3.0423842e-05 -0.09038639
-0.17596081 -0.09847008 -0.12067575 -1.9535048 -0.0951049 0.49097884 2.5132082 1.0421112
-0.23983565 -15.44984 2.0471685e-05 -0.1216621 -0.9246376 -0.80568594 -0.26770353 15.262673
-4.599635e-05 0.1384421 -0.21342371 -0.15693125 -0.04743468 16.39528 6.279927e-05 -0.24013153
-0.691913 -0.20217894 -0.1643727 -4.583048 -9.588538e-06 0.64672685 1.6206464 0.6920928
0.10956671 -12.722897 0.00049815583 -1.3863372 -2.024109 -1.5356529 -2.068603 -23.410994
-0.0001451377 0.07355837 -1.693458 0.18662675 0.42962924 14.596912 -0.00011409293 0.68301964
0.19036233 -0.005804648 0.45453918 6.101101 2.5526617e-05 -0.5084262 -0.07787842 0.020941092
0.108923994 -12.417124 -6.0018658e-05 -0.40514633 -1.2610596 -0.709604 0.11668435 13.98316
-3.293711e-05 -0.16369298 -0.85100067 -0.36552015 -0.05365776 16.72907 -0.00024690913 1.1338359
0.2676512 0.6742424 0.957855 21.768486 -0.00021852911 0.6681068 -0.26210028 0.088686846
0.8748748 21.785997 1.2006885e-05 -0.0026723056 -2.002465 -0.8287663 -0.18113959 14.571113
4.0225976e-05 -0.36154124 -0.17334643 -0.42806724 0.029875388 -10.817014 3.59379e-05 0.29786414
-0.10390091 0.28870612 -0.09632542 -4.497236 -0.03851912 0.5960667 1.8250781 1.1456
0.1167456 -15.071032 -0.000110895984 0.16742386 -1.3596256 -0.13047166 0.27004328 14.095233
4.7166031e-07 -0.0015926851 0.92940474 0.38397625 0.19823097 -15.832616 -0.00016513836 -0.11867495
0.42165676 0.17074008 0.54789966 4.8461742 8.701824e-05 -0.28095898 1.3314868 0.56070566
-0.18980612 -15.29692 -3.349898e-05 0.12892292 -1.4815359 0.13951561 -0.049468044 15.103086
-5.2068244e-05 -0.6354046 -2.0739987 -0.9868177 0.1485537 12.890987 -4.2864005e-05 0.67371935
-0.014703136 0.5101731 0.027005475 4.8518887 -4.0800493e-05 -0.02333116 -0.39868894 -0.3799557
00000000: 90df 2138 a9c7 2a3d 9d77 593e 6564 313d
00000010: 8e1d cebd 9d46 45c0 986b 3439 0f2f 80bf
00000020: eca5 49be 336a e3be 0137 e8be 64d6 85c1
00000030: 3f4e 3eb8 f4b0 f9bd 9bdd 0640 0139 093f
00000040: c4b0 a43e c1a4 4fc1 e1d5 1eb9 e843 603e
00000050: 2236 14be d484 89bd 63ca d93e 4ba7 5541
00000060: 2d26 f438 9f34 983d 0ab2 37bf 03c6 723d
00000070: d63a 10bf d800 0f40 7d1c 02b8 e552 e33e
00000080: bbd0 a63f 88fe f93d 26fd 8a3e 1fb0 5ec1
00000090: cc45 3b38 81d7 b0bd cc1d b03f 148d aebe
000000a0: 20b3 743c 319b 77c1 24a6 96b8 c369 0fbe
000000b0: f630 e23f 0cad 393e 4a5d f73e 32ec 61c1
000000c0: 00ae fcb7 9f5a 3ebd e58e b4bf 288e 8ebe
000000d0: 00b9 2dbd 0fab 7d41 a8da b7b8 f8cc 61be
000000e0: 5b6a dcbf 09b0 4a3d 3f37 5a3e 3989 5b41
000000f0: 327f 1338 bcb9 b83e 079e 07be 5855 613e
00000100: d5f3 ffbd 9867 8dc0 24a1 25b9 e31c 3c3d
00000110: 1ec4 c5bf cdd9 03bf bcba 003f 8e11 5341
00000120: 7c91 2e37 55f0 043f 5fbc 8b3f 7dbf 2f3f
00000130: 46f7 d13d 3d06 77c1 0799 8f38 e028 ddbe
00000140: b2ce ed3f 64c5 64bd 7abd dbbd 8962 52c1
00000150: 5982 1e38 06b9 d73e f095 c23f 029d 6e3f
00000160: 4660 2ebd 71ec 68c1 697e 2b39 f7da fabe
00000170: 1ba2 ea3f 67b2 d8bc ff1f 02bf e17c 56c1
00000180: da3b 2439 0eca 3ebf c492 08bf f783 a6be
00000190: 19ba bbbe 70f9 85c1 b436 ff37 801c b9bd
000001a0: 122f 34be aeaa c9bd d924 f7bd 720c fabf
000001b0: 5cc6 c2bd 9461 fb3e 67d8 2040 e663 853f
000001c0: 7a97 75be 8b32 77c1 9cba ab37 fb29 f9bd
000001d0: 0db5 6cbf 6f41 4ebf 7010 89be e933 7441
000001e0: 34ec 40b8 c4c3 0d3e bf8b 5abe 96b2 20be
000001f0: de4a 42bd 8929 8341 1ab3 8338 0ae5 75be
00000200: 3621 31bf ff07 4fbe 5151 28be 54a8 92c0
00000210: 75de 20b7 e48f 253f 5771 cf3f fe2c 313f
00000220: 8364 e03d fc90 4bc1 ac96 023a 7f73 b1bf
00000230: 008b 01c0 4690 c4bf fe63 04c0 b749 bbc1
00000240: 1b30 18b9 c5a5 963d 3bc3 d8bf 151b 3f3e
00000250: 5df8 db3e f48c 6941 2d45 efb8 60da 2e3f
00000260: 58ee 423e eb34 bebb 5cb9 e83e 383c c340
00000270: fe21 d637 3828 02bf b97e 9fbd a78c ab3c
00000280: 8b13 df3d 8aac 46c1 8bbc 7bb8 576f cfbe
00000290: 676a a1bf 9ca8 35bf 34f8 ee3d 06bb 5f41
000002a0: f425 0ab8 229f 27be 2edb 59bf 7525 bbbe
000002b0: 3dc8 5bbd 23d5 8541 9573 81b9 8921 913f
000002c0: 9409 893e 269b 2c3f fc35 753f dc25 ae41
000002d0: f624 65b9 0c09 2b3f 0232 86be 73a1 b53d
000002e0: cbf7 5f3f b949 ae41 2e71 4937 d921 2fbb
000002f0: 6328 00c0 072a 54bf a87c 39be 4723 6941
00000300: 50b8 2838 ef1b b9be ba81 31be a12b dbbe
00000310: 3bbd f43c 7d12 2dc1 07bc 1638 a681 983e
00000320: 00ca d4bd 4ad1 933e 4346 c5bd 5be9 8fc0
00000330: 3ac6 1dbd d497 183f 299c e93f 05a3 923f
00000340: 5118 ef3d f222 71c1 d490 e8b8 2971 2b3e
00000350: 3608 aebf 5d9a 05be 1d43 8a3e 1386 6141
00000360: 8038 fd34 a5c1 d0ba 78ed 6d3f 8998 c43e
00000370: 0ffd 4a3e 6552 7dc1 fe28 2db9 da0b f3bd
00000380: 65e3 d73e 7dd6 2e3e 2743 0c3f dc13 9b40
00000390: 907d b638 dbd9 8fbe 296e aa3f 688a 0f3f
000003a0: 895c 42be 2fc0 74c1 4281 0cb8 5f04 043e
000003b0: f8a2 bdbf 2edd 0e3e 019f 4abd 3ea6 7141
000003c0: da63 5ab8 e0a9 22bf 65bc 04c0 16a0 7cbf
000003d0: 761e 183e 7c41 4e41 e0c8 33b8 df78 2c3f
000003e0: 6ce5 70bc b49a 023f 963a dd3c ac42 9b40
000003f0: 3221 2bb8 fd20 bfbc f520 ccbe 8e89 c2be

bias f4 [64]
-0.4076175 -1.03428 -0.92309487 0.40226936 -0.48532313 -0.21893828 -0.36132726 -0.08024231
0.0204646 0.7191755 -0.138503 1.3260183 -0.3160945 -1.018335 -0.41661435 -0.94549245
-0.5789356 -0.04490159 -0.9660139 0.16575143 0.356354 -0.34816653 -0.41134375 -1.6895143
1.0164591 0.46896386 -0.7093041 0.7447075 -0.1231829 0.9318603 0.8701902 0.20753667
-0.10884101 -0.12356508 -0.9561852 1.4390159 -0.26338425 0.0804069 -0.266413 0.5034972
0.662138 0.65538156 0.72137403 0.869115 0.41792104 0.6344729 0.671853 1.2240465
0.030959135 -0.5512341 0.16141197 -0.011927449 -1.4464185 1.3139954 -1.4581982 -0.14853373
-0.3294862 0.57768655 -0.98150253 0.4240236 -0.4318347 0.41214648 0.20733577 0.6799314
00000000: 3eb3 d0be 4963 84bf f24f 6cbf 40f6 cd3e
00000010: 467c f8be 5b31 60be e3ff b8be 1556 a4bd
00000020: 60a5 a73c e31b 383f bbd3 0dbe f8ba a93f
00000030: 23d7 a1be cd58 82bf 7a4e d5be cb0b 72bf
00000040: 2035 14bf bbea 37bd b04c 77bf beba 293e
00000050: 0874 b63e e242 b2be a69b d2be 0142 d8bf
00000060: 551b 823f 081c f03e f494 35bf 27a5 3e3f
00000070: 5147 fcbd 668e 6e3f c9c4 5e3f 7e84 543e
00000080: 09e8 debd b00f fdbd 8ec8 74bf ac31 b83f
00000090: 4dda 86be 5fac a43d 4967 88be 31e5 003f
000000a0: e081 293f 16c7 273f f8ab 383f 527e 5e3f
000000b0: bff9 d53e d16c 223f 8ffe 2b3f 8ead 9c3f
000000c0: 039e fd3c ae1d 0dbf 2e49 253e 596b 43bc
000000d0: 3e24 b9bf 0031 a83f 3da6 babf 3a19 18be
000000e0: 6ab2 a8be 44e3 133f c043 7bbf 9f19 d93e
000000f0: 7019 ddbe dd04 d33e d44f 543e fc0f 2e3f
