runs/20250317_195934/best_vflAggregator.pt (torch, 3688 bytes, 1 tensors)

weight f4 [1, 128]
00000000: efc1 6038 51d6 91b8 e025 98b8 20ae 01b8
00000010: f8db 6b38 a3ca 8ab8 38b3 fdb7 17df d5b8
00000020: ed20 3338 4ca1 adb6 e68c fab7 2a9b 17b8
00000030: b531 60b8 22a1 5f37 da83 9eb8 9c7b 0d38
00000040: d105 37b8 4d7d 63b7 eef1 c0bc 04f2 f338
00000050: a61e 1b38 8d70 0ab7 1041 e8b7 38f2 33b9
00000060: 00dc e933 5a07 0038 247f a536 3c09 e336
00000070: e230 6b38 32f9 8639 90b9 7f39 8a36 c438
00000080: fdb3 0138 a9bd ce37 d0f7 2abc c07c 2935
00000090: c7bc 97b8 e70d ffb8 7e4f 26b7 d06c f337
000000a0: 2626 83b6 0d44 51b8 7275 3638 b2ed aa38
000000b0: 6f93 e038 a518 d138 79ae 8338 e66b 4d39
000000c0: 6468 a338 6d2a f537 da9b 24b8 ce5e d338
000000d0: b1c7 a2b9 2489 ee3c 9942 56b8 a6ee 3038
000000e0: 586e 4eb8 c38d ba38 7f7c aabc 0792 7237
000000f0: 3a1f 60b8 5317 f337 d0e4 1839 ad8d 5b39
00000100: 76c1 b7bb 3da2 aa39 ffa5 90bb f140 d03a
00000110: e8b9 fc3a 5c98 ccba 4bfe 8e39 43a6 9ebb
00000120: 2529 34bb 511c 573a 236c 88bb 3802 993a
00000130: 46f1 17bb d810 933b b93d 963a bbeb f93a
00000140: 35b9 203a 4140 293b 654e 783b 7b55 b039
00000150: 2ca0 e6ba b8d7 c4bb b20c 773b ce9a 1b3a
00000160: d49d 113a 5597 d4ba 6da8 92ba 17b9 b5b9
00000170: 4d16 333b 3290 e1ba d1e7 403b c8a4 5db9
00000180: 3bc4 153b 57c8 823b d94b 6db9 c3e0 503a
00000190: 266e 273b 995e c1ba 3725 c0ba ccab a0bb
000001a0: 66c2 e439 6ade 44bb 660a 113b 0a9c 12bb
000001b0: 4e9d d339 e7f7 ea3a ef9f 0cba 3b91 5d39
000001c0: 5379 c23b 1481 ac39 e0ce 3bbb 7854 49bb
000001d0: 078f b13b ecf0 8cba 52be 323d 12a1 1fba
000001e0: 4878 8a3b ecf3 ed3a 1060 6e3b 116c f13a
000001f0: fd42 62bb 5b84 bfbb 84fd e53b b315 c2ba
5.3586376e-05 -6.954058e-05 -7.2549796e-05 -3.0918163e-05 5.6233228e-05 -6.618097e-05 -3.0243405e-05 -0.00010198185
4.270759e-05 -5.174579e-06 -2.9867933e-05 -3.6145713e-05 -5.3452055e-05 1.3329352e-05 -7.5585864e-05 3.373214e-05
-4.3636017e-05 -1.3559428e-05 -0.023552861 0.00011632222 3.6983423e-05 -8.251646e-06 -2.7686852e-05 -0.00017161004
1.0889926e-07 3.0524425e-05 4.9321843e-06 6.766202e-06 5.607389e-05 0.00025744137 0.00024387822 9.356167e-05
3.0923624e-05 2.4645431e-05 -0.01043506 6.313894e-07 -7.2354036e-05 -0.00012161937 -9.912879e-06 2.9018527e-05
-3.9085453e-06 -4.989286e-05 4.350156e-05 8.150506e-05 0.00010708614 9.970487e-05 6.279065e-05 0.00019590519
7.79189e-05 2.9226032e-05 -3.9245795e-05 0.00010078923 -0.0003104783 0.029118128 -5.10836e-05 4.218393e-05
-4.9216993e-05 8.895576e-05 -0.020811317 1.4458324e-05 -5.3434844e-05 2.8978719e-05 0.00014581089 0.00020938246
-0.005607779 0.00032545804 -0.0044143195 0.0015888495 0.0019281479 -0.0015609371 0.00027273814 -0.0048415973
-0.0027490344 0.00082058186 -0.0041632815 0.0011673635 -0.0023184582 0.004488092 0.0011462487 0.0019067446
0.00061311136 0.0025825652 0.0037888524 0.00033633024 -0.0017595342 -0.006007161 0.0037696776 0.00059358485
0.0005554829 -0.0016219417 -0.0011189111 -0.00034660913 0.0027326525 -0.0017209111 0.0029435048 -0.00021137588
0.0022852558 0.0039911675 -0.00022630337 0.00079680624 0.0025547831 -0.0014752924 -0.0014659528 -0.0049032923
0.00043632387 -0.0030039796 0.0022131442 -0.0022370839 0.00040362257 0.0017926664 -0.0005364408 0.00021130305
0.005934873 0.00032902567 -0.0028657243 -0.0030720513 0.0054186615 -0.0010752953 0.043638535 -0.000608937
0.0042257644 0.001815436 0.0036373176 0.0018419047 -0.0034524791 -0.0058446354 0.007018747 -0.0014807492
