runs/20250317_195934/best_mlpLocalModel.pt (torch, 46544 bytes, 8 tensors)

weight f4 [100, 17]
000000 d5 d6 24 40 fe 34 71 3e 12 8d 5a 3f 5e b5 57 3f
       2.5756123 0.23555371 0.85371506 0.8426112
000010 85 00 a6 3f 08 b0 48 be fe e0 b0 3e 41 13 1d be
       1.2968909 -0.195984 0.34546655 -0.15339376
000020 f8 3e 0a bd f5 7c a0 bd ce cc f9 be da 61 70 3e
       -0.033751458 -0.07836334 -0.48789066 0.23474827
000030 fb 0f 0e 3d b5 de db bd 51 ad 1a be 3b 52 2b bf
       0.03468321 -0.10735837 -0.15105177 -0.6692235
000040 37 ec f5 3e 8f 66 06 41 2a fa 5b 40 bb 8e 11 c0
       0.4803178 8.400039 3.4371438 -2.2743366
000050 49 99 34 bf bb eb de bf 6b 62 5a 3d c6 40 39 bf
       -0.70546395 -1.7415689 0.053316515 -0.7236446
000060 ce a7 40 be 3e 9a a5 3e 70 52 05 3e 4a a9 f4 bd
       -0.18814012 0.3234424 0.13019729 -0.11946352
000070 7f 8d 3b be 9d f2 43 3e ed ec 01 3d 1c 66 cf 3e
       -0.18315695 0.19135518 0.03172009 0.4050759
000080 9a 88 d4 bc 43 d7 70 3e 10 22 71 3f a2 dd ed 3e
       -0.025944043 0.23519616 0.941926 0.46458155
000090 42 41 81 3d 98 71 24 bf fb e8 cd be 9f 1a b9 3d
       0.06311275 -0.6423583 -0.40216812 0.09038281
0000a0 a2 2a 10 be 88 f0 48 bd 45 0c 38 be a5 c5 b0 be
       -0.14078763 -0.049057513 -0.1797343 -0.3452579
0000b0 89 e1 7e bd 94 2b 9d 3d ad d0 05 3f d4 a9 ac be
       -0.062226806 0.076743275 0.5227154 -0.3372332
0000c0 66 66 26 be 6e 9a 0b 3f 37 e8 81 bf dc c6 91 40
       -0.1625 0.54532516 -1.0148991 4.555525
0000d0 ca a5 27 41 89 94 29 41 38 79 e0 40 e9 c3 6d 41
       10.477976 10.598763 7.014797 14.86033
0000e0 e2 f4 f1 3d b6 e9 a8 bc 3b 4a c9 3d f9 79 a1 be
       0.11814286 -0.020619255 0.098286115 -0.3153837
0000f0 ab be ab 3e 8c 8e 98 be f9 62 15 3e 42 4a c5 3d
       0.33543906 -0.29796255 0.14588536 0.09633304
000100 d8 d3 fa bc b1 e6 da bd d6 ec d6 3e 9a e4 93 bd
       -0.030618593 -0.10688532 0.41977566 -0.07221337
000110 9a 01 1e c0 aa 71 41 40 6c 98 f7 40 81 11 9c 40
       -2.4688478 3.0225625 7.737356 4.8771367
000120 2e 58 20 41 8e a6 24 3d 00 10 20 be 9c 01 ac bd
       10.021528 0.0401979 -0.15631104 -0.083987445
000130 58 07 31 3e 3e 48 01 3e 1f de c4 3e 5d bf c7 bd
       0.17287958 0.12625214 0.38450715 -0.097532965
000140 df 83 bd bd 1e 99 e5 be 68 b2 24 be a0 8a 55 3c
       -0.09253668 -0.44843382 -0.16083682 0.013033539
000150 84 9a 06 3e 60 41 4a 3f a7 e3 9f bf ac e4 a5 bf
       0.1314488 0.79006004 -1.2491349 -1.296041
000160 90 d1 3f be c0 66 ca bf bf 33 64 3e e8 f6 96 bf
       -0.18732285 -1.5812607 0.22285365 -1.17941
000170 b1 89 0d 3c fb 89 b2 3e df ac a9 be 17 32 94 3e
       0.008638785 0.34870896 -0.33139703 0.28944466
000180 74 2f 04 bf 3f 2a 9f 3e ea a3 10 bd 0b dc 6c bf
       -0.5163491 0.3108692 -0.03531257 -0.9252326
000190 2e d3 c8 3d 3a d0 52 bd 7e d0 44 3f a6 84 a0 c0
       0.09805904 -0.05146811 0.76880634 -5.0161924
0001a0 24 b0 0b 3d 34 a2 b8 3f a3 82 26 40 39 11 bc be
       0.034103528 1.44245 2.6017234 -0.3673189
0001b0 4e c8 6b 3d 79 a2 51 be 67 9d 1c be 3c d1 20 bf
       0.057564072 -0.20472135 -0.15294419 -0.62819266
0001c0 16 18 f7 3d 75 5c 39 3d 7c d7 d7 3d 69 5d fa be
       0.12065141 0.04525419 0.10539147 -0.4889939
0001d0 6d 6b 27 bf 14 b0 00 3f 7b 7b 03 3f d2 bf 24 41
       -0.65398294 0.50268674 0.5136029 10.296831
0001e0 19 24 26 41 89 b2 58 41 f5 90 fa 40 c1 cc 60 41
       10.383813 13.543588 7.830195 14.049989
0001f0 96 75 78 bd df bd 29 be 74 ec 45 3e dd ec a1 3e
       -0.060659014 -0.16576336 0.19328481 0.31626025
000200 4d 01 a0 be 43 fe fa be 2f c3 b8 3e fb 67 33 be
       -0.31250992 -0.4902211 0.36086413 -0.17520134
000210 a0 cf 15 3e c5 59 0a bf bb da 06 3f 6c f5 2a bd
       0.14629984 -0.5404323 0.52677506 -0.04173796
000220 cd 67 0c c0 17 5d 77 bf e0 62 5f be 28 c3 46 3f
       -2.1938355 -0.9662642 -0.21815062 0.77641535
000230 7a 9f b5 bd ee 59 17 bf 5f 1f d9 bc 43 8f 70 3c
       -0.08868308 -0.59121597 -0.026504217 0.014682594
000240 55 fd 08 bd 73 aa ed bd 62 d4 80 3d bc 30 08 3e
       -0.03344472 -0.11604776 0.06290509 0.1329984
000250 d9 dd bb 3c 51 3c b8 3e ec bc 56 bf 7a f7 0d 3e
       0.022932934 0.35983518 -0.8388202 0.13863936
000260 5d e5 a0 3e 21 c6 00 bf 90 64 25 bf ab a7 e9 3c
       0.3142499 -0.5030232 -0.6460657 0.028522333
000270 d7 3e 02 be 45 0d 40 bf 68 c0 8c 3e f8 ef c2 be
       -0.12719284 -0.7502025 0.27490544 -0.38073707
000280 bd 86 55 be d9 38 ba 3e fb bb c4 be 34 03 6f 3e
       -0.2085218 0.36371496 -0.38424668 0.23341066
000290 db 62 53 bf 83 72 db 3d 2c 52 ea 3d 8f c7 e1 bf
       -0.82572716 0.10715201 0.11441454 -1.7639025
0002a0 3a 47 3e bf 47 80 52 bf 46 08 92 be 15 e3 ec be
       -0.74327433 -0.82226986 -0.28521937 -0.46267
0002b0 4d c3 33 be d3 fa fa bc 7f 0a ec bd 4b fc 24 bf
       -0.1755497 -0.03063718 -0.115254395 -0.6444747
0002c0 e1 c2 fa 3e cc 7f 82 3e 74 a2 95 3e a8 51 28 be
       0.48976806 0.25488126 0.29225504 -0.164374
0002d0 74 72 e3 be 87 47 0f 3e 2b d2 bd bd 72 19 30 bd
       -0.44423258 0.1399213 -0.09268602 -0.042993017
0002e0 1e 02 15 c0 90 7c 12 3e 71 92 e0 bf f9 3f 29 40
       -2.3282542 0.1430533 -1.754469 2.6445296
0002f0 02 38 2c 41 a8 e6 12 41 ff 02 11 41 de 65 b1 40
       10.763674 9.181313 9.063231 5.543685
000300 97 e2 89 be b3 72 a1 bd bd fa 85 3e 8e 09 93 3d
       -0.26930687 -0.07883205 0.2616786 0.07179557
000310 6b 35 ee 3e 57 bd ae be 77 81 de 3e 49 ee c6 be
       0.4652513 -0.3412883 0.4345815 -0.38853672
000320 f9 23 4f c0 98 4b 88 be ad 69 02 3f e0 32 08 3e
       -3.2365706 -0.26620173 0.509425 0.13300657
000330 5e da f9 be dc ce b4 3f e2 54 27 bf 45 29 64 bf
       -0.48799413 1.4125628 -0.65363896 -0.8912547
000340 d4 31 58 be 34 91 dd 3d 59 23 b4 3e a3 00 87 be
       -0.21112758 0.10818711 0.35183218 -0.26367673
000350 11 82 89 be f1 80 da be 58 27 af bd 7e 17 36 3f
       -0.26857045 -0.426765 -0.08552426 0.71129596
000360 4b 6c 91 bf e3 fc c3 3d 9a aa b2 3e 5e 8a c1 3e
       -1.1361173 0.09569719 0.34895784 0.37800878
000370 31 4a 3e be 4c df d0 be b5 0e f9 be 71 de 2f bf
       -0.1858299 -0.40795362 -0.48644033 -0.68698794
000380 a2 9f 38 bf 64 14 a3 3e b6 4b 2b 3e ca eb 83 be
       -0.7211858 0.31851494 0.167281 -0.2576583
000390 62 96 9f be 1e ae 09 3f 21 d5 56 be ef ad b8 bd
       -0.3116942 0.53781307 -0.2097974 -0.0901755
0003a0 7f 53 91 3e fb 94 98 3e 24 1b cf be 70 01 8b 3e
       0.28384015 0.29801163 -0.40450394 0.27149534
0003b0 77 15 00 3e 96 79 0c bf d7 8c 9e 41 1a fe e5 3d
       0.12508188 -0.54873025 19.81877 0.11230107
0003c0 18 b1 dd 3f 68 33 16 41 00 09 10 c0 4c 0c b4 3c
       1.731967 9.38755 -2.2505493 0.02197852
0003d0 8b 14 90 3e d9 7c 75 3e 06 2c 0e be aa 38 12 bf
       0.28140673 0.23973407 -0.13883981 -0.5711771
0003e0 da 1e bb bd 9d 5b 59 c0 cf 0d fd 3e c6 5d 17 bf
       -0.09136744 -3.3962166 0.49424598 -0.5912746
0003f0 7d 53 93 be 93 9f 39 3e 77 26 25 3e a5 0a e5 be
       -0.28774634 0.18127279 0.16127954 -0.44734684

bias f4 [100]
000000 7e a5 87 c0 fc f1 b7 bf 5c f9 bc 3f e4 c2 92 c1
       -4.2389517 -1.4370723 1.4763598 -18.345161
000010 0a db 5d c1 d9 f8 29 3f d7 1e bb c0 a8 1a 9e c1
       -13.865976 0.66395336 -5.8475146 -19.763016
000020 af 68 2f c0 45 7c 1e 3f 6c 0b a3 3f fc a9 14 c0
       -2.7407644 0.6190837 1.2737861 -2.322875
000030 00 13 05 3f ef 0c 48 3f a4 0b 43 40 51 a4 90 3f
       0.51982117 0.78144735 3.0475855 1.1300145
000040 f3 50 3a 40 d6 9e 2d 40 1d 78 5a 3f 9d a8 7d c0
       2.9111907 2.7128196 0.8533953 -3.9634163
000050 2e c4 af c0 6b b9 e5 3f 4e cd 19 3f a2 1c 9f 3f
       -5.4926977 1.794721 0.60078895 1.2430613
000060 f4 c2 d9 3e 90 a1 36 be 7e 21 37 40 a6 9a 36 c0
       0.4253155 -0.17835069 2.8614192 -2.853189
000070 ce 20 86 c0 15 c9 a5 bf 36 cd 25 c0 43 d5 14 3f
       -4.1915045 -1.295199 -2.59065 0.5813791
000080 59 87 41 3f 02 5c 9f 3f 2c 7c de bf 25 a1 01 40
       0.7559715 1.2449954 -1.7381644 2.0254605
000090 6d 7b 8b 40 fa 73 8c 3e 99 f6 d9 40 9a b2 ab bf
       4.3588166 0.27432233 6.8113523 -1.341388
0000a0 1f 02 03 bf f8 e8 96 bf d1 88 db 3f 68 6a ac 3f
       -0.5117511 -1.1789846 1.7151128 1.3469973
0000b0 ec e5 64 3f 4f 61 e8 be cf e7 29 40 0a 52 97 c0
       0.8941333 -0.4538674 2.6547735 -4.7287645
0000c0 42 be 47 bb e5 7f 87 bf 5c e5 a2 3e ab e8 24 40
       -0.0030478393 -1.0585905 0.31815612 2.576701
0000d0 6d 1f 46 40 8d 1f a0 3f d3 47 2f bf d1 00 c9 3e
       3.095668 1.2509629 -0.6846897 0.39258435
0000e0 2b 6a 00 c1 2b cc 9e 3e 7a 39 22 3f 1b 81 e8 40
       -8.02592 0.31015143 0.6336895 7.26576
0000f0 9c 4c bc c0 6f 2b 19 40 d5 03 21 3f 9d 70 58 40
       -5.8843517 2.393276 0.6289647 3.3818734
000100 ec 3d b5 3f 96 60 86 40 fd 06 bf 3f bc b1 94 c0
       1.4159522 4.1992903 1.4924008 -4.646696
000110 87 29 b4 bf 2b cc 42 c0 f1 44 2d bf c0 77 09 c0
       -1.4075173 -3.0437114 -0.6768332 -2.147934
000120 43 93 a7 c1 3f 23 2d 40 ea 06 d5 3f 40 64 29 40
       -20.946905 2.7052763 1.6642735 2.6467438
000130 f5 23 11 40 4e ef 25 40 33 53 46 bf 14 9a b4 40
       2.2678196 2.592731 -0.774707 5.6438084
000140 42 0d ce c0 cd 0c 1d c1 d0 a6 38 c0 38 3e 20 40
       -6.4391184 -9.815625 -2.8851814 2.5037975
000150 8c 0b a2 c0 05 21 cc bd 3d ab b4 be 0a f7 02 c0
       -5.0639095 -0.099672355 -0.35286894 -2.046328
000160 3f c4 ad bf 1d 70 e3 3f 6b 02 53 3d 73 3c db c0
       -1.3575515 1.7768589 0.051515978 -6.851129
000170 06 24 a3 be 34 43 f3 c0 15 25 9a 3f 1f a8 83 3f
       -0.3186342 -7.6019535 1.2042567 1.0285681
000180 89 67 25 3f 94 37 f8 bf 38 db 6d 3f 22 1d b1 3f
       0.6461111 -1.9391961 0.92912626 1.3837016

weight f4 [50, 100]
000000 26 be bb 3e 6b ca 70 3e 37 d8 3c be 4d bf 0f 3e
       0.3666851 0.23514716 -0.18441854 0.14037819
000010 4d 34 7c bd c6 83 0c bf 30 f7 bd 3e 2c 2c 77 be
       -0.061573315 -0.5488857 0.37102652 -0.24137944
000020 97 c2 8e 3d 01 cb eb 3c 87 57 43 bf 29 19 48 be
       0.06970709 0.028783323 -0.7630543 -0.19540848
000030 e6 e2 ad bd 00 4c 1b 3d 16 c6 a9 bf f2 de 9e bd
       -0.08490543 0.037914276 -1.3263576 -0.07757367
000040 67 18 2a bf 79 61 1c 3e 33 96 9d 3e 88 ba 21 3e
       -0.66443485 0.15271558 0.30778655 0.15793812
000050 80 aa b6 be 8d d7 26 3d 11 e7 e1 bd d8 42 7e be
       -0.35676956 0.04073291 -0.110304005 -0.24830186
000060 d1 87 90 be 51 70 e5 be 2a 1c b2 be 85 42 9c bf
       -0.2822862 -0.44812253 -0.34787112 -1.22078
000070 96 3c a1 bd 29 5e 60 3f b5 68 97 be 3d b7 95 3e
       -0.07872884 0.87643677 -0.29572073 0.29241362
000080 8c fe 17 3e cc 57 f8 3e 7f 45 93 be 54 3b 08 3f
       0.14843196 0.48504484 -0.2876396 0.5321553
000090 c8 4d 6d 3e 7c 01 55 be ec 8e 74 bc cc 33 9f bf
       0.23174202 -0.20801347 -0.014926653 -1.2437682
0000a0 ae 60 07 be db fc e5 bd 84 02 db be c8 5a 3e bf
       -0.13220474 -0.11229869 -0.42775357 -0.7435727
0000b0 16 5c 82 3c 22 af 81 3e 6f e5 cc 3e 7a 78 a2 3d
       0.01591305 0.25328928 0.40018794 0.07933135
0000c0 48 cc 6c bf ef 64 b6 bd 82 99 b4 be 6f 21 a8 3e
       -0.9249921 -0.0890597 -0.35273367 0.32838008
0000d0 05 70 35 bd 67 87 eb be 0a 46 ba bd 16 e3 ab 3e
       -0.044296283 -0.4600174 -0.0909539 0.3357169
0000e0 f0 f1 99 3e 8d 37 e7 3e a6 41 d9 be 0e 5f 19 bd
       0.30067396 0.4515957 -0.42432898 -0.037444167
0000f0 e8 47 9a be cc 7d d9 bd d3 5e 58 bd 5e c7 cc 3e
       -0.30132985 -0.10619697 -0.052824806 0.39995855
000100 85 e0 8e bd 48 6b d2 bf 7a 28 89 bf 33 a1 03 3e
       -0.069764175 -1.643899 -1.0715477 0.12854461
000110 dc 65 5c 3f 23 8c 19 bf f6 ce d9 bd e9 81 a0 bd
       0.86092925 -0.59979457 -0.10635178 -0.078372784
000120 d3 82 86 bd 7f 10 fa 3e a6 aa c6 be 22 54 90 bf
       -0.065679215 0.4884071 -0.3880207 -1.1275675
000130 f4 10 83 3d 58 07 2f bf 9c 21 97 3e cf f9 37 bf
       0.06399718 -0.6837058 0.2951783 -0.7186555
000140 76 27 f0 be 76 bf 1b 3f e5 7f 9c bd 5e b0 1a bf
       -0.46905106 0.6083902 -0.076415814 -0.60425365
000150 ef 37 16 bd 6f d3 96 be 19 52 2c 3f 22 69 f0 3d
       -0.036674436 -0.29458186 0.6731277 0.117388025
000160 13 0e 25 bf ee bd ce 3d ec e4 53 3e 6d 1b 18 bf
       -0.644746 0.1009482 0.20692796 -0.5941685
000170 c1 dd 07 3e 50 a6 47 bf ae 66 f1 3d 66 e3 bc 3e
       0.13268186 -0.7798815 0.11787163 0.3689224
000180 75 10 c8 bc 7c 06 41 3e e8 01 18 3f 16 16 83 be
       -0.02442191 0.1885013 0.5937791 -0.25602788
000190 ae aa 80 be a7 6e 52 be b0 80 fc 3e df 00 51 bf
       -0.25130218 -0.20550023 0.4931693 -0.81641954
0001a0 dc c6 60 be 94 a3 0a 3e 52 f2 cc 3d 11 73 9d 3e
       -0.21950859 0.13538963 0.100071564 0.3075185
0001b0 af 96 d0 3e 06 ed 46 be 80 b4 9c bf 53 b8 53 bf
       0.40739962 -0.19426355 -1.2242584 -0.8270313
0001c0 19 e4 20 bf c2 d3 e8 3e e9 04 c0 3e 23 2a 7c bf
       -0.6284805 0.45474058 0.37503746 -0.98501796
0001d0 80 bb d4 3e 2d a2 57 bf a0 d0 08 bf bd 4f 0a 3e
       0.415493 -0.84231836 -0.53443336 0.1350698
0001e0 54 27 d9 be 02 bd 31 bf 7c cc 8e be 3c 95 2c bf
       -0.42412817 -0.6942903 -0.27890384 -0.67415214
0001f0 32 3f 51 3e 06 08 9e 3e 03 4c 2d 3e 77 dd 4a 3f
       0.20434263 0.30865496 0.16923527 0.7924418
000200 c5 de 09 bd 6f 79 83 3e 6d b9 79 be 36 e1 c6 bf
       -0.033659715 0.25678584 -0.2438714 -1.5537479
000210 c4 f0 51 3e 9b 29 d8 3e 16 1e c5 be 9e 46 9f be
       0.20502001 0.42219242 -0.38499516 -0.31108564
000220 a0 dc c3 be bc 1e ab bd cd 80 3b be 17 f4 94 be
       -0.3825426 -0.083554715 -0.18310852 -0.29092476
000230 18 2b 7e be 03 2c e9 3e e2 53 b1 3e 68 16 f8 3e
       -0.24821126 0.4554139 0.3463431 0.48454595
000240 ea 8a 3a bf dc 1b 13 bd da ef f7 3d 47 9f 8a 3e
       -0.72868216 -0.03591524 0.12106295 0.27074644
000250 0e 4e 8e 3e 9f 9f 01 bf 5b ec 80 bf 9b 27 de 3d
       0.27793926 -0.5063419 -1.007213 0.10847398
000260 f4 4a db 3d b4 d6 05 3f 23 95 89 bd 6c 44 72 be
       0.107076555 0.52280736 -0.06717899 -0.23658913
000270 46 47 bb 3d 60 d1 58 be 7d 6d f0 be 18 49 99 3e
       0.09144454 -0.2117362 -0.46958533 0.2993858
000280 ca 00 b1 bf 16 1e 7d be f0 3e 00 be 0a 97 90 3e
       -1.3828366 -0.24718508 -0.12524009 0.28240234
000290 67 72 25 be 31 51 5e 3f 90 f2 59 3f fa 0a 8b bf
       -0.16156922 0.8684264 0.85135746 -1.0862725
0002a0 56 2e d4 3e 62 8a f6 3e 6c 66 58 bd 82 e1 bb 3e
       0.41441602 0.48152453 -0.052832052 0.36695486
0002b0 29 a7 c9 be 6c 33 09 be 69 fc e2 3e 84 ee 14 bf
       -0.39385346 -0.13398522 0.443332 -0.58176446
0002c0 1a 09 ee be 3c d4 3e be 6a 16 85 3e a0 dc a4 3e
       -0.4649132 -0.18635648 0.25993663 0.32199574
0002d0 6e 8e 03 c0 ed a0 72 3c 83 d6 18 bd 56 9c 6e bd
       -2.0555682 0.0148088755 -0.03731395 -0.058254562
0002e0 bd c8 4a 3d fd 35 8e 3e 53 e3 2d be 17 47 f3 3d
       0.049507845 0.27775565 -0.16981249 0.11878794
0002f0 0b b6 19 3e 7b a4 da 3d 70 70 87 bf 75 d7 b0 bd
       0.1501085 0.106759034 -1.0581188 -0.08634845
000300 d1 72 01 3f 85 0c 82 3d cd e1 c4 3e 4a db 89 3e
       0.5056582 0.06350044 0.38453522 0.26925117
000310 dd 97 6c be 5b fe 88 3d 1a 92 d8 3e 59 6f 5e 3e
       -0.23104806 0.066891395 0.42298967 0.21722163
000320 bb ad 06 3e bc 4f 90 bd fe ea b9 3d 04 6c 88 be
       0.1315221 -0.07046458 0.09078024 -0.2664491
000330 83 11 17 bf 45 b3 f0 3d 6f 60 c3 bf c7 8f ea 3e
       -0.59011096 0.11752943 -1.5263804 0.45812818
000340 6c d6 06 3e 5a f6 68 3f be 54 43 3f 48 1e 39 3d
       0.13167733 0.910009 0.7630118 0.045194894
000350 04 55 18 3f 74 be 92 bd d6 6c 4e 3e 6b 6f b2 3e
       0.59504724 -0.07165232 0.20158705 0.3485063
000360 4e c2 26 3e b2 e6 80 3e 27 52 72 bf f2 5a ba 3e
       0.16285059 0.25176007 -0.94656605 0.3639751
000370 e8 12 b0 bd 27 a2 11 bf 3a 87 0c be 0d 1b 43 be
       -0.08597356 -0.5688805 -0.1372346 -0.19053288
000380 bd 94 67 3e 2a e8 70 3e 76 aa 75 3b ea 71 87 bf
       0.22615333 0.23526064 0.0037485636 -1.0581639
000390 8e 27 7b 3e 67 52 83 3d 39 54 c5 3c 48 5d 20 3e
       0.24526808 0.064122014 0.024088012 0.15660584
0003a0 3d 4b b6 3e d2 18 39 bd d8 f1 05 bc 3b 08 b9 3e
       0.35604277 -0.045189686 -0.008175336 0.36139092
0003b0 8c aa bc bd 69 0e c8 be a1 b9 ba be 1e cc 97 be
       -0.09212217 -0.39073494 -0.3646975 -0.29647917
0003c0 fb 09 00 bd f6 7b 33 3d db 1c e8 3e 52 89 63 be
       -0.031259518 0.04381939 0.45334515 -0.22220352
0003d0 68 0b 44 be 40 cd 95 bd ee 09 4d be 18 b6 f5 bc
       -0.19144976 -0.07314539 -0.20023319 -0.029994056
0003e0 6c ac d6 3e 14 e6 09 be af 4a 26 bd 68 ab 3a bf
       0.41928422 -0.13466674 -0.040598568 -0.72917795
0003f0 89 52 45 3d 5f 18 bd 3e 94 f4 b7 3d b5 e9 88 3e
       0.048174415 0.36932656 0.089821965 0.26740804

bias f4 [50]
000000 c2 21 8b c1 0a 5e d0 40 53 fd ee 40 93 15 97 41
       -17.391483 6.5114794 7.4684234 18.885534
000010 e5 d0 93 40 ea ad 7f 40 9f 39 17 41 16 d4 84 c1
       4.61925 3.9949899 9.451568 -16.603558
000020 85 3d 5b c1 68 f3 08 c0 d0 a7 62 bf 06 d5 78 40
       -13.702519 -2.1398563 -0.8853731 3.888002
000030 f4 f4 53 41 0e 6b a5 40 bd 9a f8 3f 2c 7f 21 40
       13.247303 5.169318 1.9422222 2.523387
000040 0c 72 f4 3f ae 57 dd 40 16 81 76 be a2 ed 6a 41
       1.9097304 6.916953 -0.2407268 14.683016
000050 4a e9 b2 c0 c4 d2 fb bf fa db d8 40 77 c6 06 c1
       -5.5909777 -1.9673696 6.7768526 -8.423453
000060 ba 76 84 40 61 93 31 3c 20 b2 54 c1 3d 15 d5 40
       4.139493 0.0108383605 -13.293488 6.6588426
000070 55 46 17 c1 98 57 fb 3e 4e d8 7d 3f ea 31 e4 3f
       -9.454671 0.49090266 0.9915818 1.7827733
000080 d8 e4 1b 40 63 9e 50 c1 45 3a 14 be 84 14 a6 41
       2.4358425 -13.038669 -0.14475353 20.760017
000090 cf 0c a9 bf 70 69 8c c0 13 d3 0f 40 db 98 fd c0
       -1.3207034 -4.387871 2.247258 -7.924909
0000a0 9b cb 74 3f 63 0a 90 c1 ac b6 93 c1 61 ba e9 3f
       0.9562318 -18.005072 -18.464195 1.8260003
0000b0 39 cc 5d 41 6a 6f d6 40 87 49 d4 3f 69 0c c1 c0
       13.862359 6.7011003 1.6584939 -6.032765
0000c0 e3 65 e7 40 27 04 34 40
       7.2311873 2.8127534

weight f4 [20, 50]
000000 9b a5 87 be 14 df fa be 77 fa a5 bc 15 b3 98 bf
       -0.26493534 -0.4899832 -0.020261033 -1.1929651
000010 75 60 31 3f 64 13 70 bf c3 f9 cb bf f0 83 1f 3c
       0.69287807 -0.9377959 -1.5935596 0.009736046
000020 4f fa c6 3d 67 59 d3 3e 72 1f 0a 3e d4 86 40 3f
       0.09715711 0.41279146 0.13488558 0.7520573
000030 ba 83 e8 bf a7 38 0a bf 00 c3 43 be 3a 37 b5 3e
       -1.81652 -0.53992695 -0.19117355 0.35393697
000040 db ee 9e 3e bb 37 b2 be de ff 18 3e d2 0e 80 bf
       0.31041607 -0.34808144 0.14941356 -1.0004523
000050 7c c7 58 bf 1a 85 4b 3d 9b 54 3c bf 6e a8 55 bf
       -0.8467939 0.049687482 -0.735666 -0.8346013
000060 28 df 17 bf 5b b0 83 bc dc ee bb 3e 99 8f e0 3e
       -0.59324884 -0.016075304 0.36705673 0.43859556
000070 a0 21 23 bf 3f a2 9c bd a4 69 85 be 98 5d 97 bf
       -0.6372318 -0.076481335 -0.2605716 -1.1825438
000080 cd 7d 99 3e a4 91 6d 3e 9d ec 1e bf a2 58 b5 3d
       0.2997879 0.23200089 -0.62079793 0.08854796
000090 6d 70 4a be 25 01 40 bf 67 b4 45 be 78 bc 4d be
       -0.1976945 -0.75001746 -0.193071 -0.20091426
0000a0 c5 ef 87 bd 99 58 78 be b4 18 48 bd c1 0d 4f 3e
       -0.06637529 -0.24252547 -0.048851684 0.2022009
0000b0 f1 8f 43 be 9d b5 ba be 85 dc 85 be 37 f0 d1 be
       -0.19097878 -0.36466685 -0.26144806 -0.41003582
0000c0 2d dc de 3e 3c 31 df be 54 c1 db 3e ea cd 01 bf
       0.43527356 -0.4359225 0.42920935 -0.50704825
0000d0 b2 4b 32 be d6 9a ab 3d be 51 66 3f e1 26 b2 bf
       -0.17411688 0.08379142 0.8996848 -1.3918115
0000e0 ca a6 e6 3e 9e a7 0c 3e 94 11 73 3e 44 9e 91 3e
       0.45049125 0.13735816 0.23737174 0.2844106
0000f0 d9 f4 a4 be c9 eb a9 3e 05 5e 34 bf 39 cb 09 bf
       -0.32218054 0.33187702 -0.7045596 -0.5382572
000100 e9 7b a8 be cc 4f cd be 7d 8f 05 bf 5c d3 9e 3e
       -0.32907036 -0.40099943 -0.5217207 0.3102063
000110 14 39 c9 3e 66 49 d1 3d fc 77 6c 3e 93 84 4d 3a
       0.3930136 0.10219078 0.23092645 0.00078398845
000120 90 4c 33 bd a7 58 d8 3e e1 22 26 bf f0 15 33 3c
       -0.043774188 0.42255136 -0.6489697 0.010930523
000130 92 aa e4 3e 35 bb f0 3e f9 35 bf be f9 b7 1b be
       0.44661385 0.47017828 -0.37345865 -0.15206899
000140 8b 92 6d 3f 04 8a 34 bf ec a4 96 3e f8 44 a0 bf
       0.9280173 -0.70523095 0.294227 -1.2521048
000150 08 e2 2f bf 4c c5 c0 bf 79 28 59 be 94 6c a6 bf
       -0.6870427 -1.506021 -0.21206845 -1.3001885
000160 04 bb 01 bf 4c 58 bf bf 10 3d 32 be 0e 02 d9 3e
       -0.5067599 -1.4948821 -0.17406106 0.4238438
000170 a1 19 8a be fa 21 9b bc 37 d0 fb bc 3a e8 98 3e
       -0.26972678 -0.0189371 -0.030738933 0.29864675
000180 a3 df c9 be 37 23 d8 bd d4 99 ce 3e da 7c 87 be
       -0.39428434 -0.10553592 0.40351737 -0.26462442
000190 2d 99 93 bd 5e 97 39 be fe 7c b0 be b8 3d 82 bf
       -0.0720695 -0.18124148 -0.3447036 -1.0175085
0001a0 69 67 10 3e 34 3d ab be c0 15 14 3e 0d 38 62 bf
       0.14101948 -0.33445132 0.14461422 -0.88366777
0001b0 11 bc 20 3b f6 40 86 be 1b ff a4 bc e1 b1 25 3f
       0.0024526159 -0.26221436 -0.020141175 0.64724547
0001c0 0b ae 62 bf 2e 78 06 3e d3 0e aa bd 66 f0 c3 3f
       -0.8854682 0.13131782 -0.08303609 1.5307739
0001d0 a9 f7 43 be 9f d1 c6 bf c0 60 9a 3e b5 42 e5 3d
       -0.19137444 -1.5532721 0.3015194 0.11194364
0001e0 64 a8 b4 bf 7a de 4b 3d 29 64 fb 3d ae 4c 04 3f
       -1.4113889 0.049772717 0.122749634 0.51679504
0001f0 0d 9c 06 bf aa 2c a9 bd 23 63 88 3e 57 fb 49 3d
       -0.52581865 -0.08260472 0.26638135 0.049311962
000200 30 8c 8a 3d 56 85 d9 3e 0b 0d 2c 3f 25 05 c2 be
       0.0676502 0.4248454 0.672074 -0.3789455
000210 61 fd b3 be 9a 7c a6 bf 08 ec 1d 3e 31 25 06 bf
       -0.3515425 -1.3006775 0.1542207 -0.524005
000220 26 4b bb 3d 98 c7 9d 3e d1 de 8c bd 9a 8c 17 3f
       0.09145193 0.3081634 -0.06878436 0.59198916
000230 31 3e 57 3d 78 7b 51 bf 3a df 0c 3d e1 5f 91 bf
       0.052549545 -0.81829023 0.034392573 -1.1357385
000240 97 f4 43 bf 6b 1e 0a bf d6 e4 d6 3e 07 ec e5 3d
       -0.7654509 -0.53952664 0.41971463 0.11226659
000250 b5 1d 19 bf 91 da 0a 3f af 5e d8 3d dd d2 ae be
       -0.59810954 0.54239756 0.105649345 -0.3414525
000260 21 b4 45 c0 31 b6 54 bd d8 aa bc 3d cc a0 26 bf
       -3.0891192 -0.051931564 0.09212273 -0.65089107
000270 a1 a6 95 3c 2a 32 2d 3e ba ae cd 3d 3b 76 b8 bd
       0.018267931 0.16913667 0.10043092 -0.09006926
000280 48 c6 f1 3b 1b 27 3c bf e6 b3 66 3f 08 16 10 bf
       0.0073783733 -0.7349717 0.90118253 -0.56283617
000290 ce a1 c6 be 95 a2 21 be 99 5b 48 3f 1c a7 04 3f
       -0.38795322 -0.15784676 0.78264767 0.5181749
0002a0 f2 45 52 bd 61 5c de bf 84 36 97 3e f9 31 9e be
       -0.051336236 -1.7371942 0.2953378 -0.308975
0002b0 65 07 18 bf 24 38 39 3e bd f8 3a bf bc 36 f5 3d
       -0.59386283 0.18087822 -0.73035794 0.119733304
0002c0 5a 36 0d bf c5 22 2c bf 86 94 72 be 6e 0b 11 3e
       -0.5516106 -0.67240554 -0.2368947 0.14164516
0002d0 91 e4 8a bf 6e aa a7 3d 81 50 5a bf 06 5d 05 bf
       -1.0851003 0.08186804 -0.8527909 -0.5209507
0002e0 dc 98 0f bf a1 2e fa 3e 0f 70 44 3e da b8 b0 3e
       -0.5609262 0.488637 0.19183372 0.3451603
0002f0 63 fb ca bf c2 6e 73 be 47 69 a6 be af c3 d6 3e
       -1.5857967 -0.2377272 -0.32502195 0.4194617
000300 96 44 ae bd 17 1d 79 bd 65 9e 43 3f a9 e6 a8 3e
       -0.085091755 -0.060818758 0.76413566 0.3298848
000310 e5 85 98 bd 7e 5d c4 bd bb d3 52 bf 32 79 d1 be
       -0.07447413 -0.09588145 -0.82354325 -0.40912777
000320 ae 41 b5 bf 2f 25 e4 3d fc 36 cf be c4 73 87 3f
       -1.4160669 0.11139905 -0.40471637 1.0582204
000330 b2 ba a6 be ea b0 74 bf 32 51 14 bf a0 49 fa 3e
       -0.32564312 -0.9558245 -0.57936394 0.48884296
000340 2e 99 af be 36 09 8a bf d3 c1 b3 be 74 55 f9 3e
       -0.34296554 -1.0784061 -0.35108814 0.48698008
000350 27 fb 65 3f 9a eb 1c 3d 3c 39 33 3c ec 1d 31 be
       0.89836353 0.038310625 0.010938939 -0.1729657
000360 1c 97 f9 3e ee cb cf be bf 94 18 3f 26 d6 d8 3f
       0.487481 -0.40585274 0.5960197 1.6940353
000370 a7 43 34 bd 8f b0 8d 3d ee b0 99 3e 41 a6 66 bd
       -0.04400983 0.069184415 0.300178 -0.056310896
000380 05 b6 08 bf 96 49 76 3d 18 18 52 bf 06 bf 1d 3e
       -0.5340274 0.06012877 -0.82068014 0.15404901
000390 00 13 0d bf 73 6b 2b 3e a1 26 bd be 60 d8 97 bd
       -0.55107117 0.16740207 -0.36943534 -0.07414317
0003a0 94 19 0e bf f0 32 e7 bd 49 76 f9 bf 46 64 91 3e
       -0.5550778 -0.112890124 -1.9489223 0.28396815
0003b0 e4 af 90 be cd 31 55 be 92 1b 59 bd 25 bc 2e be
       -0.28259194 -0.20819779 -0.05300481 -0.17063959
0003c0 e5 8a 12 be d1 14 c4 be 7d 0d a8 be a4 3b 9b be
       -0.14310797 -0.38297132 -0.3282279 -0.3031894
0003d0 bf 8f 1d bf e6 f9 5b bd ba 8f f2 be 36 cb ab bd
       -0.61547464 -0.05370512 -0.4737528 -0.08388369
0003e0 0b ea 2d bf c2 92 38 be b8 65 85 be ee af 08 bf
       -0.67935246 -0.18024734 -0.26054168 -0.5339345
0003f0 8e b4 07 3f 30 30 3f 3f 3d e7 d5 3d f3 90 97 3e
       0.5300988 0.74682903 0.10444496 0.29602775

bias f4 [20]
000000 57 30 32 c1 c9 29 23 c1 a9 80 31 c1 df b1 8f 41
       -11.136802 -10.197701 -11.093911 17.961851
000010 f3 82 4e c1 d7 fa 18 3e ae 8c 39 40 31 be 8a c1
       -12.90697 0.14939438 2.8992114 -17.342867
000020 6f c1 a6 3f 7b 84 c4 40 e5 c0 e4 40 1e 29 99 40
       1.3027781 6.141172 7.1485467 4.786269
000030 41 88 b0 c0 4f b4 95 40 e6 43 84 bf 19 08 04 40
       -5.5166326 4.6782603 -1.0333221 2.0629942
000040 6b eb a4 c0 78 c0 3b 40 8d 2e f2 bf d2 97 b4 c0
       -5.1537375 2.9336224 -1.8920456 -5.6435328

weight f4 [64, 20]
000000 19 b6 95 bb 19 11 da 3c c1 38 db 3b af ab f2 bc
       -0.004568827 0.02661948 0.006690115 -0.02962288
000010 54 cc 3c 3c 74 35 22 3c 6a 14 e1 bc 0d 89 0e 3c
       0.011523325 0.0099004395 -0.027475554 0.008699668
000020 f2 dc aa 3d 16 ee 95 bc 77 88 a0 bb 31 54 14 bd
       0.08342923 -0.018302005 -0.0048990804 -0.036213104
000030 7a 49 48 3c be a4 f5 3a eb 87 d4 ba 45 e2 78 3b
       0.012224549 0.0018741114 -0.0016214823 0.0037976664
000040 34 95 71 3d 94 86 95 bd 11 6c a4 bb 11 b8 25 3d
       0.05898018 -0.07301059 -0.0050177653 0.040458743
000050 12 df 84 bb 60 83 95 3c 53 3f ff ba d2 b8 0c bd
       -0.0040549124 0.018251121 -0.0019473828 -0.034355946
000060 80 eb 9c 3a 80 80 59 3d 60 15 8b bd 7b dc 28 3d
       0.001197204 0.053101063 -0.06791186 0.04122589
000070 47 7e 00 bc 26 cb ec bb 28 ca 28 bd 39 61 50 bd
       -0.007842607 -0.0072263656 -0.041208416 -0.05087397
000080 1a ce 24 3b 8d f9 8e bc 6d 5a bf 3b a4 63 87 3a
       0.002514726 -0.01745298 0.005839637 0.0010329378
000090 f1 c6 e9 3b c7 f4 92 3b ec a7 3b 3d 5c 3c b1 bb
       0.0071343114 0.004484746 0.04581444 -0.0054088067
0000a0 71 b8 81 bb 6a 32 65 3c 1e ab fd ba f1 89 1c bc
       -0.0039587547 0.01398907 -0.0019353365 -0.009554372
0000b0 0e 29 b9 b9 8f 30 84 bc f5 6a ad 3b 59 e5 1f 3d
       -0.00035316538 -0.016136436 0.0052922913 0.039037082
0000c0 c6 fd 19 3d 5b ef bf bb d7 4a db 3c 55 75 d6 bc
       0.037595533 -0.005857391 0.026769085 -0.026178995
0000d0 6a 54 55 bc d1 18 4e 3b 42 05 33 3c 31 0e 8d 3b
       -0.013020614 0.0031447897 0.0109265465 0.0043046703
0000e0 3d 67 45 3d b0 ad 35 bc d1 ab 9f bc 48 53 91 3c
       0.04819416 -0.011088774 -0.019491108 0.017739907
0000f0 91 91 b6 b9 f3 c7 19 bd a8 b7 b1 ba 5d 47 a5 bc
       -0.000348222 -0.037544202 -0.0013558762 -0.02017563
000100 23 7b 08 bc 8f 2e 55 3d a4 e1 74 bd 41 ee 8a 3c
       -0.008330139 0.052046355 -0.0597855 0.016959311
000110 20 a3 34 3d d9 07 53 bc be d5 83 3c 27 7e 57 bd
       0.04410088 -0.012880289 0.016093131 -0.052610543
000120 31 65 bf 3c d2 3e 9b bc 05 cb f4 3c d0 cd 7a 38
       0.023363682 -0.018950853 0.029881964 5.9796323e-05
000130 86 63 a6 bb 85 7b 8f bc c5 16 d3 3a b3 97 39 bc
       -0.005077782 -0.017514953 0.0016104808 -0.011327672
000140 9e b8 ad 39 ae 6a 13 3d 76 cb 2b bc f7 43 5a bb
       0.00033134682 0.03599041 -0.010485521 -0.003330467
000150 7d 48 17 bc 5e 53 a8 bd 44 a5 ab bc f9 34 28 3c
       -0.009233591 -0.08219026 -0.020952828 0.010266536
000160 74 a2 4d bd b8 22 e4 b8 80 42 b0 3c f0 af e3 3b
       -0.050203755 -0.00010878354 0.021516085 0.0069484636
000170 9c e0 aa bb 84 84 07 bd 09 39 c4 bc 87 f1 2c b9
       -0.005214764 -0.03308536 -0.023952978 -0.00016493174
000180 21 b3 64 bc 22 ad 8f 3c 45 b8 08 3d 48 6f 40 bb
       -0.013958723 0.01753861 0.033378858 -0.0029363204
000190 51 70 4c bb b0 2c 74 bc 85 53 04 bc 1a 54 2d 3c
       -0.0031194875 -0.014903232 -0.008076553 0.010579133
0001a0 fa 40 38 bc e7 56 48 bc 85 74 3e bd de 6c 99 bc
       -0.01124596 -0.01222775 -0.04649784 -0.01872867
0001b0 a2 2c 70 bc 3c 51 85 3c b0 28 42 bc 4f 85 50 3c
       -0.014659079 0.016274087 -0.011850521 0.012727096
0001c0 a4 0e 41 3c 31 77 23 bc 22 84 0a 3d b1 e5 28 3b
       0.011783276 -0.009977148 0.033817418 0.0025771672
0001d0 56 88 d6 3c 24 ff 07 3c 9a 60 e5 ba 49 a2 28 3d
       0.026188057 0.008300576 -0.0017500103 0.041170392
0001e0 c3 1e da ba 1f ee 2d bc c3 4d 68 bb 51 f2 b9 bb
       -0.0016641248 -0.0106158545 -0.003544674 -0.0056746383
0001f0 95 8c 6f ba 47 ce 19 3d df 44 8c bc d6 ea fb bc
       -0.0009138075 0.037550237 -0.017122684 -0.030751627
000200 1d 78 17 3e c1 30 ab 3c 8d fd c6 bc d9 aa 0a bd
       0.14791913 0.020897271 -0.024290824 -0.03385434
000210 e0 eb 32 bc 71 ad f4 3a 16 d4 39 bd e8 81 38 3b
       -0.010920495 0.0018667412 -0.045368277 0.0028153602
000220 fb b8 11 bc 53 08 82 3c 95 2a 3c 3d 05 2b ae bc
       -0.0088942 0.01587311 0.045939047 -0.021260748
000230 e6 da 59 bc 75 85 bb bb d0 82 44 3b 8e c5 4e bb
       -0.013296818 -0.0057226964 0.0029985197 -0.0031550857
000240 2c bd f2 bb 11 b1 a8 bc 26 c3 e5 3b 05 ff 10 bd
       -0.007407805 -0.020592244 0.007011789 -0.035399456
000250 1a 01 aa 3e 9d 95 82 3c a7 32 94 bc 1e 96 94 3c
       0.33203965 0.015940482 -0.01809056 0.018137988
000260 3b 8e 72 3c 56 7d f9 bc b1 4c 87 3d ca af 24 3b
       0.014804418 -0.030455273 0.066064246 0.0025129193
000270 9a ef 46 3d 08 40 39 bd 45 c5 6a bc 95 4b f1 3c
       0.048568346 -0.04522708 -0.014329259 0.029454986
000280 29 6c 2e bb 43 a8 21 3d 52 65 82 3b 1f 31 2b 3c
       -0.0026614761 0.039467108 0.0039793635 0.010448723
000290 80 b0 aa bb a4 f5 bb bc ce 61 2b 3c 66 3f 39 3d
       -0.0052090287 -0.022944279 0.01046033 0.045226477
0002a0 12 55 87 be fc 73 bf bc 0c 47 43 3d ca 67 5b 3c
       -0.2643209 -0.023370735 0.047675177 0.013391444
0002b0 74 1a 63 3b eb 5d 03 bc d5 91 0e 3c 0d 90 ef ba
       0.0034653218 -0.008017997 0.008701761 -0.0018277183
0002c0 2a 1b 2b 3d 5c 4c 8b bc b5 10 3f bc b3 03 19 bd
       0.041773953 -0.017004184 -0.011661698 -0.037357043
0002d0 df c5 62 3b 38 1a dd 3c e4 5f 29 3c ad c8 6e bd
       0.0034602804 0.026990041 0.0103378035 -0.058296848
0002e0 74 f1 b9 3c 51 c0 f9 bb ce cd f3 bc 50 4f 9a 3c
       0.022698142 -0.007621803 -0.029761221 0.018836647
0002f0 39 ce 6c 3d d7 ac ae bc 6c 30 f5 bb b6 48 69 bd
       0.057813857 -0.02132265 -0.007482579 -0.05695411
000300 b5 57 34 bc 0d b4 e5 3c 0e 3d 24 bd a6 fb 25 ba
       -0.011007239 0.028039956 -0.04009729 -0.0006331749
000310 a4 3c 72 bc e6 14 86 bc c9 52 59 3c 72 3a 1b bd
       -0.014784966 -0.016367387 0.013264366 -0.037897535
000320 aa 48 8f ba dd 9f 55 3d aa 67 bd b9 0c 22 7c bd
       -0.001093169 0.05215441 -0.00036126125 -0.061555907
000330 9a 04 2c 3c 90 23 9d 3d 59 42 af bd 76 f6 6e bb
       0.010499144 0.07672799 -0.08557577 -0.003646282
000340 63 64 3b be 45 f3 65 3c 21 d8 6c bd e1 6a 8d bd
       -0.18300013 0.014035051 -0.057823304 -0.06905151
000350 5b 50 92 3c 1c 54 8f bc 08 0a 7c 3d 9f ea 69 3b
       0.017860582 -0.017496161 0.061533004 0.0035692824
000360 3b 9c 46 3d f3 09 81 bd 5c 31 2e bd 6f f3 90 3d
       0.048488837 -0.06300726 -0.04252754 0.07077681
000370 50 1a 53 bb e9 8d de ba 39 87 6d ba e5 de 05 bc
       -0.0032211728 -0.0016979548 -0.0009060982 -0.008170818
000380 6d 72 e0 bb 35 94 aa 3c e3 76 32 3d cf 79 1f 3b
       -0.006849578 0.020822624 0.04357041 0.0024334078
000390 99 87 fe bd 4e a3 95 3b 6d f7 c3 39 d5 7f 8e 3c
       -0.12428207 0.0045665866 0.00037377645 0.01739494
0003a0 9c 8f 9b bb 3e 99 55 bc 43 eb e3 3c d8 f9 9b b9
       -0.004747344 -0.013037024 0.027822142 -0.00029750052
0003b0 41 09 9a bc ea aa 00 bc 2b f9 4e bc b8 eb 01 bd
       -0.01880324 -0.007853249 -0.012632648 -0.03171894
0003c0 fc 29 94 bb 72 2f 36 3c 28 d3 89 bb 16 bd e3 bb
       -0.0045216065 0.01111971 -0.00420608 -0.006950031
0003d0 a8 dc e6 bb d0 03 0b 3d 29 ed 6e bd 7d d3 ef ba
       -0.0070453472 0.033939183 -0.058331642 -0.0018297281
0003e0 3f 08 30 3e e7 d2 c6 3b be 28 15 bd 2e 19 17 bd
       0.17190646 0.006067622 -0.036415808 -0.036889248
0003f0 c2 e9 99 3b 28 5e a0 bc ae 1d 4d bb a8 e1 5e 3a
       0.0046970556 -0.019576147 -0.0031298208 0.00085022533

bias f4 [64]
000000 a6 9f 46 3e 5e 39 b5 be f3 2c ad be 9f d1 34 be
       0.19396839 -0.3539533 -0.33823356 -0.17658089
000010 f0 a1 f3 bd d9 8d 40 be 04 17 21 bf be 64 80 be
       -0.118961215 -0.1880411 -0.62925744 -0.2507686
000020 91 64 8c 3e 61 30 a0 be ce 6a a9 bc 62 e5 87 3d
       0.27420476 -0.3128691 -0.020680811 0.06635548
000030 27 4f 57 3e a4 b6 d8 be d3 ca 95 be 8d 6a 99 3e
       0.21026288 -0.42326844 -0.29256305 0.29964104
000040 d4 73 9e 3c 49 e9 27 3f a7 19 81 bc ea bb ae 3d
       0.01934234 0.6559034 -0.015759302 0.085319355
000050 03 ba 15 3c 86 8d a2 bc 27 41 6f 3e 04 91 a3 3e
       0.009138587 -0.019842874 0.23364697 0.31946576
000060 59 8a 9c 3e 83 0b fc be f4 4d d6 3d 72 88 00 3f
       0.305743 -0.49227533 0.10464087 0.502082
000070 75 9b c1 be 61 77 2e be 5b 05 77 be 40 df d0 bd
       -0.37813917 -0.17037727 -0.24123137 -0.101988316
000080 c7 e9 10 be 73 bb 11 3f 69 91 ad 3e ef 09 74 be
       -0.14151679 0.5692665 0.33900002 -0.23831914
000090 73 b2 14 be 5c 34 52 be 96 80 03 3f 77 14 28 bf
       -0.14521198 -0.20527786 0.5136808 -0.65656227
0000a0 6d df ff 3c 5b 24 18 be 0f a4 58 3e 6a b4 67 3e
       0.031234467 -0.14857619 0.21156333 0.22627416
0000b0 48 58 88 be fb a7 98 3e 4d cd 40 be 5d a4 a6 bd
       -0.26629853 0.2981566 -0.18828316 -0.081368186
0000c0 3b e7 9a be b9 d7 0d bf cc 0c b4 3e 6f 41 97 be
       -0.3025454 -0.5540729 0.35166013 -0.2954211
0000d0 d9 9b 6a be 2e a7 4e be 4c 1b 7d 3f 5f 31 8c 3e
       -0.22911014 -0.20180961 0.98869777 0.27381417
0000e0 b9 8e 15 bf 0c 0a 2e 3e 82 67 64 bd 9d dd 30 3d
       -0.584209 0.1699602 -0.055762775 0.043180097
0000f0 6f 13 37 bc 56 3f 56 3e e2 3d 53 be 35 9d a3 3e
       -0.011174067 0.20922598 -0.20629075 0.31955877
