runs/20250317_181003/lrLocalModel.pt (torch, 4978 bytes, 2 tensors)

weight f4 [16, 6]
000000 2a 28 be 36 81 77 7a 40 d9 2d bf 40 09 af d3 40
       5.667117e-06 3.913544 5.9743466 6.6151166
000010 38 05 bb be c6 5f 61 c0 04 17 d9 37 4b d7 e5 40
       -0.3652742 -3.5214705 2.5879133e-05 7.182531
000020 12 96 31 41 78 8f 41 41 2b ff 3f bf b6 8e c5 c0
       11.099138 12.097527 -0.7499873 -6.173671
000030 b1 74 1f 38 83 7d 87 c0 7e d3 e6 c0 29 a1 e2 c0
       3.801723e-05 -4.2340713 -7.213317 -7.082173
000040 8f d5 64 3e 38 70 8f bf 2f 5f 88 b8 27 b2 1e 41
       0.22347091 -1.1206121 -6.502715e-05 9.918494
000050 a2 5b 6c 41 d0 9c 7e 41 eb 70 9a be 47 01 22 c1
       14.772371 15.913284 -0.30164275 -10.125312
000060 29 6e 83 b8 2d d4 13 41 5e 80 67 41 dd 8a 6f 41
       -6.267086e-05 9.239301 14.46884 14.971402
000070 67 5e ec be 42 21 49 c1 82 79 e6 37 54 72 36 c1
       -0.46165773 -12.57062 2.7474718e-05 -11.402912
000080 0a ca 85 c1 c0 a6 97 c1 5c 45 f8 3e 4b d0 52 41
       -16.723652 -18.95642 0.48490417 13.175853
000090 47 00 28 b6 a5 a4 25 c0 7f 8b 63 c0 bd f8 7b c0
       -2.5034112e-06 -2.588174 -3.5553892 -3.9370568
0000a0 54 da 33 3e f6 d0 f4 40 d1 f3 47 b8 f1 c2 37 41
       0.17563754 7.650508 -4.767237e-05 11.485093
0000b0 0e b0 84 41 44 c4 95 41 a1 e4 48 bf 36 59 99 c1
       16.585964 18.720833 -0.7847386 -19.16856
0000c0 5b 69 5a 38 53 29 d2 c0 1e 7e 1a c1 1b f0 30 c1
       5.207337e-05 -6.5675445 -9.65579 -11.0586195
0000d0 af ab 92 3e b1 9b 0b 41 78 e3 49 39 5a 82 40 40
       0.2864661 8.725511 0.00019253592 3.007956
0000e0 3b f0 aa 40 45 52 a9 40 8f 50 4f be 0f 9e 6d c0
       5.341825 5.2912927 -0.20245574 -3.7127721
0000f0 7d c0 99 38 fd 32 41 3f 82 08 0f 3f c1 f1 82 3f
       7.331462e-05 0.75468427 0.55872357 1.0230027
000100 40 a4 4e 3e d6 a8 66 c0 f7 7b ff 3a 2a b5 2c 41
       0.20179844 -3.604055 0.00194919 10.7942295
000110 d9 ba 15 42 a0 8b cc 41 68 2c 18 c1 5e 97 07 c4
       37.43247 25.568176 -9.510841 -542.3651
000120 61 50 27 b8 9f 4b 3d 3f 37 8e b6 bd d7 e6 6d 3f
       -3.989076e-05 0.73943514 -0.08913844 0.9293036
000130 df 13 1a 3e c6 ff 8f 3f 87 75 8e 38 62 08 1d c1
       0.15046643 1.1249931 6.792979e-05 -9.814547
000140 4a 86 79 c1 ea 6a 82 c1 ff 3a e2 3e 04 22 c4 40
       -15.595285 -16.302204 0.44185635 6.1291523
000150 ca a0 de b7 8b 14 28 41 dd 45 87 41 e7 f4 89 41
       -2.6539336e-05 10.505015 16.909113 17.244581
000160 06 2b 50 bf 1f 8f ff c0 40 fc c2 b7 4f ce 0d bf
       -0.8131565 -7.986221 -2.3244065e-05 -0.55392927
000170 06 cb 2b be 3e dc 60 bf e6 a8 9d 3e 5a f9 da be
       -0.16776666 -0.8783606 0.30792922 -0.42768365

bias f4 [16]
000000 d1 ad 30 c1 85 5e b2 c1 4f d2 56 41 bf 59 c9 c1
       -11.042436 -22.296152 13.426345 -25.168821
000010 cf 66 c4 c1 8f 30 e8 41 e8 37 da 40 b9 a0 f4 c1
       -24.5502 29.02371 6.8193245 -30.578478
000020 3e 67 8a 41 2b fb 17 c1 58 00 b2 bf b5 65 34 c2
       17.300411 -9.49882 -1.3906355 -45.099323
000030 a0 0e 69 3f e9 29 e4 41 aa ca de c1 ca d8 ef bf
       0.9103794 28.520464 -27.848957 -1.8738034
