runs/20250317_181003/mlpLocalModel.pt (torch, 42357 bytes, 8 tensors)

weight f4 [100, 17]
0	0x3fa4ce22	1.2875407
1	0xbd2a02ba	-0.041506507
2	0x3f139ca2	0.5766088
3	0x3f2c67fc	0.6734617
4	0xbe927cd0	-0.2861085
5	0xbe962f70	-0.29333067
6	0xbfc8510c	-1.5649734
7	0xbf816c3c	-1.0111156
8	0x3f2203f3	0.63287276
9	0x3d811635	0.06303064
10	0xbf959602	-1.1686404
11	0xc04b7832	-3.1792111
12	0xbfd3c6df	-1.6545066
13	0xbe49178c	-0.19637889
14	0x3f6b05f1	0.9180594
15	0x3f06f2f8	0.5271449
16	0x3e19588b	0.14975183
17	0x3f23d35f	0.639944
18	0x3fb299ba	1.3953164
19	0x3f84a0dc	1.036159
20	0x3f73b201	0.9519349
21	0x4013e2cc	2.3107176
22	0xbeea3be9	-0.45748833
23	0xbf7172cd	-0.943158
24	0x3d0fc63b	0.035101157
25	0xbe307b61	-0.17234565
26	0xbe66101d	-0.22467084
27	0xbf9bff75	-1.2187334
28	0xbf1e44fd	-0.6182402
29	0xbfe3f04e	-1.780771
30	0x3d056c33	0.03257389
31	0xbea5b67b	-0.32365784
32	0xbf68f29f	-0.9099521
33	0xbfbdd4c4	-1.4830556
34	0xbfe23ea9	-1.7675372
35	0xbfb0ff79	-1.3827964
36	0xbf62bdd4	-0.88570905
37	0xbe98bcd4	-0.29831564
38	0xbef7d48c	-0.48404348
39	0x3ecdc0f6	0.4018628
40	0xbe69e9ec	-0.2284314
41	0xbf10ce47	-0.56564754
42	0xbf709b43	-0.9398691
43	0x3f1d0016	0.61328256
44	0xbf8e948e	-1.1139085
45	0xbef000f1	-0.46875718
46	0xbe05420c	-0.13013476
47	0x3e8e6e32	0.27818447
48	0x3f1a37d0	0.60241413
49	0x3ec62e9c	0.38707435
50	0xbda8cf81	-0.08242703
51	0x40c5bf56	6.1796064
52	0x40178632	2.3675656
53	0x3ea4a627	0.32158014
54	0x3f9f8089	1.2461101
55	0x3ea32211	0.31861928
56	0xbfaed6c1	-1.3659288
57	0xbe546c92	-0.20744541
58	0xbe0f5c6b	-0.14000098
59	0xbdb44b97	-0.0880348
60	0x3e4bd412	0.19905117
61	0xbe7e486f	-0.24832319
62	0xbf9a6d0a	-1.2064526
63	0x3fbabff5	1.4589831
64	0xbf190606	-0.59774816
65	0xbfa03ae9	-1.2517978
66	0xbf9581be	-1.1680219
67	0xc0078f72	-2.1181302
68	0x40caa9a1	6.3332067
69	0x4082044d	4.063025
70	0x40d26e87	6.575992
71	0x40cbf976	6.374202
72	0x4081f452	4.0610743
73	0x3d155789	0.036460433
74	0xbe073748	-0.13204682
75	0xbefee3fb	-0.4978331
76	0xbf3714e3	-0.71516246
77	0x3f7bef8b	0.9841239
78	0xbfd9899b	-1.6995119
79	0x3f01f53d	0.5076483
80	0xbee09b12	-0.4386831
81	0xbefcb8ed	-0.49359837
82	0x3ec5c711	0.38628438
83	0xbf25e3fb	-0.64800996
84	0xbf070a51	-0.52750117
85	0x3f58af38	0.8464236
86	0xbfc74c0e	-1.5570085
87	0x3f7437fb	0.9539792
88	0x3f900712	1.1252158
89	0xbf1b19be	-0.60586154
90	0xbf68ffcb	-0.9101531
91	0x3f4fb744	0.81139016
92	0xbf60ed6c	-0.8786228
93	0x3f70e496	0.94098794
94	0x3f69abdf	0.9127788
95	0x3e53a33a	0.20667735
96	0x3fa31f91	1.2744008
97	0x3f011de1	0.50436217
98	0x3fd78f4d	1.6840607
99	0x3e2d4eff	0.16924666
100	0x3eb1f233	0.34755096
101	0x3f26145c	0.64874816
102	0x41997c87	19.185804
103	0x418b7a2c	17.434654
104	0x41a403af	20.501799
105	0x4193fc5e	18.498226
106	0x4183d4f2	16.478977
107	0xbf02a98f	-0.51039976
108	0x3edafba1	0.42770103
109	0x3e80533b	0.250635
110	0x3d173102	0.036911972
111	0x3f59fc23	0.85150355
112	0xbe5b2933	-0.21402435
113	0xc091809c	-4.5469494
114	0xbca86545	-0.020556102
115	0xbf1a1263	-0.60184306
116	0xc0700178	-3.7500896
117	0x3ee7538c	0.4518093
118	0xbf261edb	-0.6489083
119	0x3feabe9a	1.8339417
120	0x4014031e	2.3126903
121	0x3fcd5780	1.6042328
122	0x3f7c76ca	0.9861876
123	0x3ebfcf22	0.37462717
124	0x3f42fd91	0.7616816
125	0xbf465de1	-0.77487
126	0xbfdd336a	-1.7281315
127	0xbf99e2a9	-1.2022296
128	0xbfcc0bfc	-1.5941157
129	0xbf88aa37	-1.0676945
130	0x3f59630d	0.84916764
131	0xc00025b9	-2.0023024
132	0xc00390ee	-2.0557208
133	0xbf2236d3	-0.63364905
134	0x3da16740	0.078810215
135	0x3e5f814e	0.2182667
136	0x3fb7010b	1.4297193
137	0xc0025d44	-2.0369425
138	0xbfb3bf66	-1.4042785
139	0xbff051dc	-1.8774981
140	0xc01e9f54	-2.4784746
141	0xbf3708c6	-0.7149776
142	0x3ee6e598	0.4509704
143	0x3e02c8a5	0.12771852
144	0xbf317200	-0.69314575
145	0xbde5d538	-0.11222309
146	0xbf279f26	-0.65477216
147	0xc0e40cca	-7.126561
148	0x3faaba00	1.3338013
149	0xbf5bc45a	-0.85846484
150	0x3f0d5148	0.5520215
151	0x3e758f49	0.2398044
152	0x3f8666ec	1.0500159
153	0xbdf65905	-0.12028698
154	0xbedf9f8f	-0.4367642
155	0xbf66915d	-0.90065557
156	0xbf149bed	-0.58050424
157	0xbee8cd7d	-0.45469275
158	0x3e4a1a5d	0.1973662
159	0xbf3177c7	-0.6932339
160	0xbfde38fd	-1.7361141
161	0xbf629164	-0.885031
162	0xbf047ae5	-0.5175002
163	0xbf832bdc	-1.024776
164	0xbea1966b	-0.31560072
165	0xbf273d89	-0.6532827
166	0x3d6150b5	0.05500861
167	0xbf6f1b9f	-0.9340152
168	0xbe831ac8	-0.2560637
169	0xbdaae93c	-0.08345267
170	0xbf692524	-0.910723
171	0xbe638ab7	-0.22220884
172	0xbfa4ed2b	-1.2884878
173	0xbf1c9174	-0.61159444
174	0x3ebf5354	0.37368262
175	0xbf144df3	-0.5793144
176	0xc00bbbec	-2.1833448
177	0x3e4fd6e7	0.20296822
178	0xbf1c8a55	-0.6114858
179	0xbe303819	-0.172089
180	0xbf7faff8	-0.9987788
181	0xbf99e8b4	-1.202414
182	0x3fa9971a	1.3249238
183	0xbf6d2604	-0.9263613
184	0x3f11c2b5	0.56937724
185	0xbdab7692	-0.08372225
186	0xbf48414c	-0.78224635
187	0xbfb9fb6c	-1.4529853
188	0xbfdacc82	-1.7093661
189	0xbfa43c97	-1.283099
190	0xbfc250d6	-1.5180919
191	0xbfa6502a	-1.2993214
192	0xbd15fbb0	-0.03661698
193	0x3ecc7be5	0.39938274
194	0x3e9f971c	0.31169975
195	0xbf0d2da0	-0.55147743
196	0xbf42afd0	-0.7604952
197	0xbf526a79	-0.82193714
198	0xc066c65e	-3.6058574
199	0xbf678bb2	-0.90447533
200	0x3f53e69c	0.82773757
201	0xbfe49786	-1.7858741
202	0xbfd6be8f	-1.6776904
203	0x3f4d4463	0.80182475
204	0x3fb09155	1.3794352
205	0x3f8c1ead	1.0946862
206	0x3ebe7e94	0.37205946
207	0x3e6951a1	0.22785045
208	0xbf653d54	-0.89546704
209	0xbf42177c	-0.75817084
210	0xbf98a81a	-1.19263
211	0x3e4b9e89	0.19884695
212	0x3e852f1c	0.26012504
213	0xc01c2904	-2.4400034
214	0xbfbd6f65	-1.479962
215	0xbee65371	-0.44985536
216	0x3f825e2d	1.018499
217	0x3f8d12e3	1.1021389
218	0xc04fe2be	-3.2482142
219	0xbd599976	-0.053124867
220	0xbf07b943	-0.5301706
221	0x412a63c1	10.649354
222	0x4008e721	2.139107
223	0x408359be	4.104705
224	0xbf639c90	-0.8891077
225	0xc0557f16	-3.3358817
226	0x3eac743c	0.3368243
227	0x3f2d58b5	0.6771348
228	0xbf121da8	-0.570765
229	0xbf964b9f	-1.1741828
230	0xbf1f81e2	-0.6230756
231	0xbebb21da	-0.36549264
232	0xc04cbd37	-3.1990488
233	0xc05a5f70	-3.412075
234	0xbf79046b	-0.97272366
235	0xbf8271d4	-1.0190988
236	0x3f1d6b12	0.614915
237	0xbf480199	-0.7812744
238	0xc05afc80	-3.4216614
239	0xc0547b60	-3.3200302
240	0xc04c9e8e	-3.1971774
241	0xc054f8dc	-3.3276892
242	0xc04fa0f3	-3.2441986
243	0xbee66c6e	-0.450046
244	0xbfc4543c	-1.5338206
245	0xbe871090	-0.26379824
246	0xbf81cea6	-1.0141189
247	0xbe67b777	-0.2262858
248	0x3ea67d47	0.32517454
249	0xc0334da5	-2.801614
250	0x3f3197e5	0.693724
251	0x3e081396	0.13288721
252	0x3f0be3c7	0.54644436
253	0xbfac711a	-1.3472016
254	0xbc5d06d0	-0.013490394
255	0xc01c73be	-2.4445643

bias f4 [100]
0	0xbf7828dc	-0.96937346
1	0xbfd7dd13	-1.6864341
2	0xbff672ca	-1.9253781
3	0xbf264117	-0.6494307
4	0xc1274a5f	-10.455657
5	0xc0712ef1	-3.76849
6	0xbeabb02d	-0.3353285
7	0x3ff808ac	1.9377646
8	0x40423c2a	3.0349221
9	0xbeb85994	-0.36005843
10	0xbed89aa8	-0.42305493
11	0x3f31c3e3	0.69439524
12	0xbd6b7efb	-0.057494145
13	0xc0ad1ceb	-5.40978
14	0x405a052c	3.4065657
15	0xc046810c	-3.1016264
16	0x3e9474e7	0.2899544
17	0xbf61cc84	-0.8820269
18	0xc0a3a8b5	-5.114344
19	0xbd87ddde	-0.06634115
20	0xc054a42e	-3.3225207
21	0x3ef4e94e	0.47834247
22	0xc0a48a7c	-5.141905
23	0xbe184872	-0.14871386
24	0xbee041ad	-0.43800107
25	0xbf11f464	-0.57013535
26	0xc01ad864	-2.4194574
27	0x3fb292c4	1.3951039
28	0x4025c19f	2.5899427
29	0xc0171348	-2.3605518
30	0xbfec905e	-1.8481557
31	0x3fe5408d	1.7910324
32	0xbf3b4185	-0.7314685
33	0x3dc93106	0.098238036
34	0xbfc5efc4	-1.5463796
35	0x405baf26	3.4325652
36	0xc0ac634b	-5.3871207
37	0x40126a65	2.2877438
38	0xbf6871cb	-0.90798634
39	0x3f9c5fe2	1.2216761
40	0xbf0465be	-0.51717746
41	0x409d6bd7	4.919414
42	0x3f31d6ca	0.6946837
43	0x406dbb9e	3.7145762
44	0xc09dca86	-4.930972
45	0xc0310d3b	-2.7664325
46	0x3eb4e78c	0.35332906
47	0x3efe3e95	0.4965712
48	0xbfe2e3ff	-1.7725829
49	0xbd3c2a63	-0.04593886
50	0xbf9f7cbe	-1.2459943
51	0x407b9392	3.930882
52	0x3f9c18d8	1.2195082
53	0x3dcea51e	0.10090087
54	0xc03adf63	-2.9198844
55	0xc0473925	-3.1128628
56	0xc0a62c8e	-5.192939
57	0x3fe64c6e	1.7992074
58	0x3fdb2c7e	1.7122953
59	0xc0119cab	-2.2751873
60	0x3fa18e58	1.2621565
61	0xbe98be07	-0.2983248
62	0x401d503b	2.4580219
63	0xc0bf35f9	-5.9753385
64	0x4009cd49	2.1531546
65	0x3e4abf29	0.19799484
66	0xc09f5c0b	-4.9799857
67	0xc1113186	-9.074591
68	0x3f5a92e2	0.85380375
69	0xbe92ea81	-0.28694537
70	0x3f974a9f	1.1819648
71	0xbfa80c8b	-1.3128828
72	0x3e0bab55	0.13639577
73	0xc0b51c0e	-5.6596746
74	0xbeacb2ff	-0.33730313
75	0xbf21d3e1	-0.63213927
76	0xbf8ce749	-1.1008083
77	0x40293e3d	2.6444237
78	0xbe34c276	-0.17652306
79	0xbf370ccb	-0.71503896
80	0xc0b82eeb	-5.7557273
81	0x3fd83a8d	1.6892868
82	0xbf6471c2	-0.8923608
83	0xc067a533	-3.619458
84	0xbf868773	-1.0510086
85	0x400e36ef	2.2221029
86	0xc0be7c50	-5.952675
87	0x3f927848	1.1442957
88	0x4088d5fa	4.27612
89	0xbfdd2a1d	-1.7278477
90	0xbe40ff54	-0.188474
91	0x400a8e7a	2.164946
92	0x403c8076	2.9453406
93	0x3f4d6370	0.80229855
94	0x3f12abb8	0.5729327
95	0xc0d898b6	-6.7686415
96	0x408b79bc	4.35861
97	0xbd107128	-0.035264164
98	0x3f8d32ac	1.1031089
99	0x3f883cbc	1.0643535

weight f4 [50, 100]
0	0x3c185101	0.009296657
1	0xbdde9029	-0.1086734
2	0xbd9780f8	-0.07397646
3	0xbdbd50f9	-0.0924396
4	0xbded0e33	-0.11574974
5	0xbbeb6166	-0.0071832417
6	0xbe5af8f1	-0.21384026
7	0xbd2b52ef	-0.04182714
8	0x3dc8a7b7	0.09797614
9	0x3d054d9b	0.032544713
10	0xbdeb320a	-0.114841536
11	0x3d422076	0.04739424
12	0xbde00430	-0.10938299
13	0xbda18126	-0.07885961
14	0xbd96e7dc	-0.073684424
15	0xbe042ac3	-0.12906937
16	0xbdc0eaef	-0.0941981
17	0xbc24ce85	-0.010059004
18	0xbd8029db	-0.06257983
19	0xbd2e2ac8	-0.042521268
20	0xbe94970a	-0.29021484
21	0xbe0a0e1b	-0.13481943
22	0xbca606b8	-0.020266876
23	0x3d684fe1	0.056716803
24	0xbdd5902c	-0.10427889
25	0x3ba0b5d0	0.0049044862
26	0x3d3ad2a6	0.045611046
27	0x3c10c042	0.0088349
28	0xbdc15b3f	-0.09441232
29	0xbd771b1c	-0.060328588
30	0xbdf06b38	-0.117392
31	0x3c9ae207	0.018906606
32	0xbda93741	-0.08262492
33	0x3c127e00	0.008941174
34	0xbd2bb562	-0.041921027
35	0xbd352917	-0.04422864
36	0x3c5f6d03	0.01363683
37	0xbd9611a7	-0.07327586
38	0xbdccb4ec	-0.099954456
39	0xbd68f972	-0.056878515
40	0x3d00715a	0.0313581
41	0xbd2cc106	-0.04217627
42	0xbd9cbb60	-0.076529264
43	0x3c2097da	0.009801829
44	0xbd97f3e4	-0.07419565
45	0xbd697338	-0.056994647
46	0xbde3147f	-0.11087894
47	0xbd88ae24	-0.0667384
48	0xbcfc7193	-0.030815875
49	0xbd12219a	-0.035676576
50	0xbd1ec225	-0.03875937
51	0xbe0f192d	-0.13974448
52	0xbd27dcdd	-0.040982116
53	0xbe78c389	-0.2429334
54	0xbe179dc8	-0.14806283
55	0xbdd12fee	-0.1021422
56	0x3d80c40c	0.06287393
57	0xbd01e3ad	-0.03171127
58	0xbd9333bb	-0.07187601
59	0x3d800fc8	0.0625301
60	0xbda8c0db	-0.08239909
61	0xbe3e6e78	-0.18596828
62	0xbdc0284e	-0.093826875
63	0xbdd5fb24	-0.10448292
64	0x3c4d6b4f	0.012537791
65	0xbdff8b65	-0.12477759
66	0xbe044bf7	-0.12919603
67	0xbdd700ff	-0.10498237
68	0xbae3d48f	-0.0017382073
69	0x3cd25f8e	0.02568033
70	0xbdce51ec	-0.10074219
71	0xbdab8ada	-0.08376093
72	0x3d13f310	0.036120474
73	0xbd17578c	-0.036948726
74	0xbb7be99a	-0.0038438798
75	0x3d5c0b90	0.053721964
76	0x3d1e4c30	0.038646877
77	0xbccb75ed	-0.024836505
78	0xbd71f7a6	-0.059074067
79	0xbd1eb68c	-0.03874831
80	0x3c9e6163	0.019333547
81	0xbdb92db5	-0.09041921
82	0x3cc5ddad	0.024153555
83	0xbda13640	-0.078716755
84	0xbe06cb46	-0.1316348
85	0xbe6b5ecb	-0.2298538
86	0xbe837393	-0.25674114
87	0x3d32b697	0.043631162
88	0xbe5c9be8	-0.21543849
89	0xbd6751a4	-0.056474343
90	0x3d4ac165	0.04950084
91	0xbe010aca	-0.12601772
92	0xbdbe6530	-0.09296644
93	0xbdfd133a	-0.12357183
94	0x3adcfdd0	0.001686031
95	0xbcf98db6	-0.03046308
96	0xbd9b1983	-0.07573225
97	0x3c039fa7	0.00803367
98	0xbd3f46f5	-0.04669853
99	0xbd1e5993	-0.038659643
100	0xbdf983d3	-0.121833466
101	0xbde73ee0	-0.11291289
102	0xbe5376e7	-0.20650826
103	0xbda746d3	-0.081678055
104	0xbd5e653f	-0.054295775
105	0x3c77bb46	0.015120333
106	0xbc25f128	-0.010128297
107	0x3cb8d0ac	0.02256044
108	0xbcd056c6	-0.025432002
109	0x3ca6ae6f	0.020346848
110	0x3ca4b8ea	0.020107705
111	0x3d2a7fb2	0.041625686
112	0xbd0b6d4e	-0.034039788
113	0x3c17d0c3	0.009266081
114	0xbd171533	-0.03688545
115	0xbe25ff78	-0.16210735
116	0xbddc768a	-0.10764797
117	0xbda2608a	-0.079285696
118	0xbd9b2459	-0.07575292
119	0xbc389e1c	-0.011268165
120	0xbe2aec93	-0.16691808
121	0xbdb5a2f6	-0.08868973
122	0xbc5e1811	-0.013555543
123	0xbdd2954e	-0.10282384
124	0xbdc37f90	-0.09545815
125	0xbe029074	-0.12750417
126	0xbd322e34	-0.043501094
127	0x3cd5b2d7	0.026086254
128	0x3d19d866	0.03755989
129	0x3cec2983	0.028828388
130	0x3cb842f2	0.02249286
131	0xbe0cc2ba	-0.13746157
132	0xbdb97650	-0.090557694
133	0x3d4dbdb8	0.050229758
134	0xbd8c655e	-0.06855272
135	0xbd32440e	-0.043521933
136	0xbdee8cca	-0.11647947
137	0xbcdedb0d	-0.02720406
138	0xbdebe3cb	-0.115180574
139	0xbd0c61f7	-0.034273114
140	0xbd651ae3	-0.055933844
141	0xbc5ea6fe	-0.013589619
142	0xbc7638e2	-0.01502821
143	0x3d27ced8	0.040968746
144	0xbd0d09c0	-0.034433126
145	0xbd8d6c7f	-0.069054596
146	0xbe096fd8	-0.13421571
147	0xbc84e4f5	-0.016222456
148	0xbe1003e9	-0.14063992
149	0x3d68d946	0.056847833
150	0x3c0909c7	0.0083641475
151	0xbca5d484	-0.020242937
152	0xbe1c6de9	-0.15276302
153	0xbe52085a	-0.20510998
154	0xbd348abf	-0.04407763
155	0xbd141936	-0.036156856
156	0x3d47591a	0.04866896
157	0xbd131b47	-0.035914686
158	0xbddf58b9	-0.109055944
159	0xbcbb4e27	-0.022864414
160	0xbd7397ce	-0.059470944
161	0xba80079c	-0.0009767893
162	0xbe1316b0	-0.14364123
163	0xbda30d37	-0.07961505
164	0xbcca5021	-0.024696412
165	0xbe10225a	-0.14075604
166	0x3cf2f349	0.029657023
167	0xbdf29ddd	-0.11846516
168	0xbd714a57	-0.058908787
169	0xbd5cf47e	-0.053944103
170	0xbb8614de	-0.004091843
171	0xbddaca98	-0.10683173
172	0xbd565a40	-0.052332163
173	0x3cc75115	0.024330655
174	0xbdc5facd	-0.09666977
175	0xbd1f0bad	-0.038829494
176	0x3d5413b8	0.051776618
177	0x3d37001f	0.04467785
178	0xbdd5d4ca	-0.10440977
179	0x3d26621d	0.040620912
180	0xbde9666d	-0.11396489
181	0xbdad8d01	-0.0847416
182	0xbdd72d3f	-0.10506677
183	0xbe031b06	-0.12803277
184	0xbdb135c5	-0.08652834
185	0xbcb119cb	-0.021618744
186	0xbe45f527	-0.193318
187	0xbd8e5309	-0.069494314
188	0xbe2ff7a4	-0.17184311
189	0x3d5c2ad8	0.053751796
190	0xbd4019c3	-0.04689957
191	0xbdee374b	-0.1163164
192	0xbd951af4	-0.072805315
193	0xbdb301b0	-0.08740556
194	0x3c2a0407	0.010376937
195	0xbd8aa220	-0.06769204
196	0x3c8a1a70	0.01685831
197	0x3cc420e5	0.023941467
198	0x38ebf895	0.00011251975
199	0xbe189a55	-0.14902623
200	0xbf811262	-1.0083735
201	0xbf8dd4bb	-1.1080545
202	0xbef86ffb	-0.48522934
203	0xbf38025b	-0.71878594
204	0xbeab0fd3	-0.3341051
205	0xbec9845f	-0.39358804
206	0xbf1e667c	-0.6187513
207	0xbf74c080	-0.9560623
208	0x3e48e736	0.1961945
209	0xbbe42006	-0.0069618253
210	0xbf6194d7	-0.88117737
211	0xbde89d32	-0.113581076
212	0xbed02b2f	-0.40657946
213	0xbda08c10	-0.07839215
214	0xbf745ee2	-0.9545728
215	0xbf30a768	-0.6900544
216	0x3df7690f	0.12080585
217	0xbf2fe16a	-0.6870333
218	0xbef01d8f	-0.4689755
219	0xbf0ba698	-0.54551077
220	0xbf3f4967	-0.7472138
221	0xbeb8dadd	-0.3610448
222	0xbf6f0d3f	-0.93379587
223	0x3dd5ce93	0.104397915
224	0xbfef6a69	-1.8704349
225	0xbd8aefbc	-0.06784007
226	0xbf664f59	-0.89964825
227	0xbecff21e	-0.40614408
228	0xbecf6223	-0.4050456
229	0xbd8e7d31	-0.06957472
230	0xbf0aab89	-0.5416799
231	0x3cd9f41e	0.026605662
232	0x3bb59ce5	0.005542385
233	0xbf14c645	-0.58115035
234	0xbe1cc989	-0.15311255
235	0xbf43f231	-0.7654143
236	0xbf0c6500	-0.54841614
237	0xbf476a56	-0.7789663
238	0xbe314ab1	-0.17313649
239	0xbea7808e	-0.32715267
240	0x3e942137	0.2893159
241	0xbfaca7b5	-1.348868
242	0x3e101d00	0.14073563
243	0x3e5a9d49	0.21349062
244	0x3e461e19	0.19347419
245	0x3e1defab	0.15423457
246	0x3e15dcc5	0.14634998
247	0xbf5891e3	-0.84597605
248	0xbe425db2	-0.18981054
249	0x3ecdf3a2	0.4022494
250	0xbf1dba53	-0.61612433
251	0xbe30dfc2	-0.17272857
252	0xbe0a3255	-0.13495763
253	0xbe4dec02	-0.20109561
254	0x3e54f5f1	0.20796944
255	0xbf7eafce	-0.99487007

bias f4 [50]
0	0xbec57c6a	-0.38571483
1	0xbd3b12ba	-0.045672156
2	0xc0a56d32	-5.1695795
3	0xbe902c1d	-0.28158656
4	0xbed31ea2	-0.41234308
5	0xbdd2e5c9	-0.10297734
6	0xc114bd8c	-9.296276
7	0x3f88d8cf	1.0691165
8	0x3e0107fa	0.12600699
9	0x3fd5b44f	1.6695651
10	0xc07c3378	-3.9406414
11	0xbd84a341	-0.06476451
12	0xbec672ef	-0.38759562
13	0xbe2565d5	-0.16152127
14	0xbf01a357	-0.5063986
15	0x40b3ddcc	5.620825
16	0xbebe0aa8	-0.37117505
17	0xbfce5884	-1.6120763
18	0xbe31acb6	-0.1735104
19	0xbfb7ba01	-1.4353639
20	0x3fd7fbe7	1.687375
21	0xbe931daf	-0.28733584
22	0x3fb87b2b	1.4412588
23	0x4033c0e0	2.8086472
24	0x401e56a3	2.474038
25	0xbf15f9fe	-0.5858458
26	0x40a0bc79	5.023007
27	0xbf82a4a8	-1.0206499
28	0xbf0f0f66	-0.5588287
29	0x3e83260e	0.2561497
30	0xbe9880ea	-0.29785854
31	0xc0199e60	-2.4002914
32	0x406ed1c4	3.731553
33	0xbf404b38	-0.75114775
34	0x3fd8dabe	1.6941755
35	0xbebaee36	-0.36509866
36	0xbeaa51de	-0.33265585
37	0xbedd329e	-0.4320268
38	0xbc552845	-0.013010089
39	0xbe740af8	-0.23832309
40	0xbebec0fd	-0.37256613
41	0x401849c5	2.3795025
42	0xbf0ec97a	-0.5577618
43	0xbf409100	-0.7522125
44	0xbeb18bdb	-0.34677014
45	0xbf02d727	-0.51109546
46	0x40351d39	2.8299086
47	0x3fb4c0d6	1.4121349
48	0x3fded315	1.7408167
49	0xbe0cec9b	-0.13762133

weight f4 [20, 50]
0	0x3e9beb1f	0.3045282
1	0x3c0ce243	0.008598867
2	0xbb2cf517	-0.0026391202
3	0xbdf6de88	-0.12054163
4	0xbe9fbfec	-0.31201112
5	0xbdc4d5bd	-0.0961108
6	0xbeccad5f	-0.39976022
7	0xbe1eef06	-0.15520868
8	0x3cca4028	0.024688795
9	0xbe098057	-0.13427864
10	0xbed779f5	-0.42085233
11	0x3e063ee2	0.13109925
12	0xbd86aff1	-0.06576527
13	0x3c7a351a	0.015271449
14	0x3dff91dc	0.12478992
15	0xbdebd78d	-0.115157224
16	0xbca28f50	-0.019843727
17	0xbccb8245	-0.02484239
18	0xbdb5d291	-0.08878053
19	0xbd724ca0	-0.059155107
20	0x3ea68252	0.32521302
21	0x3e8364cf	0.25662848
22	0xbe0e6977	-0.13907419
23	0xbe11478d	-0.1418745
24	0x3e403dc9	0.18773569
25	0x3e24f547	0.16109191
26	0xbe8f110b	-0.2794269
27	0xbc483eb8	-0.012221985
28	0xbc0b85f0	-0.00851582
29	0xbe5c534a	-0.21516147
30	0x3d66c9ab	0.05634467
31	0xbee56ccd	-0.4480957
32	0xbd6825f7	-0.05667683
33	0xbee6e77e	-0.4509849
34	0xbde31367	-0.11087685
35	0xbf1d99c6	-0.61562765
36	0x3d62aae1	0.055338744
37	0xbdc553c3	-0.09635117
38	0x3e93dee1	0.2888098
39	0xbeba8355	-0.36428323
40	0x3e26681b	0.1625065
41	0xbdc8c94f	-0.098040216
42	0x39cf6340	0.00039556064
43	0xbed12b5e	-0.408534
44	0xbdc6209c	-0.096741885
45	0xbd862c05	-0.06551365
46	0x3daae7e0	0.08345008
47	0xbe4e3da7	-0.20140706
48	0x3e2ec9fd	0.1706924
49	0x3e38d945	0.18051632
50	0xbd1d7442	-0.03844095
51	0x3d33725a	0.043810226
52	0xbe59cd33	-0.21269684
53	0xbd89d51a	-0.06730099
54	0xbe220fce	-0.15826342
55	0x3ea3c82e	0.31988662
56	0xbd1e718e	-0.038682513
57	0xbc9ef4bd	-0.01940381
58	0xbe01d354	-0.12678272
59	0xbe278008	-0.16357434
60	0xbe088f7d	-0.13335986
61	0xbc305082	-0.010761382
62	0x3cda80af	0.02667269
63	0xbda1cdc1	-0.079005726
64	0x3d7dd496	0.061970316
65	0xbbd6d1b7	-0.0065557617
66	0xbd63ffc7	-0.05566385
67	0xbba9d625	-0.0051829987
68	0x3b5e2680	0.003389746
69	0xbcbab80c	-0.022792839
70	0xbd417e67	-0.047239687
71	0xbe27185e	-0.16317889
72	0xbe99fe75	-0.30076948
73	0xbc26a73c	-0.010171708
74	0xbd300755	-0.042975742
75	0xbdc19c39	-0.09453625
76	0xbe6ff259	-0.23432292
77	0xbe4f304d	-0.20233269
78	0xbdf65114	-0.12027183
79	0xbdafb0b4	-0.08578625
80	0xbd196556	-0.037450157
81	0xbbe02425	-0.0068402463
82	0xbdbac343	-0.091192745
83	0xbd769e1e	-0.060209386
84	0xbd2e84a4	-0.042606965
85	0xbd37d521	-0.04488099
86	0xbc5945fa	-0.013261313
87	0xbd054890	-0.032539904
88	0xbda949f2	-0.08266057
89	0xbe17b812	-0.14816311
90	0xbd848fd9	-0.06472749
91	0xbe2318ab	-0.15927379
92	0xbe08b9fb	-0.13352196
93	0xbe362cb1	-0.17790486
94	0xbd0c76fa	-0.034293152
95	0xbe0893a0	-0.13337564
96	0xbcf013d9	-0.02930634
97	0xbe0a0314	-0.13477737
98	0xbe1abd32	-0.15111235
99	0xbc2a74fa	-0.010403866
100	0xbe136855	-0.14395268
101	0xbd6c4a97	-0.057688322
102	0xbe0d4ac9	-0.1379806
103	0x3e3be852	0.18350342
104	0xbdefb119	-0.117037006
105	0xbd667599	-0.056264494
106	0xbe19c710	-0.15017343
107	0xbe335636	-0.17513356
108	0xbc86c496	-0.016451161
109	0xbc6507a2	-0.013978871
110	0xbf9e3caa	-1.2362263
111	0xbdba1c9c	-0.09087488
112	0xbd8407be	-0.06446789
113	0x3cc02993	0.023457324
114	0xbc4203c6	-0.01184172
115	0xbe422db8	-0.18962753
116	0x3dbe3bcb	0.09288748
117	0xbdcd43c1	-0.10022689
118	0xbd211799	-0.039329145
119	0xbe1bd952	-0.1521962
120	0xbef274e1	-0.47354797
121	0x3e961888	0.2931559
122	0xbd118151	-0.035523716
123	0x3e88a536	0.26688546
124	0x3ec67204	0.38758862
125	0x3ce87b4d	0.028379107
126	0xbdfe0536	-0.12403338
127	0xbda0c120	-0.07849336
128	0xbe1c4968	-0.15262377
129	0xbd9e7c3b	-0.07738539
130	0x3e16d249	0.14728655
131	0xbd39ffd3	-0.04540999
132	0x3e28015e	0.16406772
133	0xbe42f738	-0.19039619
134	0xbe008098	-0.12549055
135	0xbe1ed08b	-0.1550924
136	0x3d61f3fc	0.055164322
137	0xbdca095a	-0.09865065
138	0xbd1e2a96	-0.038614832
139	0xbd6d7ddf	-0.05798137
140	0xbdcad541	-0.09903956
141	0xbf059487	-0.5217976
142	0xbca92b5b	-0.020650556
143	0xbfe86747	-1.8156518
144	0x3dbceb72	0.09224595
145	0x3e03acb7	0.12858854
146	0xbe846535	-0.25858465
147	0xbf21f92d	-0.6327084
148	0x3da172b1	0.07883204
149	0xbe8afadc	-0.27144516
150	0xbc0a2bf8	-0.0084333345
151	0x3d2ea247	0.04263523
152	0xbcb2e1d3	-0.021836197
153	0xbe22947e	-0.15876958
154	0xbc82cfe0	-0.015968263
155	0xbd9be6b1	-0.0761236
156	0xbee8a55b	-0.45438656
157	0xbd2aa05d	-0.04165684
158	0xbd6fe53f	-0.058568235
159	0xbea149b9	-0.31501558
160	0xbee1a37e	-0.44070047
161	0xbe258f90	-0.16168046
162	0x3c92b242	0.017907266
163	0xbe14c8ff	-0.14529799
164	0x3d95737c	0.072974175
165	0xbd418bb7	-0.047252383
166	0xbc0038f3	-0.007826078
167	0xbdfbdcc1	-0.12297965
168	0x3d5a4f23	0.053298127
169	0xbe199a02	-0.15000156
170	0xbd3771f8	-0.044786423
171	0xbdd31b5b	-0.10307952
172	0xbe1fa82e	-0.15591499
173	0x3df25bb5	0.11833898
174	0x3e05dae7	0.13071786
175	0x3eb16c2e	0.34652847
176	0xbf2ed1d4	-0.6828892
177	0xbf440101	-0.7656403
178	0xbd5bde7c	-0.053678975
179	0xbe6c08c8	-0.23050225
180	0xbe2f7956	-0.1713613
181	0xbea1c3ad	-0.315946
182	0xbe3cf110	-0.18451333
183	0xbe0166cf	-0.12636875
184	0xbe49e981	-0.19717981
185	0xbec35f69	-0.3815873
186	0xbdb59da2	-0.08867957
187	0xbd104415	-0.035221178
188	0xbd5198a4	-0.05117096
189	0xbd72a5a7	-0.05924001
190	0xbe104094	-0.14087135
191	0xbeb11c7f	-0.34592053
192	0xbcc0ab0f	-0.023519067
193	0xbef799f8	-0.48359656
194	0xbda13394	-0.07871166
195	0xbe282b04	-0.16422659
196	0xbe3e3528	-0.18574965
197	0xbf4604c0	-0.77351
198	0xbd19cdc0	-0.037549734
199	0x3e0897a8	0.13339102
200	0x3d8f0344	0.06983045
201	0x3d793196	0.060838304
202	0xbd4b3685	-0.04961254
203	0xbd970ced	-0.07375512
204	0xbbcdf88e	-0.0062857335
205	0xbc6f5379	-0.014607304
206	0xbe284494	-0.1643241
207	0xbcf7bf5d	-0.030242616
208	0xbd181d7d	-0.037137497
209	0xbdd78cbd	-0.105248906
210	0xbe46c9ab	-0.19412868
211	0xbd77f617	-0.060537424
212	0xbde191d8	-0.110141456
213	0x3e093c69	0.13401951
214	0xbd9ccaea	-0.0765589
215	0xbde9670f	-0.1139661
216	0x3c169aa9	0.009192147
217	0xbe4175fd	-0.18892665
218	0x3dd235ba	0.10264154
219	0xbdb99c6e	-0.0906304
220	0xbdb972a3	-0.09055068
221	0xbd296a1c	-0.04136096
222	0xbd18931b	-0.037249666
223	0xbe0a4c6c	-0.13505715
224	0xbaa79a1e	-0.0012787019
225	0xbc961a56	-0.018323105
226	0xbc644336	-0.01393204
227	0xbd7bb16b	-0.061448496
228	0xbe94dd27	-0.29074976
229	0xbdc7a4ca	-0.09748228
230	0xbd1137c0	-0.035453558
231	0xbd0d6c3b	-0.034527045
232	0xbda75987	-0.08171373
233	0xbe0c7fa6	-0.13720569
234	0xbd46ced2	-0.048537083
235	0xbe532efd	-0.20623393
236	0xbd9ccd77	-0.07656377
237	0xbe22c4cf	-0.15895389
238	0xbe8d3aec	-0.27584016
239	0x3d2c25b0	0.04202813
240	0xbd90225e	-0.07037805
241	0xbc25ccf9	-0.01011967
242	0xbe14fd52	-0.14549759
243	0xbe25439f	-0.16139077
244	0x3e292f0a	0.1652185
245	0x3d3785c6	0.04480531
246	0xbe4db089	-0.20086874
247	0xbabc19dd	-0.001435097
248	0xbddb2b17	-0.10701578
249	0xbdc0e6d9	-0.09419031
250	0xbe0396ae	-0.12850448
251	0x3ec2c14d	0.38038102
252	0xbd9a6418	-0.075386226
253	0x3e4a6b35	0.19767459
254	0xbe980b0a	-0.29695922
255	0xbe72c609	-0.23708357

bias f4 [20]
0	0xc042adea	-3.0418649
1	0xbef8a55e	-0.48563665
2	0xbb9362ca	-0.0044978606
3	0xc05dc737	-3.465284
4	0xbbb961ff	-0.005657434
5	0xbe8c5b66	-0.2741348
6	0xbf444672	-0.7666999
7	0xc112b7f0	-9.169907
8	0xc0527afc	-3.2887564
9	0xbfa1ec21	-1.2650186
10	0xc06b42db	-3.6759555
11	0xbe89c4fc	-0.269081
12	0xbebc3af2	-0.36763722
13	0xbe1937dc	-0.14962715
14	0xbe810b12	-0.25203758
15	0xbdadd0c1	-0.08487082
16	0x3e8adc6d	0.27121297
17	0xbfdd13d2	-1.7271674
18	0xbf92b0a1	-1.1460153
19	0xc0895f46	-4.29288

weight f4 [16, 20]
0	0x3e8c2505	0.27371994
1	0x3e2aa30d	0.16663761
2	0xbe8e8ec0	-0.27843285
3	0xbe3096cc	-0.17245024
4	0xbdb1320d	-0.086521246
5	0xbd83ca0f	-0.06435024
6	0xbc6a6fbd	-0.014308867
7	0x3da2bde0	0.07946372
8	0xbead1059	-0.33801535
9	0x3d71e069	0.059051905
10	0x3e6a7861	0.22897483
11	0x3e84a38f	0.25906035
12	0x3f0278ca	0.5096556
13	0x3e1b6167	0.15173875
14	0x3d9f00b4	0.07763806
15	0x3f75b216	0.9597486
16	0xbf530090	-0.82422733
17	0x3e84a35c	0.25905883
18	0xbe12d596	-0.14339289
19	0x3e479e97	0.19494091
20	0x3df983b6	0.12183325
21	0x3d82cf78	0.06387228
22	0x3dd1c4cd	0.10242615
23	0xbe812390	-0.25222445
24	0xbdb4c62c	-0.08826861
25	0xbdaa5317	-0.083166294
26	0xbe3a5fe6	-0.18200645
27	0x3d9891bd	0.07449672
28	0xbe93c331	-0.28859857
29	0x3eb4bf29	0.35302094
30	0xbe7755fd	-0.24153896
31	0xbdd25af1	-0.10271252
32	0x3e70030f	0.23438667
33	0x3e087696	0.13326487
34	0xbc1b9024	-0.009494815
35	0xbf010b26	-0.50407636
36	0x3ecf609d	0.40503398
37	0xbae63f71	-0.0017566514
38	0x3f55ea8a	0.83561003
39	0xbe01af8e	-0.12664625
40	0x3e25070b	0.16115968
41	0xbe554c50	-0.20829892
42	0x3c9fa87d	0.019489521
43	0xbe0981fc	-0.13428491
44	0xbe66edde	-0.22551677
45	0xbf04ef21	-0.5192738
46	0xbd775ec6	-0.060393117
47	0x3ed13820	0.40863132
48	0x3e1e507c	0.1546039
49	0xbd72db9c	-0.059291467
50	0xbe0c2b4d	-0.13688393
51	0x3df119ac	0.11772475
52	0x3f9da7c4	1.2316823
53	0x3de9eb71	0.1142186
54	0x3de3ed7a	0.111292794
55	0xbed3115f	-0.4122419
56	0xbf66f1cc	-0.902127
57	0x3c919576	0.017771464
58	0x3ec0beab	0.37645468
59	0xbd45fd7c	-0.048337445
60	0x3ca6a557	0.020342512
61	0xbe380ec0	-0.17974377
62	0x3d5db9db	0.054132324
63	0x3db4b141	0.08822871
64	0xbe3bf83a	-0.1835641
65	0xbf5aa846	-0.85413015
66	0xbcc19fb2	-0.023635719
67	0xbe3e193d	-0.18564315
68	0x3d6fbb27	0.05852809
69	0x3dc0f2e0	0.09421325
70	0x3e47f6dc	0.19527763
71	0xbdc8481a	-0.09779377
72	0xbfc54a6f	-1.541334
73	0x3df0fb76	0.11766712
74	0x3d406c51	0.0469783
75	0xbf467949	-0.77528816
76	0xbfb42609	-1.4074107
77	0xbd86757c	-0.06565377
78	0xbea49441	-0.3214436
79	0x3e2a64b8	0.16639984
80	0xbeee7223	-0.46571454
81	0x3e22b9f1	0.15891244
82	0x3f045522	0.516924
83	0xbd2f9c80	-0.04287386
84	0x3e1bb7ea	0.15206876
85	0x3c5b30bc	0.013378318
86	0x3d74b39a	0.059741594
87	0xbcfa4b6e	-0.030553546
88	0xbe079baa	-0.13242975
89	0xbe9301d5	-0.28712335
90	0x3d3d98db	0.046288352
91	0x3d894e1f	0.067043535
92	0xbebc0336	-0.367212
93	0xbdcdce0e	-0.100490674
94	0x3e39958b	0.18123452
95	0xbf1b8dda	-0.60763323
96	0x3d74d965	0.059777636
97	0xbedc0b5b	-0.42977414
98	0x3ddfa1af	0.109195106
99	0xbec4eb4c	-0.38460767
100	0x3b2f8bb3	0.0026786148
101	0xbe501141	-0.20319082
102	0xbe8c2114	-0.27368987
103	0x3d8bc763	0.068251394
104	0x3d49ba43	0.0492499
105	0xbdc3778b	-0.095442854
106	0xbe8f7766	-0.2802078
107	0xbe9f93b8	-0.31167388
108	0xbe86865e	-0.2627439
109	0xbdc35e67	-0.0953949
110	0xbdc3a03c	-0.09552047
111	0xbc9db087	-0.019249214
112	0x3fb1f058	1.3901472
113	0xbccadb96	-0.02476291
114	0xbe5bdc7a	-0.21470824
115	0xbe22dc80	-0.15904427
116	0x3e84ac5b	0.25912747
117	0xbf3581ee	-0.7090138
118	0x3d308bd0	0.043102086
119	0xbdce19ec	-0.10063538
120	0x3dfcf9f9	0.12352366
121	0x3d2f4cf9	0.042798016
122	0xbd44c68f	-0.048040923
123	0x3e2b17b5	0.16708262
124	0x3dc4ca90	0.09608948
125	0xbebecb47	-0.37264463
126	0x3e6f5508	0.2337228
127	0xbe2859d4	-0.16440517
128	0x3e2b819f	0.16748665
129	0x3cc83dd1	0.024443539
130	0x3d874e2d	0.06606708
131	0xbd21ccab	-0.039501827
132	0x3fdd53b1	1.7291166
133	0xbe44e8d1	-0.19229437
134	0x3e03bf1f	0.12865876
135	0xbeb39321	-0.35073188
136	0x3dcb5367	0.09928017
137	0x3def98be	0.11699055
138	0x3ea3e591	0.32011083
139	0x3db60da8	0.088893235
140	0x3dcf9c05	0.1013718
141	0xbe741436	-0.23835835
142	0xbf2957e7	-0.66149753
143	0xbe8a5400	-0.27017212
144	0x3d5830a8	0.052780777
145	0xbe224374	-0.15846044
146	0x3cb5b3ba	0.022180427
147	0x3e50d7f5	0.20394881
148	0xbeb8b1ab	-0.3607305
149	0x3e52cc19	0.2058567
150	0x3c1c8078	0.009552114
151	0xbd3beb45	-0.045878667
152	0x3f0f3df6	0.5595392
153	0x3dd90db7	0.10598319
154	0xbcbc3ef2	-0.022979233
155	0x3e27f0f5	0.16400512
156	0x3f705ec3	0.93894595
157	0xbe2c33fb	-0.16816704
158	0x3d8e5d33	0.0695137
159	0xbe044f59	-0.12920894
160	0x3e3353c6	0.17512426
161	0x3e7bdb62	0.24595407
162	0x3e84f7aa	0.25970203
163	0xbe007621	-0.12545063
164	0x3d6329f5	0.055459935
165	0x3e8b907d	0.27258673
166	0xbd95deef	-0.07317912
167	0x3e91036b	0.2832292
168	0x3e1b5109	0.15167631
169	0x3d8d7ae2	0.06908204
170	0x3e961d9a	0.2931946
171	0x3e7ed4e9	0.24885906
172	0xbf16bf12	-0.588853
173	0x3dcf16a6	0.10111742
174	0xbbf925aa	-0.007603367
175	0xbea10c08	-0.31454492
176	0xbe2d5a05	-0.16928871
177	0xbf0cb468	-0.5496278
178	0xbc70de66	-0.014701461
179	0xbf039947	-0.5140576
180	0x3ef2c14f	0.47413108
181	0x3d0b8b50	0.034068406
182	0x3e5e1934	0.21689302
183	0xbec9ba26	-0.39399832
184	0x3d5195ef	0.05116838
185	0xbd50f4b4	-0.051014617
186	0x3b163f22	0.0022925814
187	0x3d732411	0.059360567
188	0x3dc8947a	0.09793945
189	0x3ed7d29e	0.42152876
190	0x3ef0eb26	0.47054404
191	0xbdd5f6c8	-0.104474604
192	0xbf647d1c	-0.892534
193	0x3da87c17	0.08226793
194	0x3d5ad5ec	0.053426668
195	0xbe7e14e9	-0.24812664
196	0x3f8d6c10	1.1048603
197	0x3e3550d1	0.1770661
198	0x3ea0f136	0.3143403
199	0x3e972160	0.2951765
200	0x3e6b9d53	0.23009233
201	0xbe8a9493	-0.27066478
202	0x3c893432	0.016748521
203	0x3ce83fb4	0.028350689
204	0xbd9ea0c1	-0.07745505
205	0x3ccf18a5	0.025280306
206	0x3e906e3a	0.28209096
207	0xbed480cc	-0.41504514
208	0xbdaa231f	-0.0830748
209	0x3ea5c5be	0.32377428
210	0x3e18df71	0.14928986
211	0x3d9d8177	0.07690709
212	0xbf3c7032	-0.73608696
213	0x3e3490c2	0.17633346
214	0xbe19a897	-0.15005718
215	0xbe986221	-0.29762366
216	0x42292096	42.281822
217	0x3d53f3d1	0.051746193
218	0xbf175b86	-0.5912403
219	0x3ba98357	0.0051731276
220	0xbe87580f	-0.2643437
221	0xbe3a6210	-0.1820147
222	0xbc78a47b	-0.015175934
223	0x3e2531aa	0.16132227
224	0xbe092745	-0.13393886
225	0xbebf2b4f	-0.3733773
226	0x3df610e2	0.12014939
227	0xbe6cc35d	-0.231214
228	0x3d0306d7	0.031988945
229	0x3da67fc3	0.08129837
230	0x3c52765f	0.012845605
231	0x3de39c03	0.11113741
232	0xbf84e3c5	-1.038201
233	0x3e223a6c	0.15842599
234	0x3d7feb0d	0.06248002
235	0xbeacb652	-0.3373285
236	0xbf44a9ba	-0.7682148
237	0xbe54170a	-0.20711914
238	0xbe82aaf7	-0.2552106
239	0xbe6dfa6f	-0.23240064
240	0x3f5410d8	0.828382
241	0x3e24b031	0.16082837
242	0xbf2fad4f	-0.6862382
243	0x3c1c3161	0.009533257
244	0xbe1b8000	-0.15185547
245	0xbd93c506	-0.072153136
246	0xbe7f1a7d	-0.24912448
247	0x3e2a2049	0.16613878
248	0xbda74f07	-0.0816937
249	0xbc681dba	-0.014167244
250	0xbe03727f	-0.12836646
251	0xbe61c1ef	-0.22046636
252	0x3f10326c	0.5632694
253	0x3e5772dd	0.2103991
254	0x3e59c557	0.21266685
255	0xbe93208a	-0.28735763

bias f4 [16]
0	0xbd6f5472	-0.058430143
1	0x3ecb33e0	0.39688015
2	0xbea3c217	-0.31984016
3	0x3efc6476	0.49295396
4	0xbf29edee	-0.66378677
5	0x3e5f083b	0.21780483
6	0x3e33722f	0.17524026
7	0x3edbb5c6	0.4291212
8	0xbf11b022	-0.5690938
9	0x3f1caab1	0.61197954
10	0xbfa38121	-1.2773782
11	0x3ebfb14a	0.37439948
12	0x3f0ea746	0.5572399
13	0xbe6b575b	-0.22982542
14	0xbe59a1a6	-0.2125307
15	0x3c021a27	0.0079408055
