runs/20250317_181003/vflAggregator.pt (torch, 3249 bytes, 1 tensors)

weight f4 [1, 32]
000000 16 a2 d9 b8 c2 02 11 b9 48 d2 d5 38 77 50 03 ba
       -0.00010377557 -0.00013829305 0.000101957994 -0.00050092436
000010 1c 45 b6 b9 c3 b9 4d 3a b6 07 ef 38 d3 0f 91 b9
       -0.00034765236 0.000784781 0.00011397844 -0.00027668345
000020 fb 99 80 39 d6 b0 cd b9 76 a8 c4 b8 bc c1 97 ba
       0.00024528787 -0.000392324 -9.3773866e-05 -0.0011578123
000030 61 e8 50 b8 6c f6 c0 39 da 75 a6 b9 58 68 b3 b8
       -4.9807484e-05 0.00036804692 -0.00031749794 -8.554821e-05
000040 5b 1e a7 bd 96 86 e6 3e cb a0 99 be c9 06 09 3f
       -0.08160087 0.45024556 -0.30005488 0.5352598
000050 19 f3 25 bf 09 22 45 3e 9b e7 1e 3e 6d 78 f0 3e
       -0.6482406 0.19251265 0.15518038 0.46966878
000060 f4 29 21 bf 0f db 2e 3f 87 c0 87 3d 76 e4 a9 3e
       -0.6295464 0.68303007 0.066285186 0.33182114
000070 89 07 05 3f 98 d8 67 be b9 6f 44 be b9 53 33 3b
       0.5196462 -0.22641218 -0.19183244 0.0027363135
