runs/20250317_150257/lrLocalModel.pt (torch, 4978 bytes, 2 tensors)

weight f4 [16, 6]
0.18658842 0.38132414 -0.11467706 0.1451341 0.1640181 5.3768735 -0.033650845 0.55814224
-0.07548438 0.18234316 -0.095363334 5.760791 -0.28310534 0.27715683 0.50363743 -0.035526235
0.16160564 6.0634475 -5.1190644e-05 0.45645538 0.12190925 0.1860063 0.47079536 3.1004097
0.2327064 -0.10932578 -0.23166569 -0.160993 -0.41243148 -5.5671906 0.23058826 0.1736235
0.25390416 0.13404182 -0.18640782 -5.339492 -0.20322715 -0.5246577 -0.050326742 -0.27618998
-0.53962135 -5.8564577 -0.29578346 0.013566145 0.44333893 -0.18602556 0.18126723 5.3741927
0.20003359 -0.57861453 -0.39595392 -0.066412166 -0.26926473 -5.829342 -0.38302165 -0.10230677
0.08693321 -0.2898803 -0.111810714 -5.701788 0.060802862 -0.2359896 -0.22697896 0.30447134
0.5268828 5.4778075 0.16975 -0.0500251 0.4020819 0.29552466 0.0174112 5.472283
-0.030260855 -0.20822605 -0.18887423 0.0010580356 0.15807599 6.0389814 -0.00860653 0.25353763
0.55407387 0.038203128 0.31212127 4.9022713 -0.16272162 -0.51882887 0.1314685 -0.19392163
0.17313892 -5.9097915 -0.27634758 0.16171588 -0.07923613 0.14905891 -0.042074904 -5.3158946
00000000: 0911 3f3e eb3c c33e cedb eabd 099e 143e
00000010: 5cf4 273e 590f ac40 78d5 09bd 69e2 0e3f
00000020: 8e97 9abd 2ab8 3a3e da4d c3bd 6658 b840
00000030: 2ff3 90be 80e7 8d3e 62ee 003f f583 11bd
00000040: f37b 253e c307 c240 89b5 56b8 85b4 e93e
00000050: 8fab f93d 6f78 3e3e 170c f13e 1d6d 4640
00000060: 964a 6e3e 32e6 dfbd c539 6dbe 59db 24be
00000070: 382a d3be 6d26 b2c0 541f 6c3e 5cca 313e
00000080: baff 813e 4242 093e b1e1 3ebe 1edd aac0
00000090: c71a 50be f84f 06bf 6a23 4ebd c668 8dbe
000000a0: a024 0abf 1a68 bbc0 ee70 97be 8944 5e3c
000000b0: 52fd e23e 7c7d 3ebe 1e9e 393e 63f9 ab40
000000c0: 9bd5 4c3e 1520 14bf 79ba cabe 1a03 88bd
000000d0: 11dd 89be f889 bac0 6a1b c4be 3686 d1bd
000000e0: 0a0a b23d 316b 94be 04fd e4bd 0c75 b6c0
000000f0: 6c0c 793d 42a7 71be 2c6d 68be abe3 9b3e
00000100: cbe1 063f 334a af40 f2d2 2d3e 1fe7 4cbd
00000110: aedd cd3e 024f 973e efa1 8e3c f11c af40
00000120: 9de5 f7bc 3639 55be 3f68 41be c9ad 8a3a
00000130: acde 213e 563f c140 6702 0dbc afcf 813e
00000140: c9d7 0d3f e27a 1c3d 5cce 9f3e 68df 9c40
00000150: 7fa0 26be f8d1 04bf ae9f 063e 6493 46be
00000160: 544b 313e 031d bdc0 6e7d 8dbe d998 253e
00000170: 8d46 a2bd e6a2 183e bc56 2cbd cf1b aac0

bias f4 [16]
0.28085184 0.48496103 0.53551394 0.16485392 -0.32967007 -0.5466265 0.08544145 0.5669052
-0.30290788 -0.56040615 -0.03854807 -0.1899592 -0.054211892 0.6261481 -0.34180415 -0.23860426
00000000: d0cb 8f3e d04c f83e 7117 093f 77cf 283e
00000010: 84ca a8be b7ef 0bbf edfb ae3d b320 113f
00000020: be16 9bbe c776 0fbf 95e4 1dbd aa84 42be
00000030: 4a0d 5ebd 3e4b 203f f400 afbe ad54 74be
