runs/20250317_150257/mlpLocalModel.pt (torch, 42357 bytes, 8 tensors)

weight f4 [100, 17]
000000 d7 ec ae 3e 58 ae e5 3e bc b4 9f 3e 1f 8a c3 3e
       0.3416507 0.44859576 0.31192577 0.38191316
000010 1b be 08 3f 88 77 03 be ab 30 12 be 12 bf 48 3d
       0.5341508 -0.12838566 -0.14276378 0.049010344
000020 d0 ce 6d 3e 80 6e e4 3d e6 33 ae be c3 30 02 bd
       0.23223424 0.11153889 -0.3402397 -0.031784784
000030 de 6b 91 bd db 2e 70 3d 1e 8b 4f 3e 9d 97 81 3e
       -0.07100652 0.058638435 0.20267913 0.25310984
000040 3c e3 9b 3d c5 79 a2 3e c4 bb cc 3d 52 23 a1 bc
       0.07611701 0.31733528 0.09996751 -0.019670162
000050 53 d1 d5 3d 07 c6 6e 3d 23 0e 1f 3e 27 ce 90 bd
       0.10440316 0.058294322 0.15532736 -0.070705704
000060 06 cb 7d be d9 33 f2 3c 0d 51 88 3d 19 5c 4e bd
       -0.24784479 0.029565739 0.06656084 -0.0503808
000070 41 cb 7d be 5a a8 28 bf 3e ac b1 3d 4d 16 40 3e
       -0.24784566 -0.65881884 0.08675431 0.18758507
000080 7d 00 60 3e 04 fc 4e 3d d3 2b 0d be 09 97 cd 3e
       0.21875186 0.05053331 -0.13786249 0.40154293
000090 19 0d 72 be 5d 38 03 be 82 3b 25 be 75 6e 97 3c
       -0.23637809 -0.1281447 -0.16135982 0.018485287
0000a0 ef 20 f9 bd 38 6c dc 3d ce f4 eb 3d 55 12 31 3c
       -0.12164485 0.107628286 0.11521302 0.010807593
0000b0 35 95 8b 3d 46 fa 91 3e 6a 10 b6 bd fe e1 62 3d
       0.06815568 0.28511256 -0.088898495 0.055391304
0000c0 c7 18 f6 bc 34 3d cf bd c0 d7 10 3d fb 2a 01 c0
       -0.030041112 -0.101190954 0.035362005 -2.0182483
0000d0 18 ec 00 c0 05 0f 08 c0 ca 8b f2 bf 33 c2 fb bf
       -2.01441 -2.1259167 -1.894891 -1.966864
0000e0 05 8d 9e bd bd 49 97 be c9 18 86 3c 39 c6 e7 bd
       -0.07741741 -0.29548445 0.01636924 -0.11317105
0000f0 6e 43 c1 3d 14 39 12 3e e6 9c 4e bf 5c bd ab 3d
       0.09436689 0.14279586 -0.8070816 0.08385727
000100 5f 18 25 3d b0 69 5d be 20 f1 31 3e ca 58 e0 3d
       0.040306445 -0.21622348 0.17377138 0.10954435
000110 43 d5 57 3f c6 5f 52 3f a2 3a 5f 3f 15 6e 5c 3e
       0.84309787 0.8217739 0.8719884 0.21526368
000120 11 f3 2f 3e 09 1e ac 3d 66 d1 3c 3c b1 63 21 3e
       0.17182566 0.08404166 0.011524534 0.15760686
000130 7f e1 a6 bc 8f b5 ad bd 8b 0e 5a be d3 05 a8 3d
       -0.020371197 -0.08481895 -0.2129461 0.08204236
000140 24 88 5e 3d 25 fc e5 bd 9c 98 a2 be 92 ec 40 3e
       0.054329053 -0.112297334 -0.31757057 0.18840244
000150 5f b6 cc be 0e 07 ce 3c da 30 32 be af 46 9c bd
       -0.39982888 0.025149848 -0.17401448 -0.07630669
000160 7a 7a 1b 3e 41 3c e3 3e 21 64 16 bd 1a 65 aa 3d
       0.1518344 0.44381908 -0.036716584 0.08320065
000170 e8 52 9f be c9 15 20 3e 5d 6b bd be 9a 82 b0 3d
       -0.3111794 0.1563331 -0.36995974 0.0861866
000180 e8 06 c0 3d 67 d9 bf 3d 9a 2b 53 bd fe b7 02 be
       0.09376317 0.09367638 -0.051555254 -0.127655
000190 ef 4d 49 3e 3d fc 33 3e 80 6c c0 be 17 57 d8 bd
       0.19658636 0.1757669 -0.3758278 -0.10563486
0001a0 2c 2c 5d 3e 72 e7 14 3e bf 24 2f 3e 2d 5f b8 bd
       0.21598881 0.14541414 0.17103861 -0.09002528
0001b0 b5 a0 58 3d 2b 8c 16 3e 49 56 28 3e 27 e5 99 be
       0.052887637 0.14701907 0.16439165 -0.30057642
0001c0 1d 06 26 bc 48 17 5c 3d 77 1e 38 3e e8 14 d2 bd
       -0.010133293 0.05373314 0.17980371 -0.10257894
0001d0 e0 05 bc 3d 87 ae 21 3e be fe 1d 3e 3c fa f1 bf
       0.09180808 0.15789233 0.15429208 -1.890449
0001e0 39 d2 04 c0 b8 67 05 c0 6e 1e 19 c0 ed 5c 00 c0
       -2.075331 -2.0844555 -2.3924823 -2.0056717
0001f0 63 41 7e bd 77 42 17 3e fe cd 28 be a3 16 18 be
       -0.062074076 0.14771448 -0.1648483 -0.14852385
000200 3b 50 48 3e cf 65 ce 3d c2 35 04 3e 1a 29 1b 3e
       0.19561855 0.10078012 0.12911132 0.15152398
000210 a8 fd 94 be e2 34 46 be b2 67 8b be 88 f3 42 be
       -0.29099774 -0.1935611 -0.2722755 -0.19038212
000220 58 e4 07 bf 76 f3 12 bf 4d fc d1 be 70 f9 33 bf
       -0.530828 -0.5740274 -0.41012803 -0.70302486
000230 5f 7c 2d bf 00 63 fa 3d c7 a0 89 bd 27 17 3c 3e
       -0.677679 0.12225914 -0.06720119 0.18368207
000240 53 5d fb bd 89 15 ca 3c 53 8b 87 3c 95 0b 15 be
       -0.122736596 0.024668472 0.016545927 -0.145552
000250 1b f4 31 3e 22 60 9a 3d b2 e7 d8 be a5 af df bd
       0.17378275 0.07537867 -0.4236427 -0.109221734
000260 08 61 d4 3c 3d bb 6a 3e eb 33 9e 3d 5c 1f dc 3e
       0.025925174 0.22922988 0.07724746 0.42992675
000270 79 6a ee 3e 4e 8c bd 3e 94 4b 9a be 3a 1f 24 3d
       0.46565607 0.37021106 -0.30135787 0.040068842
000280 53 ca f0 3d 81 d4 02 3e ab 04 00 3c 3a 8e 4b be
       0.1175734 0.12776376 0.007813613 -0.19878474
000290 b1 de c8 3d a7 bc 11 be 7f 7e 17 bd bf 92 1e 3e
       0.098081 -0.14232121 -0.03698587 0.15485667
0002a0 13 4c 1d bc a5 f1 78 3d 42 a7 8b be f2 ab 88 bf
       -0.009600657 0.060777325 -0.27276045 -1.0677474
0002b0 a5 d2 13 bf d9 1e 87 bf c3 c3 2a bf 55 99 39 bd
       -0.57743293 -1.0556289 -0.6670496 -0.045312244
0002c0 a9 34 d3 3d 6f 55 93 bd 46 e4 0c be 1d 69 78 3e
       0.103127785 -0.071940295 -0.13758954 0.24258848
0002d0 8a 94 74 3d 65 44 ea be ca 05 5c 3d 08 cc 19 bf
       0.05971197 -0.45755306 0.05371646 -0.6007695
0002e0 a1 a8 f8 3d 36 d5 c6 bd 99 d7 16 3e b4 04 af 3f
       0.121415384 -0.097086355 0.14730681 1.367331
0002f0 c7 c3 2f 3f 31 ca 5a 3f 1f ed 1d 3f 58 20 97 3e
       0.6865811 0.8546477 0.61689943 0.29516864
000300 0b a3 06 bd 83 86 d7 bd 7a 4b 06 3e f0 1e 25 3e
       -0.032870334 -0.10523703 0.1311473 0.16125083
000310 32 b1 f3 bd af 73 3b 3d 00 74 99 be a2 df 8a 3d
       -0.11899032 0.04576462 -0.29971313 0.06780936
000320 8f ce 00 bf d8 d9 25 3e 2c e4 8a 3d d6 6e 37 be
       -0.50315183 0.16196382 0.067818016 -0.17913374
000330 a5 0e 97 be 18 93 55 3e 74 04 3e bc 01 61 b8 bd
       -0.2950336 0.20856893 -0.011597741 -0.09002877
000340 8a 1e 8a 3d b4 2c 61 3d 09 c6 4e be 8c 97 e1 3d
       0.06744106 0.054974273 -0.20192732 0.110152334
000350 b2 ba 0a 3c e1 fb 2b 3e 77 3a 9e 3d a4 a9 41 bd
       0.008467363 0.16795303 0.07725995 -0.047280923
000360 f9 99 1e 3e f8 de 0d be 56 75 69 3e a5 8e 2c 3e
       0.15488423 -0.13854587 0.22798666 0.1685129
000370 45 5f 30 3e ea 61 3d 3f 70 c6 77 3f 61 ff b6 3e
       0.17223842 0.7397753 0.96787167 0.35741714
000380 f6 a3 43 3f 75 b0 e6 3c d3 0e 46 3d d2 52 08 3e
       0.7642206 0.028160313 0.04835398 0.13312843
000390 a5 9c 9c 3d fe af f2 3b 2a ca 06 3e 56 23 36 bd
       0.07647065 0.007406234 0.13163057 -0.044467293
0003a0 73 34 3a 3e 0f 12 4d be 36 e7 8f be 9a 3f 2b bd
       0.1818407 -0.2002642 -0.28106087 -0.041808702
0003b0 7c 9e c3 bd 15 b6 f8 3c 21 b1 87 3f 3f 07 43 3f
       -0.09551713 0.030360261 1.060093 0.7618293
0003c0 5f 6d a5 3e 05 79 84 3e de bd be 3e 59 16 dc 3d
       0.32310006 0.2587358 0.37254232 0.1074645
0003d0 c5 1d 2a 3e f5 fb c0 bd 66 9b f1 bc 21 a8 73 3d
       0.16612919 -0.09423057 -0.029493045 0.059486512
0003e0 34 1e 2a 3e 71 58 b2 bd 0a 04 b8 bd b5 58 e0 3c
       0.16613084 -0.08708275 -0.089851454 0.027386049
0003f0 71 b2 61 be eb 20 45 3e 56 42 17 be c4 88 ea be
       -0.22040726 0.19250838 -0.14771399 -0.4580747

bias f4 [100]
000000 f4 84 65 bf 95 c9 a2 3e d6 72 29 bf 94 b7 e5 3f
       -0.89655995 0.3179442 -0.6619085 1.7946649
000010 df 2d e7 3e 23 db ee be c2 b6 15 bf 71 26 fa 3f
       0.45152184 -0.46651563 -0.5848199 1.9542981
000020 db ed 14 be 59 43 2b bf c0 39 48 3f 81 cb ca 3e
       -0.1454386 -0.6689964 0.7821312 0.39608386
000030 c7 a2 5f bf b4 e5 09 3e ab 59 62 3d 25 27 bd be
       -0.87357754 0.13466531 0.055261295 -0.36943927
000040 2f da f3 3f a0 b4 04 3f 46 35 84 be 1b 5f 5c 3d
       1.9050959 0.5183811 -0.25821894 0.053801637
000050 45 b1 63 3e 18 d8 93 3e 3e c1 0e 40 ad 3d f1 3c
       0.22235592 0.28875804 2.2305446 0.029448355
000060 57 cc 41 bf 68 c4 10 bf 26 61 de 3d 88 d9 13 40
       -0.7570242 -0.5654969 0.10858373 2.310152
000070 1d f6 6b be e7 3c 8d bd c8 34 d6 3f 85 ac 19 40
       -0.23043104 -0.06896382 1.6734858 2.4011548
000080 5c 90 f8 3e 29 2f 37 40 90 0c fe 3f 8a 54 19 40
       0.48547637 2.8622534 1.9847584 2.3957849
000090 84 39 2a bf f0 07 04 bf f8 5f 00 bf dc ed e8 be
       -0.6649401 -0.5157461 -0.50146437 -0.45493972
0000a0 af b4 d5 3c 5b 97 3c bf 7e 03 84 3f 54 89 c7 3e
       0.026087133 -0.7366845 1.0313566 0.3897196
0000b0 23 bb 13 bf a3 54 a8 bd 83 bb 3a 3e 48 6c e4 be
       -0.5770742 -0.08219268 0.18235593 -0.44613862
0000c0 a8 9b 40 3f 23 9f 88 3e f7 7f 5c bd da d6 2d 40
       0.7523751 0.26683912 -0.053832974 2.7162385
0000d0 8e 59 1c 40 75 29 ac 3e 3e 8d 93 bc 18 e7 0d be
       2.442966 0.3362538 -0.018011685 -0.13857687
0000e0 18 00 71 be ab 40 42 be 9f e8 ac 3d 3d ec 1c bf
       -0.23535192 -0.18969981 0.084428065 -0.6129797
0000f0 da 87 fa be 6e 7b 2a 3f b2 22 a4 3e 14 dc 2f 3e
       -0.48931772 0.6659459 0.3205772 0.17173797
000100 3d 6d 4a 3e 71 e4 af be 1b e4 a3 be be ff 11 3e
       0.19768234 -0.34353974 -0.32009968 0.14257714
000110 b5 e9 0a be 23 a7 c8 3d 61 57 19 bf 09 d4 01 3f
       -0.13565715 0.09797504 -0.59898955 0.50714165
000120 aa ec dd 3e 0b 33 76 bd 88 c5 9b 3f 89 2b 56 3e
       0.43344623 -0.060107272 1.2169657 0.20915045
000130 12 84 db be d5 0a 13 3f f5 f6 bb 3d c6 3f d8 be
       -0.428742 0.57438403 0.09177963 -0.42236155
000140 f5 91 96 3e 94 e9 03 bf 4e 24 41 40 3f e1 7c 3f
       0.2940823 -0.51528287 3.0178409 0.987812
000150 02 1e 65 3e 4d a6 08 3e 2a 55 45 be c1 10 42 be
       0.22374728 0.13344689 -0.19270769 -0.18951704
000160 71 62 f4 3e 61 92 c7 be 44 a4 02 bf 06 aa 43 3f
       0.47731355 -0.38978866 -0.510319 0.7643131
000170 cd 30 14 40 73 69 05 bd 87 4f 86 be a9 ff b2 be
       2.3154786 -0.032571267 -0.2623255 -0.34960678
000180 15 27 44 be 7b 54 1d bf c0 cf 9e bd 36 0e d7 bd
       -0.19155534 -0.6145703 -0.07754469 -0.105007574

weight f4 [50, 100]
000000 b8 64 35 3e b4 c5 84 3d f9 6b 48 bd de 13 88 bd
       0.17714202 0.064830214 -0.048931096 -0.06644414
000010 4d 44 bd 3c 11 a2 39 be cb 61 e6 bd 95 3a 08 3d
       0.023103857 -0.1812823 -0.11249121 0.033258993
000020 fb 1c c1 bd 03 cf fc bc ab c4 73 bd de 49 a5 3d
       -0.09429356 -0.03086043 -0.05951373 0.0807073
000030 07 57 cb bd cd a5 92 3a 16 43 1c bc 3e 6d 1e 3c
       -0.099287085 0.0011188328 -0.009537479 0.0096696
000040 3e f0 17 3c 7a 8c 45 bd 62 60 64 bd 29 79 a2 be
       0.009273587 -0.048229672 -0.05575598 -0.31733063
000050 d9 e7 1f 3e 23 83 33 bc 5c 1e ff 3d 11 93 f9 3c
       0.15615787 -0.010956558 0.124569625 0.030465635
000060 df c0 92 be 95 e1 6a bd b8 24 27 3d 89 2e 20 3e
       -0.28662774 -0.057344038 0.040806502 0.15642752
000070 18 60 b0 bd 5b 11 c2 3c c0 51 90 bd ff 95 97 bd
       -0.086120784 0.023689916 -0.070468426 -0.07401656
000080 0d 5f fe bd 4e 04 2d 3e bf b6 79 3e 7e 9c a6 3c
       -0.12420473 0.16896173 0.24386118 0.020338293
000090 21 b0 77 bd 12 7e 39 bd 34 39 46 3c 0b 90 16 bc
       -0.060470704 -0.045286246 0.012098599 -0.009189616
0000a0 a8 2c 84 3d d2 c4 31 bd 45 1c a5 bc 4a 91 76 3d
       0.0645383 -0.043400593 -0.020155082 0.060197152
0000b0 89 b8 14 3d 28 8a 39 bd b7 17 0c 3e 4e c8 fa bd
       0.0363088 -0.04529777 0.13680921 -0.12245236
0000c0 df c0 3e 3e 10 71 8b 3d 7b 70 4f 3d 1c 4e 24 3e
       0.18628262 0.06808674 0.05064438 0.16045421
0000d0 2e cd a4 bb c1 8e 6b 3d f1 fd 84 3d 66 06 9e bd
       -0.005029342 0.057509188 0.06493748 -0.07716064
0000e0 bf 68 d3 bd 46 b1 89 3c 54 49 b1 bc 11 4a 14 be
       -0.10322713 0.016808163 -0.02164141 -0.14481379
0000f0 46 17 74 bd 37 07 21 3d 70 01 26 bd 6e a7 27 3d
       -0.059592508 0.03931352 -0.040528715 0.040931158
000100 43 61 71 3d bd 01 5d 3e c1 ff 8d bd 41 25 29 3c
       0.058930647 0.21582694 -0.06933547 0.010323823
000110 06 27 d9 bd ed 51 67 bc 93 63 1e bc 01 09 24 3d
       -0.10603146 -0.014118654 -0.009667295 0.04004765
000120 45 c4 2d 3e 57 13 cf bd b1 23 a4 3d b5 dd 5b 3d
       0.16969402 -0.10111111 0.0801462 0.053678233
000130 c6 62 91 3d 1c 16 11 3d 20 57 cd 3d e3 c7 09 3d
       0.07098918 0.035421476 0.100263834 0.033637892
000140 e5 80 86 bd 41 52 10 be d7 d7 04 3e 53 49 14 be
       -0.065675534 -0.14093877 0.12972961 -0.14481096
000150 4c 40 b5 3d 31 40 ed 3b 78 5a e6 3d f2 6a 87 bd
       0.08850154 0.007240318 0.11247724 -0.06612195
000160 f4 e0 a6 3d 2f ec 7a 3d 9d 05 c7 bd 2e d7 8d bd
       0.08148375 0.0612604 -0.097178675 -0.06925808
000170 39 a7 24 bd ef 6d f6 3c f9 5e 9c bd 3d 96 e9 bc
       -0.04019854 0.030081717 -0.07635302 -0.028514022
000180 7e 8b ed bc 69 4d 05 be 66 98 dc bb e2 d2 6a 3d
       -0.02899718 -0.13017811 -0.0067320345 0.05733002
000190 3b 44 17 3d d5 74 9b 3b 29 3b 80 bc 87 09 bf bd
       0.036930304 0.004744152 -0.01565321 -0.09327989
0001a0 13 f0 db bd 9a 6f bb bd 7c 1c 40 bd 86 6e c2 bd
       -0.1073915 -0.09152146 -0.046902165 -0.09493737
0001b0 d4 55 93 3d ae 9d 1e 3c 71 bc 81 3d 1a b5 68 3d
       0.07194105 0.009681148 0.063347705 0.056813337
0001c0 dd 0c 9a bc ac e9 84 bd b3 cc ae bd b7 56 92 3d
       -0.018804962 -0.06489882 -0.08535137 0.07145446
0001d0 56 7b d3 bd 00 69 27 3d eb 85 91 bd d4 ea b8 bc
       -0.10326259 0.04087162 -0.07105621 -0.022572912
0001e0 b4 aa 92 3b 85 d3 d1 bd 58 ab 60 bc dc 98 4d 3d
       0.004475916 -0.10245422 -0.0137127265 0.050194606
0001f0 9c b7 03 3c 3b 0e 02 3c 1a b6 c7 bd 93 51 cb bd
       0.008039381 0.007937963 -0.0975153 -0.099276684
000200 91 88 c5 bd 2d 7f ee 3c d5 76 4e bd b2 7d 30 3c
       -0.096451886 0.029113377 -0.050406296 0.010772156
000210 fa 93 c6 bd 18 f2 c0 bd 65 03 af bd 13 0d b1 3c
       -0.09696193 -0.09421176 -0.08545569 0.02161268
000220 45 ff c6 bd e8 17 8f bd a1 e8 b5 bd da af b3 bd
       -0.097166575 -0.06986982 -0.08882261 -0.087737754
000230 5a 5e a6 3d 04 c0 7f bd de 9f 94 3d 64 42 a4 3d
       0.08123465 -0.06243898 0.07257055 0.080204755
000240 6b 0d 51 bc 16 40 08 bc dc d7 98 bc a2 8d a6 bc
       -0.012759547 -0.0083160605 -0.018657617 -0.020331208
000250 d5 ab 83 3d 8a 92 90 3d ba 40 c3 bc 23 46 f2 bc
       0.06429259 0.070592 -0.023834575 -0.02957446
000260 45 bc c0 3c b0 8c ad 3d 1c 48 c3 bd 8c 35 6e 3d
       0.023527274 0.084741 -0.09535238 0.058156535
000270 49 6b 54 3d cb 87 2b 3d ea 99 a0 bc fa fe 8f bd
       0.051860128 0.04187755 -0.019604642 -0.07031055
000280 37 96 a4 bc 6b 74 61 bc a0 47 d1 bd 4b 1e 6e 3b
       -0.02009116 -0.013760666 -0.102187395 0.0036333974
000290 c9 38 b5 bd 69 e1 7f bc 38 77 c3 bd 83 a0 0a bc
       -0.088487215 -0.015617707 -0.095442235 -0.008461121
0002a0 66 7a 41 bd 4d 59 86 3c ea 4b c4 bb 84 96 39 bd
       -0.04723587 0.016400004 -0.005990495 -0.04530956
0002b0 80 3c 58 3d c7 9a d8 3c ff 50 3a bd 08 7c d7 bd
       0.052792072 0.026440991 -0.0454874 -0.10521704
0002c0 d1 f3 df 3c 3b be 82 bc 27 b8 3a 3d 7f 57 f3 bb
       0.02733794 -0.01595985 0.045585778 -0.007426202
0002d0 4c fd d1 3c 6a 72 1d bd 45 61 c5 bd b6 5c d4 bd
       0.025633477 -0.038439192 -0.09637693 -0.10369246
0002e0 64 f3 a8 bd 98 1b e6 bd c6 5b fa 3c d1 72 c8 bd
       -0.08249548 -0.11235732 0.03056134 -0.097875245
0002f0 d5 13 57 bd 5f fb 42 bd 17 4d 09 3d b7 6f c5 3c
       -0.052509148 -0.047603007 0.033520784 0.024101121
000300 64 57 72 3c 7d 3b c4 3d df 24 c3 3c ec b9 7e bc
       0.014791343 0.09581659 0.023821292 -0.015547257
000310 f7 69 24 bc dc cd c6 bd 9c 79 5b 3d d7 a7 7f 3d
       -0.01003503 -0.09707233 0.053582773 0.062415924
000320 f4 b8 32 3e 37 8b fa bc ce 5e 33 3c 32 c3 6d bd
       0.17453367 -0.030583961 0.010947896 -0.05804748
000330 18 5b fa 3c a5 d6 9e bd c2 c8 85 bd 8e cb b4 bd
       0.030561015 -0.07755784 -0.06532432 -0.088278875
000340 a6 ef 05 be 3a 09 84 3d 27 31 8b bc 32 6a 2c bc
       -0.130797 0.06447072 -0.016991211 -0.010523366
000350 cd 32 53 bd 2a 5e 89 3d 6d b3 7b bc 51 d5 95 bd
       -0.05156212 0.067074135 -0.015362603 -0.073160775
000360 99 52 0e be 9d 35 53 bc 7d f3 01 be 55 08 d8 3c
       -0.13898696 -0.0128912 -0.1269054 0.02637116
000370 d1 72 8c bc c5 57 48 3c 2a 91 4a be 2e c6 a9 bc
       -0.017144592 0.012227957 -0.19781938 -0.020724382
000380 82 53 76 3d 8c c2 7d 3d 56 d6 16 be b4 f6 03 3e
       0.060138233 0.061953112 -0.147302 0.12887079
000390 7c 03 0a 3d f6 99 9b bd 5c 4e ac bc 2f 67 3d 3d
       0.03369473 -0.07597725 -0.021033458 0.04624098
0003a0 c3 2d be bd bc f6 1e be cc d0 ea 3c aa 34 b3 bd
       -0.09286072 -0.15523809 0.028664015 -0.08750279
0003b0 3e 83 9b 3b ff 07 26 3d 9d 3c 41 bd c4 84 29 bd
       0.00474587 0.04053497 -0.047176946 -0.04138638
0003c0 1c 70 a5 3d 77 21 1e bd 41 10 00 bc d7 88 a6 bd
       0.08078024 -0.038606133 -0.007816375 -0.08131569
0003d0 58 c0 d3 3d 00 c0 d7 3c 32 67 30 be da c0 d7 bd
       0.10339421 0.02633667 -0.17226866 -0.105348304
0003e0 fe 26 8d 3c b2 a9 60 3c 22 ad a7 bd 09 6d f6 bd
       0.017230507 0.0137123335 -0.08187319 -0.120325156
0003f0 9d f5 a9 bd f8 50 16 3d 72 bb ba bd a1 16 40 be
       -0.082988 0.03669831 -0.091177836 -0.18758632

bias f4 [50]
000000 a2 d0 37 3f 26 e4 b4 bd 71 6a 2c 3c d4 19 81 bf
       0.71802723 -0.08832578 0.0105234245 -1.0086007
000010 6a 8e 06 3f 6f dc f8 bd 63 84 93 be 75 35 cf 3e
       0.52561057 -0.12151419 -0.2881194 0.40470472
000020 10 5c 10 be f8 0e 99 be df 58 d3 be cb 33 92 3e
       -0.14097619 -0.29894233 -0.4127874 0.2855514
000030 b8 37 ac 3d f5 db 95 bd ba e9 72 bc 52 5d 14 be
       0.08409065 -0.07317344 -0.014826233 -0.14488724
000040 84 0c e8 be 84 4d 83 bd 14 3f 6a 3f b2 4b 0e 3e
       -0.4532205 -0.06411269 0.915025 0.13896063
000050 2d 61 54 be 9d b9 89 3b 88 f8 b5 bc 55 25 96 3f
       -0.20740195 0.004203035 -0.022213235 1.1730143
000060 ba 5f 92 be fc de d8 be 94 d1 ba be 66 86 1e 40
       -0.2858866 -0.42357624 -0.3648802 2.476953
000070 0d 5f 0e 40 f7 37 a8 3d 1b 15 13 3e ac 0c 06 3d
       2.2245514 0.082137994 0.1436352 0.03272693
000080 11 29 da be f0 e7 88 bd d5 ea bd bd cb e0 02 3e
       -0.42609456 -0.066848636 -0.09273306 0.12781064
000090 6d c2 8e bd c4 0b c9 3c be 65 27 bf d4 ad 15 be
       -0.069706775 0.024541743 -0.6538962 -0.14617091
0000a0 5a 8d f3 bd fa 23 1f 40 a1 2d 25 bd d1 96 6b 3d
       -0.11892195 2.4865708 -0.04032672 0.057516877
0000b0 64 6e bc 3e d5 43 84 3f 3b c3 cd 3f 79 1f 12 bd
       0.3680297 1.0333201 1.6075205 -0.035674546
0000c0 5e 51 f9 be 56 48 7d 3e
       -0.4869489 0.24734625

weight f4 [20, 50]
000000 49 e6 de 3d bd f7 31 3d af 0a 95 3d 22 4f 0b be
       0.10883767 0.043449152 0.07277428 -0.13604406
000010 93 5f af 3d 11 9a cd bc 6b f8 aa 3d 00 aa ac 3d
       0.08563151 -0.025097879 0.08348163 0.084308624
000020 99 7d da bc dd 6b 59 be b9 10 08 be a0 34 54 bd
       -0.026671218 -0.21232553 -0.13287629 -0.051808
000030 e2 a6 87 3d e1 8a 68 3d 9c 73 29 be 99 03 41 bd
       0.06623627 0.05677307 -0.16548008 -0.04712257
000040 01 79 2f be 1b ff 09 bd bb 8a 28 3c b8 3a 85 3c
       -0.17136003 -0.033690553 0.010286982 0.01626335
000050 77 e0 0b bc a7 40 97 3d a0 67 b1 bd 91 fd a6 3d
       -0.008537403 0.07385378 -0.08662343 0.08153833
000060 8c c3 b2 bb 45 8a 39 3e e1 69 d1 bd a5 6c 82 3e
       -0.00545544 0.18119152 -0.10225273 0.25473514
000070 30 3b 1a 3e 9a b2 9a 3d 76 d8 ca bc cc a3 6b 3d
       0.1506164 0.07553597 -0.02476142 0.057529256
000080 da 9c b6 bb e8 76 b5 bd d8 f8 38 bd 69 0d 01 3c
       -0.0055728974 -0.0886057 -0.04515919 0.007876732
000090 02 6e b2 3c b0 8a cf 3d 7d 4a 45 be 29 0d 68 3d
       0.021780971 0.101338744 -0.19266696 0.056653176
0000a0 35 66 1d 3e 11 d5 04 3f f2 15 c4 3c 5a 64 eb 3c
       0.1537102 0.51887614 0.023936246 0.028734375
0000b0 dc 86 3d 3e 52 3d 30 bd 9d 32 2c 3e 18 a9 33 3d
       0.18508476 -0.04302723 0.16816182 0.043862432
0000c0 00 bc 7b be a8 39 27 3d a4 33 8c 3d 10 9b e8 bd
       -0.24583435 0.04082647 0.06845787 -0.11357701
0000d0 17 a7 a3 3c e9 dd b0 3d 56 b8 e3 3d 9c eb e2 bd
       0.019977136 0.08636076 0.11119144 -0.11080095
0000e0 98 eb 13 be 5e 8e 8f be 7d c5 21 be 97 00 59 3d
       -0.1444534 -0.28038305 -0.15797992 0.05297908
0000f0 f6 d7 0c be d0 09 c4 bd dd ad b1 3d 19 7e f3 3c
       -0.13754258 -0.09572184 0.0867574 0.029723214
000100 91 dd e3 bd b1 ff 18 be 77 96 38 3d 88 02 69 3d
       -0.11126245 -0.14941289 0.04506537 0.05688718
000110 16 c1 bf bd 15 36 91 3d 3e 36 44 bd 73 c9 35 be
       -0.09363 0.070903935 -0.047903292 -0.17752628
000120 9e f5 5f 3d 12 be 00 3e d9 78 7a be 82 1e 00 3d
       0.0546776 0.12572506 -0.24460162 0.031279095
000130 c6 26 0a bc 42 b4 15 be 71 d6 cf bd 5c 2e b7 3d
       -0.008432096 -0.14619544 -0.10148323 0.08944389
000140 71 b4 6b 3d 55 d8 a6 3c 73 c4 66 be b5 43 ce bd
       0.05754513 0.020366827 -0.22535877 -0.10071508
000150 1b 93 20 3d f5 ed b9 bc b2 d6 2a bb 97 e7 5e bd
       0.03920279 -0.022696475 -0.002606791 -0.05442008
000160 51 4e c7 3d 91 6f 1c bd af aa ee 3d a4 fd 7f 3d
       0.097317345 -0.038192336 0.11653649 0.06249775
000170 cd 14 3e bd 43 6c 61 bc 2f 84 32 bd 84 0a 97 3d
       -0.046406556 -0.013758722 -0.04358309 0.073750526
000180 83 26 af 3d 58 6e 97 bd ae 56 00 be 88 c8 75 be
       0.085522674 -0.07394093 -0.12533066 -0.24002278
000190 e6 a8 4f 3d 15 8f 23 3d 5c 0a b1 3b d8 96 32 bd
       0.050698183 0.039931376 0.0054028463 -0.043600887
0001a0 cf 91 17 3d 57 fe 10 be 8f 51 f6 3c a1 f8 60 3e
       0.03700429 -0.14159523 0.030068187 0.21969844
0001b0 28 2f 10 be 21 63 cb bd 5d 1b 71 bd 8b 67 fb 3d
       -0.14080489 -0.09931017 -0.058863986 0.12275609
0001c0 8f e3 aa bd 85 45 77 3d 69 f7 4c be e0 db c6 bd
       -0.083441846 0.060369033 -0.20016254 -0.097099066
0001d0 27 c4 91 bd 04 cb 06 3e 65 83 94 3d 54 8b 26 3d
       -0.07117491 0.13163382 0.07251624 0.040660217
0001e0 2d b4 2e 3d 2f 1d 76 3d df 96 3b 3b dc d6 07 3d
       0.042652298 0.060086425 0.0028623862 0.03316389
0001f0 f0 2f 96 bc dc 90 b7 bd b7 87 84 3d 07 53 62 3e
       -0.018333405 -0.089631766 0.06471198 0.22101985
000200 25 bd a4 bc 49 f2 ab bd 60 6e 86 3d 92 c6 4e bd
       -0.020109722 -0.083958216 0.06564021 -0.05048234
000210 99 ac de bd 82 9a d8 bd 11 c6 9d 3c 03 1e 0f 3e
       -0.10872764 -0.10576345 0.019259484 0.13976292
000220 0a 99 ab 3d bc 6b c8 3d fd 44 37 be dc 5f de bd
       0.08378799 0.09786174 -0.1789741 -0.108581275
000230 1c 8d cf 3d 6e 43 bc 3e 69 06 85 bd 44 8b d2 3d
       0.10134336 0.36770195 -0.06495363 0.10280469
000240 5b c8 1d 3d fa 32 99 bd 89 18 d7 3d 8a dc ae bd
       0.038521152 -0.07480426 0.105027266 -0.08538158
000250 81 64 89 3d 13 36 ae 3d f0 ec a1 bc 88 aa 02 be
       0.06708623 0.085064076 -0.0197663 -0.12760365
000260 1e 44 e7 3d 21 4e b4 bb c3 cb 89 3c 35 51 13 bd
       0.11292289 -0.0055024778 0.016820794 -0.035966117
000270 39 f6 7d 3d c5 2c a0 bd 61 9a 2b bd 45 93 9c 3d
       0.062002394 -0.07821039 -0.041895274 0.07645277
000280 76 3c 0c ba 24 c6 a4 bc 0d 10 10 be 07 9c 9c bd
       -0.00053495856 -0.020114012 -0.14068623 -0.07646947
000290 0e 08 b3 3d 9b a2 4e bc 4d 9c 88 3d 23 88 f7 3d
       0.08741771 -0.01261201 0.06670437 0.12086513
0002a0 8f fd 92 3d 34 25 47 3d 4e 3b c7 bd c7 bd 27 3d
       0.07177269 0.048619464 -0.09728108 0.04095247
0002b0 d4 37 ee 3d 1e 76 93 bd e2 bc 3b bc 87 6d 9c 3d
       0.11631742 -0.072002634 -0.011458607 0.07638078
0002c0 1c 56 06 bc a5 e6 55 be 15 0c e5 bd 0d fd d2 bc
       -0.008199241 -0.20888765 -0.11183945 -0.02575543
0002d0 83 d0 18 be 9d 57 29 3e b6 2c 41 3d 62 dc da 3d
       -0.14923291 0.16537328 0.04716178 0.10686566
0002e0 71 e4 aa bd a0 80 d7 bd 82 68 04 be 16 c3 3e bc
       -0.08344353 -0.1052258 -0.12930492 -0.011643192
0002f0 83 14 ab bd 81 0e f0 3d ce c1 d9 bd a5 cb 50 bd
       -0.08353522 0.117215164 -0.106326684 -0.05097546
000300 ba a1 a6 3b c4 ad 88 bc 62 3b 6e 3d c1 10 d1 3d
       0.0050851973 -0.01668442 0.0581621 0.10208274
000310 62 e3 94 be 1d f8 91 bd 02 2c 25 3e 59 7d 78 3d
       -0.2907973 -0.07127402 0.16130069 0.060666416
000320 c5 6b ea 3d 3f ef 29 bd 26 60 5d bc d6 e9 a0 3d
       0.11446337 -0.04148793 -0.013511693 0.07857101
000330 d7 d1 de 3d fd c4 f0 bd 79 09 41 be 1f 7d 0e 3e
       0.108798675 -0.117563225 -0.1885127 0.13914917
000340 47 79 b5 3d bb 14 e4 3d 4f bb 15 be 22 67 8a bd
       0.088610224 0.111367665 -0.14622234 -0.06757952
000350 66 e3 ed bd 47 16 c5 bd 6c 47 92 bd 52 5b 4f bd
       -0.116156384 -0.0962339 -0.07142529 -0.0506242
000360 1c c9 b7 bd d2 5d cf 3d a6 3a f9 3d f3 11 8d bd
       -0.089739054 0.10125317 0.121693894 -0.06888189
000370 94 67 f2 3c 6f 8b 68 3d c8 c9 17 3d d4 e2 f4 3d
       0.029590406 0.0567736 0.037057668 0.119573265
000380 ec 5a aa 3d a2 16 99 bc 03 34 ff bd d9 56 a6 3d
       0.08318123 -0.01868755 -0.12461092 0.081220336
000390 54 e1 44 be 98 94 88 bd 51 29 58 bd 4a 8e 6e 3c
       -0.19226581 -0.06668967 -0.052773777 0.014560292
0003a0 0c 5d 80 3d 15 26 f4 bc e0 33 f3 3c d4 70 f2 bd
       0.06267747 -0.029803315 0.029687822 -0.118379265
0003b0 d9 84 e1 3d 0a be c6 3d 38 c3 89 3c 3c 64 20 bd
       0.11011667 0.09704216 0.01681672 -0.03915809
0003c0 4a f7 c7 3c c6 a6 07 be 5e f3 60 3d d5 18 11 3d
       0.024409909 -0.13247213 0.054919593 0.035424072
0003d0 1f 88 7c bb 26 10 a6 bd 11 d4 4a 3d 40 dd 9a 3d
       -0.0038533283 -0.08108549 0.04951865 0.07561731
0003e0 17 55 f9 3d 81 ae a9 ba 4f 05 7e 3d 31 19 14 bd
       0.12174433 -0.0012945683 0.06201678 -0.036156837
0003f0 1e fb a5 bd 3a 9d a5 bc 4b f5 05 be 60 42 df bd
       -0.081045374 -0.020216573 -0.13081853 -0.10901332

bias f4 [20]
000000 d0 cb f8 3c 33 56 85 3d 0b 5b 8b 3e d3 40 03 3d
       0.030370623 0.06510582 0.27217898 0.032044243
000010 c1 eb 67 be 6b 23 94 3e 2e 30 0b bf e2 5a bf 3e
       -0.22648527 0.28933272 -0.5437039 0.37374026
000020 76 da 85 be a1 48 98 bf 13 10 96 3d 14 58 e8 be
       -0.26143235 -1.1897165 0.07327285 -0.45379698
000030 34 9a 5c be 6d 6f 11 be 52 ce 64 bb 3c 10 51 be
       -0.21543199 -0.14202662 -0.0034913016 -0.20416349
000040 2a 16 7b 3e ff 97 c3 be 4c 92 59 be dd 22 f5 bc
       0.24520174 -0.382019 -0.21247214 -0.02992385

weight f4 [16, 20]
000000 ad 4a 32 be 0c 89 cd bd 7a d8 2f be 2a f8 e9 3d
       -0.17411299 -0.10035905 -0.17172423 0.11424287
000010 c9 28 17 3e 4a 86 19 3e 68 32 66 be e6 55 f3 3d
       0.14761652 0.14992633 -0.22480166 0.11881618
000020 29 34 0a bd d0 ab 69 be 30 9c 4d be 56 27 4f 3c
       -0.03374115 -0.22819448 -0.20079112 0.012643656
000030 85 9e 0e be 34 d2 a1 bd 71 d0 20 3d a1 ad 09 be
       -0.13927658 -0.07901421 0.039261285 -0.1344514
000040 77 09 11 3d 7a 7b d4 3d 28 00 5b 3d 53 a2 02 3e
       0.035409417 0.10375114 0.053466946 0.12757234
000050 0e e1 db bc 2c dd 63 bd 48 7c de bd 42 d9 a9 bc
       -0.026840713 -0.055630848 -0.108635485 -0.02073348
000060 42 fe 08 3e c2 53 08 3e 94 18 0d be 3d 98 e6 3d
       0.13378242 0.13313201 -0.13778907 0.11259506
000070 dc b2 7c ba 6e 7d 8c be 53 3b 53 be ff 94 29 3e
       -0.0009639689 -0.27439445 -0.20628099 0.16560744
000080 6b b4 e0 bc 65 ad ed bd 8f 61 19 be c9 8a 86 bd
       -0.02742978 -0.11605338 -0.14978622 -0.0656944
000090 3d f4 69 bd 40 ce 16 3c 2d 5c 7b bc d8 ca 17 3e
       -0.05711769 0.009204447 -0.015341801 0.14823472
0000a0 10 ad 01 be ce d7 c3 bd 50 18 31 be 33 7c cf bc
       -0.12663674 -0.09562646 -0.1729443 -0.025327777
0000b0 d1 9d 83 bd f5 dd 83 bd 81 10 f6 3d 32 98 a7 3d
       -0.064265855 -0.06438819 0.120148666 0.08183326
0000c0 7b 98 8a 3d c1 54 31 3e 61 ca 04 be 3c 10 55 3d
       0.067673646 0.17317487 -0.12967826 0.052017435
0000d0 ed 6b 3d be c5 ad 45 3d f1 de bd 3d f0 8a 69 bb
       -0.18498202 0.048261423 0.09271038 -0.0035635792
0000e0 fc da 09 3e 59 69 0f be 48 3a a1 3d 19 b2 d9 3b
       0.13462442 -0.1400503 0.078724444 0.0066435453
0000f0 8b cf 14 be 7f 50 62 3d 29 b5 0f 3e 9e 9e 1f 3e
       -0.14532296 0.05525255 0.14033951 0.15587851
000100 85 2c af 3d af 6f 0d 3e da 08 e4 3d 99 d2 63 3d
       0.08553413 0.13812135 0.11134501 0.055620763
000110 63 28 61 3e 79 10 b3 bd 00 83 5a be 59 29 1d 3e
       0.21988063 -0.08743376 -0.21339035 0.15347804
000120 b5 51 96 bd 7b fd 49 3e 9e db 2f bb 06 7c bf 3d
       -0.07339803 0.19725601 -0.0026833783 0.093498275
000130 94 9c 21 3d 8c 1a c3 bd d4 5d 77 bd 4f 67 c9 3d
       0.039455965 -0.09526548 -0.060392216 0.09834158
000140 ec 8b de bd 60 0d f8 bb fa 56 df 3d 81 55 14 bd
       -0.10866532 -0.007569954 0.10905261 -0.036214355
000150 9c e1 e8 3d 24 77 94 3d 55 24 e6 bd 01 9a a8 3c
       0.113711566 0.07249287 -0.112373985 0.020581247
000160 e7 d3 81 3d 4c 3a 24 3e 2d a7 f6 bc 64 58 8b 3c
       0.06339245 0.16037863 -0.030109012 0.017009921
000170 18 98 2a be 12 03 5e 3e 8a 52 86 bd 2b eb 00 bd
       -0.16659582 0.21680859 -0.06558712 -0.031474274
000180 a5 1f 5e be 8e d7 19 3d a1 58 35 bd c3 c9 fa 3c
       -0.21691759 0.037559085 -0.044273976 0.030613786
000190 e9 7c db 3d 9f 4d 06 bd 2c 7f 3c be 0b 3c c2 bd
       0.10717184 -0.03278887 -0.18407887 -0.094841085
0001a0 f6 47 33 3e df f6 48 bc 37 be c0 bd 1c 5f 32 be
       0.1750792 -0.01226589 -0.094112806 -0.17419094
0001b0 2a 0d 3d 3d ad b0 05 3e cb 55 4c 3e a7 63 5d 3e
       0.046155132 0.13055678 0.19954602 0.21620046
0001c0 74 05 62 3d 27 ab 60 3e 3a e9 46 be 5c c7 37 3e
       0.05518098 0.2194029 -0.19424906 0.17947143
0001d0 59 4d 3c be 51 58 28 be a9 eb 2c be ca 16 07 3e
       -0.18388881 -0.1643994 -0.16886772 0.13192287
0001e0 b5 60 c8 bd 41 24 50 3e 0e 65 35 3e 66 0a ff 3d
       -0.097840704 0.2032633 0.1771433 0.12453155
0001f0 15 a2 2a 3e 0d b9 b0 3b 09 ea 2e be ea 09 41 be
       0.16663392 0.0053931535 -0.17081465 -0.18851438
000200 92 45 a1 3c e6 40 11 3e 8d 8d 5b 3d b8 63 be 3d
       0.019686494 0.14184913 0.05360179 0.092963636
000210 de 75 15 be 26 f2 1f be 74 28 75 bd 77 a5 76 3d
       -0.14595744 -0.15619716 -0.059853032 0.060216393
000220 4c 11 f2 bd 8b 1c 78 bd da 0e 68 be c1 9e 9c 3c
       -0.11819705 -0.060574096 -0.22661915 0.019118669
000230 4f 7a 39 3e ec c5 35 be 19 f4 56 3d d0 e5 9c 3d
       0.18113063 -0.17751282 0.052478883 0.07661021
000240 4c 56 16 3e c8 d9 08 be 7f f9 48 3e 83 70 d1 3d
       0.14681357 -0.13364327 0.19626425 0.10226538
000250 7e 1a a8 ba 4a ad 8e 3e 9a 60 02 3e 16 a8 20 3e
       -0.0012825278 0.27866584 0.12732163 0.1568912
000260 50 e1 51 3d 1e 85 3d bd 39 f8 bc bd 1c 4e 3e be
       0.051240265 -0.04626953 -0.09227032 -0.18584484
000270 f0 2e aa 3d 4c 0d 1f 3e 95 7e 3b 3e 61 5e ec 3d
       0.08309734 0.15532416 0.18310006 0.11541439
000280 ee 74 c5 3d 56 ed c3 3d c9 49 1a 3d 7f e9 af 3d
       0.09641443 0.095667526 0.037668023 0.08589458
000290 46 8b 97 bb 01 53 58 bd 88 b9 3d be fb 14 df 3d
       -0.004624757 -0.052813534 -0.18527806 0.108926736
0002a0 2b c7 1e bb df dc 56 be d3 53 9a bd c7 12 a4 3d
       -0.00242276 -0.20982693 -0.075355195 0.08011394
0002b0 e0 e7 03 bd e1 2d 20 3e 5b 9d ef bc c0 5c df 3d
       -0.032203555 0.15642501 -0.029249838 0.109063625
0002c0 98 1b 39 3e ed ff 8d 3d aa e4 33 bd a2 e0 aa bd
       0.18076932 0.069335796 -0.043919243 -0.083436266
0002d0 41 94 1a be c6 8e 14 3d f5 bc 37 be 70 62 26 3e
       -0.15095617 0.03626897 -0.17943175 0.16248488
0002e0 9a 0c 4b 3d 73 7a 28 be 0f 71 1e be 2f df d1 3d
       0.049572565 -0.1645296 -0.15472816 0.10247647
0002f0 3e 62 1f be 79 bc 51 3d 36 a0 10 3a ed 7a 96 3d
       -0.1556482 0.051205132 0.00055170374 0.07347665
000300 f6 ff 81 bd d9 39 b6 3d ce b5 e8 bc eb 20 2c 3d
       -0.06347649 0.08897752 -0.028407004 0.04202358
000310 e5 bc 02 be 8d a9 30 be 71 2b 5b bd 43 e3 ce 3d
       -0.1276737 -0.17252178 -0.053508226 0.101019405
000320 a6 69 5b be f7 dd e1 bd fa 80 cb bc 35 8a d9 bd
       -0.2142702 -0.110286646 -0.024841774 -0.10622064
000330 a6 0f 62 bd da 67 95 3c 57 e9 62 bc 7d c1 a7 3d
       -0.055190705 0.018237997 -0.013849578 0.08191202
000340 ef c3 6d 3d 9a 53 3a 3d b7 48 28 3e 95 5d 32 bd
       0.058048185 0.045489885 0.16433989 -0.043546278
000350 b0 f6 00 be 5a 2c 4f bd 38 c8 98 bd fb 95 aa bd
       -0.12594104 -0.050579406 -0.07460064 -0.08329388
000360 3d be 57 be e7 8e 5e be 3d d0 ea 3d 06 fc cf 3d
       -0.21068664 -0.217342 0.114654996 0.101554915
000370 fb e5 9b bd ce 2f 83 bd 50 89 85 bd 84 b8 55 3e
       -0.07612225 -0.064056024 -0.06520331 0.20871168
000380 9d db d6 bd 0e 08 23 be 43 d7 4e 3e 0d 7d 03 be
       -0.10491107 -0.15921041 0.20199303 -0.12840672
000390 2b d5 0d be 2e 89 81 bb 6b 27 09 3d 5e b4 fd bd
       -0.13850848 -0.0039531207 0.033484858 -0.12387918
0003a0 a7 b0 25 bd 70 8e d3 bb a5 65 0a be 71 09 ea bd
       -0.040451672 -0.006456189 -0.13515337 -0.11427582
0003b0 f9 dc 54 3d 22 a1 fe 3a ba e2 1e be 35 9b 00 bd
       0.05196855 0.0019426683 -0.15516177 -0.031398017
0003c0 b2 90 5d be e5 6a 54 3e f4 55 b3 bd 31 8d fe 3d
       -0.21637228 0.20743902 -0.08756629 0.12429274
0003d0 fd 45 38 3e e9 92 a8 3d 1a 36 8f bc 77 31 5d be
       0.17995448 0.08231146 -0.017481852 -0.216009
0003e0 08 22 ec 3d 09 54 2e 3e b3 0a 83 bd 14 5d dc 3d
       0.115299284 0.17024244 -0.06398525 0.10759941
0003f0 9f 69 1f be ea 58 28 3e d9 83 12 bd 3b 84 93 bd
       -0.15567635 0.16440168 -0.03577027 -0.07202955

bias f4 [16]
000000 da 2e c8 3e f1 f9 ac 3e 1d cd 0b be 22 2f 8d be
       0.39098245 0.3378444 -0.13652463 -0.27575022
000010 3b a1 bc be ef 4d 5e bd 62 5b 9c 3c 1c 12 0d be
       -0.3684176 -0.054273542 0.019086543 -0.1377644
000020 6c 8b b8 3d 15 01 d2 bd 57 bd b1 be a5 8e de 3d
       0.090109676 -0.10254113 -0.34714767 0.10867051
000030 71 33 dd bd 54 1c 54 3c a1 0a 32 3d 40 ec cf be
       -0.10800827 0.012946207 0.043467168 -0.40609932
