runs/20250317_150257/vflAggregator.pt (torch, 3249 bytes, 1 tensors)

weight f4 [1, 32]
0.06529003 0.13102858 0.019834433 -3.1379354e-06 -0.030944508 -0.15315107 -0.04271912 0.13583112
-0.03496972 -0.039329324 0.09478052 0.16731116 0.0967453 0.0030075102 -0.18225564 -0.00581994
0.016677868 0.08299181 -0.00044297145 -0.06621978 -0.007641721 -0.044587642 -0.009658524 -0.13852084
0.03231607 -0.10957448 -0.13861643 0.0076551028 -0.11001016 0.002333477 0.0034599137 -0.14309615
00000000: c7b6 853d 5b2c 063e d27b a23c 5295 52b6
00000010: 567f fdbc a2d3 1cbe 3efa 2ebd 5017 0b3e
00000020: 693c 0fbd c917 21bd 4a1c c23d 9e53 2b3e
00000030: 6622 c63d a619 453b 39a1 3abe 32b5 bebb
00000040: 06a0 883c 9cf7 a93d 9f3e e8b9 3c9e 87bd
00000050: 6767 fabb 88a1 36bd c93e 1ebc 68d8 0dbe
00000060: db5d 043d 9668 e0bd 77f1 0dbe a8d7 fa3b
00000070: 024d e1bd 3fed 183b b8bf 623b cc87 12be
