runs/20250317_150514/lrLocalModel.pt (torch, 4978 bytes, 2 tensors)

weight f4 [16, 6]
0.16716169 -0.38199827 0.035192344 0.03034729 -0.045420643 6.524338 -0.35805756 -0.40892768
0.0883344 0.39047098 -0.05896018 -6.9279766 -0.07431162 0.413156 0.15173952 -0.2531384
0.2866691 6.9729657 -0.321672 -0.20263438 0.022003196 0.40321818 -0.14271367 -6.728384
0.30043194 -0.2644112 -0.4844036 -0.5851242 0.36915448 6.854579 -0.38572243 0.23092549
-0.0005013138 -0.45819274 -0.196828 6.5552206 0.03827347 -0.07249357 0.30494395 -0.35322192
-0.6682386 -6.409153 -0.0597982 -0.23529725 -0.5960369 -0.40672654 0.06899654 6.6227283
-0.32912257 -0.04727921 0.25398383 -0.01613642 0.2441619 -6.5483828 -0.16773403 -0.021261819
-0.52331394 0.29792315 -0.20743333 6.4017925 -0.08120558 -0.1354682 -0.47363448 -0.38569382
0.49256837 6.865213 0.28737074 -0.018901953 0.41331312 0.28133923 -0.24433336 -6.6660204
0.28232145 -0.2600753 0.30078956 0.25779203 0.30910844 -6.891236 0.12020715 -0.1679322
-0.22416674 -0.07411691 0.3053069 6.6937323 -0.0766011 -0.02098458 0.6595645 -0.19819678
0.25442752 -6.479258 -0.09111314 0.11162208 -0.22629227 0.090386465 0.22857094 6.419468
00000000: 6f2c 2b3e 4795 c3be d925 103d e19a f83c
00000010: ff0a 3abd 60c7 d040 5253 b7be f85e d1be
00000020: aae8 b43d d0eb c73e 3b80 71bd fcb1 ddc0
00000030: b130 98bd 2f89 d33e 9b61 1b3e 5b9b 81be
00000040: 4bc6 923e 8922 df40 31b2 a4be 637f 4fbe
00000050: 0c40 b43c 9d72 ce3e 8823 12be ec4e d7c0
00000060: 37d2 993e e860 87be c003 f8be b3ca 15bf
00000070: d101 bd3e b658 db40 697d c5be bb77 6c3e
00000080: 9a6a 03ba 3d98 eabe 478d 49be 5ec4 d140
00000090: a4c4 1c3d 8277 94bd 9d21 9c3e 81d9 b4be
000000a0: af11 2bbf c817 cdc0 f5ee 74bd c3f1 70be
000000b0: e095 18bf 763e d0be 0f4e 8d3d 64ed d340
000000c0: c182 a8be d8a7 41bd 2b0a 823e 8730 84bc
000000d0: 9405 7a3e 5a8c d1c0 78c2 2bbe 442d aebc
000000e0: e7f7 05bf 6289 983e 6769 54be 7cdb cc40
000000f0: 1c4f a6bd 2db8 0abe 3880 f2be a979 c5be
00000100: ec31 fc3e d3af db40 4222 933e 45d8 9abc
00000110: c79d d33e b20b 903e 8632 7abe 0a50 d5c0
00000120: 708c 903e 9728 85be 1701 9a3e 51fd 833e
00000130: 7643 9e3e 0185 dcc0 2b2f f63d 6bf6 2bbe
00000140: f78b 65be 9bca 97bd 3051 9c3e 0e33 d640
00000150: 0ae1 9cbd dbe7 abbc 38d9 283f 19f4 4abe
00000160: 5344 823e 1556 cfc0 8799 babd 1e9a e43d
00000170: 29b9 67be 8a1c b93d 800e 6a3e 486c cd40

bias f4 [16]
0.0169551 0.10102881 0.1913056 -0.12657909 0.3781292 -0.05874111 -0.49741322 0.02289153
0.026034655 0.54826933 0.5276746 0.26984304 -0.124701306 -0.17925918 -0.10395308 -0.16695638
00000000: 6ce5 8a3c 31e8 ce3d 9de5 433e f39d 01be
00000010: 279a c13e 859a 70bd f2ac febe 0587 bb3c
00000020: a146 d53c 615b 0c3f af15 073f de28 8a3e
00000030: 6663 ffbd b88f 37be 5ae5 d4bd 9df6 2abe
