runs/20250317_150514/mlpLocalModel.pt (torch, 42357 bytes, 8 tensors)

weight f4 [100, 17]
-0.51947474 -0.43965954 -0.11302496 -0.49107942 -0.3398684 0.15120298 -0.122287154 -0.4974238
-0.24624532 0.31768575 0.013790444 -0.35329825 -0.43502176 0.23769353 -0.042307444 0.05396724
-0.9219728 0.07411919 -0.5387597 -0.20346905 -0.12996839 -0.28607038 -0.11017123 -0.2132224
-0.044820186 0.01790935 -0.52968895 -0.180408 -0.3067764 0.18050805 0.45318732 0.27522635
0.08863916 0.119836755 -1.2536936 -0.80140615 -0.63190407 -1.0764409 -0.99005175 -0.21836819
-0.17126082 -0.0916611 0.08126544 -0.19028333 0.24726939 0.4125039 -0.079872936 -0.19132774
-0.11558996 0.32752302 -0.064721085 1.3455676 -0.17938071 0.81073153 1.7138387 2.6527712
-0.22087395 -0.032683942 -0.06846637 0.21890537 0.15018876 -0.03609119 -0.35146314 0.090808555
0.21018505 -0.27260455 0.103303894 -0.17317799 -1.0438665 0.3538482 0.36691964 0.66998255
0.6733375 0.17108485 0.17304929 0.042478476 -0.1982032 0.15060267 -0.17787734 0.11873807
0.112944186 -0.09901136 -0.12924105 0.047284354 -0.0587497 -0.07671489 -0.11176335 0.32799086
0.20192476 0.20882791 -0.110608436 -0.064349085 0.07663697 -0.05300718 -0.03814355 -0.31951886
0.107113995 0.19238232 -1.1805468 -0.1419467 0.14149709 0.26772335 0.31338027 1.5620793
1.2231311 1.4632622 1.0651264 -0.11173979 0.009615538 0.20729879 0.08707576 0.17027058
-0.21194856 0.13726412 -0.042672485 0.15406969 -0.061653554 0.11933958 0.058481075 5.6314507
4.8665147 3.1884384 4.2613425 5.293163 -0.075931884 -0.014781961 0.28924933 -0.04803203
0.12125983 -0.09366635 0.08408723 -0.5938945 -0.5070139 0.16692233 -0.90717894 0.015257487
-0.9555056 -0.91606635 -0.75541264 -0.7059997 -1.2068961 -0.1153216 0.053265266 0.20248935
-0.1366956 0.11224139 0.16310172 -0.8578542 -0.015178749 0.06093267 -0.16230628 0.18770108
-0.2301332 1.6487422 3.3863933 2.7977145 1.6400129 1.8814572 -0.007374972 0.11159788
-0.20743649 0.20731442 -0.018760487 0.14505853 0.1954507 -0.28726512 0.054704312 -0.14605153
-0.0156939 0.17916752 -0.3872037 1.6346093 1.4490845 0.5450511 1.525357 0.11504152
0.11636681 0.11510037 -0.3316625 -0.25419277 0.20666744 0.279785 0.033617366 0.15395685
-0.21173418 -0.013229036 -0.1650067 -0.36407176 -0.2801599 -0.12691176 -0.364451 -0.4265952
-1.6211451 0.036816593 -0.23821963 -0.104998 0.029489657 -0.20374182 0.10307334 0.048841357
0.23387773 -0.16837059 -0.040810194 0.2969773 -1.0055432 -0.8064657 -0.93203896 -1.1252825
-1.1334597 -0.0924516 0.015844388 -0.17461614 0.13624744 0.005227321 0.14901121 0.16129863
-0.03651206 0.09474566 -0.032897733 0.22217168 -0.11519418 -0.06253197 0.20718509 -0.6307016
0.17797734 0.11494143 0.0612079 -0.3568625 0.10136858 0.18665314 0.09834863 -0.03184144
0.06138832 0.13215111 -0.23228498 -0.057478327 -0.011919062 -0.3378572 3.5489714 4.1497164
1.7664611 3.303978 3.147594 0.008644563 -0.014712842 -0.03355324 -0.25373992 0.20968376
0.14181684 -0.056513056 -0.85076845 -0.050833367 -0.03625974 -0.04282088 -0.08273742 1.745172
00000000: 4cfc 04bf 0e1b e1be a179 e7bd c36e fbbe
00000010: 3b03 aebe f4d4 1a3e b071 fabd 55ae febe
00000020: bc27 7cbe b5a7 a23e 50f1 613c 82e3 b4be
00000030: 2cbb debe ef65 733e 924a 2dbd c10c 5d3d
00000040: 6906 6cbf cdcb 973d 28ec 09bf 315a 50be
00000050: 6f16 05be d177 92be 74a1 e1bd f956 5abe
00000060: 5f95 37bd a1b6 923c b299 07bf e0bc 38be
00000070: cc11 9dbe 1ad7 383e 2b08 e83e 78ea 8c3e
00000080: 7388 b53d f96c f53d 0879 a0bf f428 4dbf
00000090: 77c4 21bf d1c8 89bf 0874 7dbf e99b 5fbe
000000a0: ff5e 2fbe d1b8 bbbd 7f6e a63d a2d9 42be
000000b0: 3034 7d3e b633 d33e 6c94 a3bd 6beb 43be
000000c0: 6eba ecbd 19b1 a73e 7d8c 84bd 8f3b ac3f
000000d0: 94af 37be 1a8c 4f3f 115f db3f 01c7 2940
000000e0: c82c 62be 99df 05bd 1938 8cbd bb28 603e
000000f0: 15cb 193e 5bd4 13bd faf2 b3be d6f9 b93d
00000100: c03a 573e d392 8bbe fe90 d33d 9255 31be
00000110: 6b9d 85bf 972b b53e e4dc bb3e fa83 2b3f
00000120: d95f 2c3f de30 2f3e d533 313e e9fd 2d3d
00000130: c8f5 4abe 9637 1a3e 7a25 36be f22c f33d
00000140: 484f e73d 78c6 cabd c457 04be 3dad 413d
00000150: 87a3 70bd b21c 9dbd 2fe4 e4bd 6bee a73e
00000160: 5dc5 4e3e fcd6 553e ad86 e2bd 74c9 83bd
00000170: d8f3 9c3d 0f1e 59bd 693c 1cbd fa97 a3be
00000180: 955e db3d dfff 443e 281c 97bf 7a5a 11be
00000190: 9de4 103e 0913 893e 6173 a03e 37f2 c73f
000001a0: 8f8f 9c3f 2d4c bb3f 1056 883f d5d7 e4bd
000001b0: 7d8a 1d3c 2246 543e c754 b23d 695b 2e3e
000001c0: 0b09 59be f78e 0c3e 58c9 2ebd 72c4 1d3e
000001d0: 7088 7cbd 4f68 f43d da89 6f3d d834 b440
000001e0: 7dba 9b40 600f 4c40 eb5c 8840 9761 a940
000001f0: 2d82 9bbd 0a30 72bc 7d18 943e 3cbd 44bd
00000200: 1357 f83d 25d4 bfbd ed35 ac3d 7809 18bf
00000210: aacb 01bf b0ed 2a3e e13c 68bf 8afa 793c
00000220: 049c 74bf 5383 6abf b962 41bf 65bc 34bf
00000230: 927b 9abf bb2d ecbd ae2c 5a3d 5e59 4f3e
00000240: eef9 0bbe d0de e53d 2304 273e 559c 5bbf
00000250: 4ab0 78bc 8994 793d 9e33 26be b634 403e
00000260: 0aa8 6bbe fc09 d33f abba 5840 c10d 3340
00000270: f1eb d13f 97d3 f03f c0a9 f1bb 6e8d e43d
00000280: 3b6a 54be 3b4a 543e 98af 99bc 398a 143e
00000290: 3a24 483e 6a14 93be a111 603d 888e 15be
000002a0: 7e90 80bc b177 373e 903f c6be e13a d13f
000002b0: 9a7b b93f 7888 0b3f e63e c33f e39a eb3d
000002c0: b951 ee3d beb9 eb3d abcf a9be 8e25 82be
000002d0: a1a0 533e fb3f 8f3e 5db2 093d dda6 1d3e
000002e0: d8d0 58be 99be 58bc 84f7 28be 9d67 babe
000002f0: 1e71 8fbe 28f5 01be 5299 babe b06a dabe
00000300: af81 cfbf ffcc 163d d9ef 73be 3109 d7bd
00000310: 4b94 f13c b2a1 50be 1e18 d33d e00d 483d
00000320: a57d 6f3e 5769 2cbe 9728 27bd 690d 983e
00000330: a4b5 80bf 8974 4ebf 1b9a 6ebf 4209 90bf
00000340: 3515 91bf 4457 bdbd 17cc 813c 93ce 32be
00000350: 7384 0b3e f249 ab3b 6596 183e 782b 253e
00000360: ab8d 15bd 030a c23d c6bf 06bd f980 633e
00000370: edea ebbd c310 80bd 5428 543e a975 21bf
00000380: b13f 363e 6a66 eb3d 23b5 7a3d aeb6 b6be
00000390: 549a cf3d 0022 3f3e 026b c93d 2b6c 02bd
000003a0: 5272 7b3d 9f52 073e 1ddc 6dbe 656e 6bbd
000003b0: 2b48 43bc 9efb acbe 5922 6340 7aca 8440
000003c0: 661b e23f 6074 5340 2e72 4940 eda1 0d3c
000003d0: 220e 71bc 1f6f 09bd 33ea 81be 57b7 563e
000003e0: 6f38 113e 3c7a 67bd f6cb 59bf a636 50bd
000003f0: 1885 14bd f264 2fbd 3d72 a9bd cc61 df3f

bias f4 [100]
-0.13869016 0.62688035 1.1840155 -0.9924749 -1.2818661 0.21475908 -2.7833776 0.5539827
0.6616854 -3.149869 -2.1464398 0.10821894 0.10419221 -0.6016568 0.13634522 -0.19671875
0.31907794 -1.8512218 0.97126615 -0.0911477 0.31441844 0.58849126 -1.3664353 -0.047351245
-0.6639224 -0.63155955 0.620259 0.60098374 0.4781472 1.2835193 2.0677543 0.54716694
0.044969145 0.72997975 -0.030228762 -1.4460644 0.3505301 2.1493661 0.774564 1.3574784
-0.6944009 1.0876079 -2.524261 -0.5024252 0.66988194 0.0901043 -1.1631786 -0.80065715
-0.8738562 1.1616936 0.16766468 -0.31172463 -1.8504379 0.17229654 -2.1092443 -0.04914759
0.7048013 0.100390635 -0.97172076 0.44625527 0.7576285 -0.50462615 -0.064169616 -1.0399842
0.17969121 0.15584975 1.1565318 0.9923468 -0.16848776 0.046793062 -2.1713026 -2.3589575
-1.1800147 -2.8330574 1.8155804 -1.7177999 0.9960069 0.83317995 0.76115507 -0.44284964
-2.9391448 1.5101581 -0.5196732 0.48374507 0.67214525 0.39261737 0.029913342 1.2712793
0.5592795 -1.9116594 0.26186636 -0.5477126 -0.017728815 -2.6627192 -2.235943 0.24706925
0.52634716 2.5631642 0.65643084 1.65136
00000000: cb04 0ebe 3b7b 203f d28d 973f d612 7ebf
00000010: 3014 a4bf cee9 5b3e dc22 32c0 cfd1 0d3f
00000020: 3764 293f 7497 49c0 455f 09c0 e4a1 dd3d
00000030: ba62 d53d 2e06 1abf 159e 0b3e a470 49be
00000040: 2f5e a33e d6f4 ecbf e6a4 783f a5ab babd
00000050: 74fb a03e 5da7 163f 5ae7 aebf 61f3 41bd
00000060: d2f6 29bf e3ad 21bf 4bc9 1e3f 12da 193f
00000070: b6cf f43e 5c4a a43f 1656 0440 2213 0c3f
00000080: 9131 383d f4df 3a3f 4fa2 f7bc a318 b9bf
00000090: ae78 b33e 378f 0940 d449 463f dac1 ad3f
000000a0: 42c4 31bf bc36 8b3f 7e8d 21c0 f09e 00bf
000000b0: 627d 2b3f 9a88 b83d 09e3 94bf def7 4cbf
000000c0: 0ab5 5fbf 60b2 943f 4ab0 2b3e 5f9a 9fbe
000000d0: 26db ecbf 816e 303e dcfd 06c0 fc4e 49bd
000000e0: dc6d 343f 9b99 cd3d b1c2 78bf 927b e43e
000000f0: f1f3 413f 2e2f 01bf 5c6b 83bd 341e 85bf
00000100: f900 383e 1497 1f3e 3c09 943f 710a 7e3f
00000110: 0e88 2cbe 15aa 3f3d 9ff6 0ac0 29f9 16c0
00000120: b90a 97bf d050 35c0 f064 e83f dee0 dbbf
00000130: 4ffa 7e3f 484b 553f 0fdb 423f 30bd e2be
00000140: f31a 3cc0 dc4c c13f 4e09 05bf 6fad f73e
00000150: b611 2c3f 2505 c93e d30c f53c 48b9 a23f
00000160: f12c 0f3f 41b1 f4bf 5913 863e e536 0cbf
00000170: 053c 91bc fe69 2ac0 b119 0fc0 b9ff 7c3e
00000180: b0be 063f e20a 2440 da0b 283f c45f d33f

weight f4 [50, 100]
0.0023234095 0.00757154 -0.08259353 -0.102119006 0.0016043271 0.0074211634 -0.024552662 0.03529564
-0.0027461548 -0.13429274 -0.051613215 0.04697313 -0.084641084 0.06920326 -0.121284045 0.0066171885
0.08016064 0.0084532965 -0.030387985 0.0146907875 0.054508474 -0.022145966 -0.027458511 0.0033767016
-0.11964579 -0.113233685 -0.061211903 0.011751533 -0.054575548 -0.09835178 0.07162527 0.019442901
-0.12406465 0.007902644 -0.028277732 0.040721234 -0.047061216 -0.081676304 -0.06644643 -0.09907198
-0.08547299 -0.061186723 -0.1272344 -0.09344014 -0.06904489 -0.046275776 -0.12757699 0.0024537155
0.018960638 0.110583335 0.068939455 0.07654524 0.0136495 -0.11940469 -0.016587162 0.016868003
0.0018372 -0.1022818 -0.05090545 -0.06608882 0.023141945 0.016821982 0.04023086 0.05761213
0.04242616 -0.019435784 -0.08093881 -0.112497285 -0.0798097 0.061409943 -0.0888302 -0.053113695
-0.043037903 0.015141271 -0.09190023 -0.0638039 -0.03709001 -0.064814046 -0.07684608 -0.08544312
-0.11579092 0.0023900033 -0.09692378 0.006901488 -0.09830616 -0.13993561 0.06404235 -0.113725565
-0.04009179 0.024417084 -0.026212553 0.03226132 0.03246288 -0.024285031 -0.101012215 -0.038254958
-0.0072839553 -0.031978864 0.030048374 -0.14044584 -0.67718637 -0.23916776 0.059160437 0.057670176
0.036835164 0.12418869 -0.3318771 0.07865272 0.060652636 0.060922395 -0.057001002 0.3069569
0.12273216 -0.15680513 -0.022680692 -0.08242575 -0.23859501 -0.03133926 -0.105125 0.0021714608
0.24163416 0.2204091 0.08129754 0.08070044 -0.01595545 -0.014708014 0.20190991 0.01469626
-0.052155033 0.27051678 0.026138857 -0.117979765 0.16442834 0.03067381 0.06936235 0.053564053
-0.042924974 -0.14269839 -0.21489656 0.16085698 -0.066971675 0.32057208 -0.23576155 -0.00012385682
-0.29887462 0.0066417702 -0.019590821 -0.22043402 0.106993474 0.26627868 0.04245402 0.12582181
0.04860455 -0.1415025 -0.13309851 -0.023677124 -0.29477108 -0.06362693 0.16026236 0.020240122
0.10287021 -0.116473906 -0.9181578 -0.057123736 -0.2806782 0.06416685 0.44913423 -0.09540721
-0.48085117 0.11583459 -0.080303125 -0.04569238 0.09405845 -0.041732136 0.024903128 -0.29501063
0.07117922 -0.1051195 0.008676292 -0.0016499877 -0.025903482 0.08938973 -0.020475412 0.113258585
0.36769807 0.1525843 0.113946825 -0.082968876 0.11264224 0.12705041 -0.030940834 0.30103916
-0.13224342 -0.24470872 -0.091769144 -0.17564711 0.13449383 -0.26022357 -0.26618624 -0.010265687
-0.23062865 0.01580397 -0.00588215 0.03233105 0.024089364 -0.24866745 -0.013244411 -0.31685424
0.1195654 0.040679414 0.041902386 -0.05570564 0.10634664 -0.066240154 -0.11156995 0.08970504
-0.2849422 0.090081304 -0.006723268 0.06718704 0.014093772 -0.3585789 -0.7150299 -0.030478213
0.15229498 0.06263967 -0.45277032 0.2003711 0.034731887 0.1319552 -0.63304055 -0.030904507
-0.1373691 0.055907894 -0.117165074 0.24139732 0.009650806 -0.3283824 -0.26524103 -0.106731825
0.078338236 -0.08429554 0.045971453 0.11886277 0.008859788 0.13818613 0.14477167 0.11871587
-0.23611377 -0.109222434 0.039809417 0.003657309 0.054811258 -0.037373025 -0.0073222797 -0.2084207
00000000: 5844 183b ae1a f83b cc26 a9bd c523 d1bd
00000010: 4948 d23a 3b2d f33b aa22 c9bc 2992 103d
00000020: d5f8 33bb 0984 09be 6168 53bd e666 403d
00000030: 4e58 adbd 70ba 8d3d c563 f8bd 00d5 d83b
00000040: 432b a43d b27f 0a3c 39f0 f8bc a1b1 703c
00000050: 4744 5f3d 756b b5bc acf0 e0bc a74b 5d3b
00000060: da08 f5bd 10e7 e7bd 55b9 7abd 8089 403c
00000070: 9c8a 5fbd a86c c9bd 45b0 923d b846 9f3c
00000080: 9b15 febd 177a 013c b4a6 e7bc 4fcb 263d
00000090: 43c3 40bd e845 a7bd 1115 88bd 40e6 cabd
000000a0: 770c afbd ee9e 7abd bc49 02be 8b5d bfbd
000000b0: 6867 8dbd ab8b 3dbd 8ba3 02be 84ce 203b
000000c0: 5753 9b3c 8479 e23d 2130 8d3d c0c3 9c3d
000000d0: 27a2 5f3c 728a f4bd cde1 87bc c42e 8a3c
000000e0: 34ce f03a 1f79 d1bd 3c82 50bd 9359 87bd
000000f0: 2d94 bd3c 41ce 893c 1dc9 243d b2fa 6b3d
00000100: 0ec7 2d3d cb37 9fbc 3fc3 a5bd fa64 e6bd
00000110: 4573 a3bd fe88 7b3d 9cec b5bd bf8d 59bd
00000120: 8348 30bd 1813 783c 3036 bcbd 9eab 82bd
00000130: b2eb 17bd 3abd 84bd 7a61 9dbd cdfc aebd
00000140: ca23 edbd 9aa1 1c3b fa7f c6bd e125 e23b
00000150: bd54 c9bd 484b 0fbe a328 833d f3e8 e8bd
00000160: 4a37 24bd 5606 c83c b5bb d6bc 7224 043d
00000170: ccf7 043d 67f1 c6bc 7edf cebd 3bb1 1cbd
00000180: 3fae eebb 45fc 02bd 0228 f63c 09d1 0fbe
00000190: 165c 2dbf 65e8 74be 3752 723d 9037 6c3d
000001a0: 78e0 163d a456 fe3d cceb a9be ad14 a13d
000001b0: e66e 783d c389 793d e279 69bd 7429 9d3e
000001c0: 005b fb3d 8691 20be dccc b9bc d5ce a8bd
000001d0: 4052 74be 995d 00bd c74b d7bd 114f 0e3b
000001e0: f26e 773e ecb2 613e 537f a63d 4646 a53d
000001f0: 01b5 82bc e2f9 70bc 79c1 4e3e 95c8 703c
00000200: 84a0 55bd 2d81 8a3e 2821 d63c 609f f1bd
00000210: e75f 283e a447 fb3c d90d 8e3d fb65 5b3d
00000220: 19d2 2fbd 871f 12be d80d 5cbe b1b7 243e
00000230: 7228 89bd 0622 a43e 7a6b 71be 90df 01b9
00000240: 1806 99be 35a3 d93b ee7c a0bc 75b9 61be
00000250: 651f db3d ae55 883e 44e4 2d3d 6fd7 003e
00000260: 9115 473d 08e6 10be fa4a 08be 87f6 c1bc
00000270: 3cec 96be d64e 82bd d11b 243e 9dce a53c
00000280: 9ead d23d df89 eebd 640c 6bbf 94fa 69bd
00000290: 0eb5 8fbe e969 833d ecf4 e53e db64 c3bd
000002a0: 2032 f6be af3a ed3d f775 a4bd ef27 3bbd
000002b0: b7a1 c03d 51ef 2abd a501 cc3c a20b 97be
000002c0: 69c6 913d e448 d7bd 0227 0e3c 6644 d8ba
000002d0: 8a33 d4bc f611 b73d 0dbc a7bc 1ef4 e73d
000002e0: ec42 bc3e 0f3f 1c3e f45c e93d 96eb a9bd
000002f0: fab0 e63d 8119 023e a277 fdbc ce21 9a3e
00000300: d26a 07be ec94 7abe 76f1 bbbd d6dc 33be
00000310: c0b8 093e 063c 85be 9049 88be 6931 28bc
00000320: eb29 6cbe 5477 813c 0dbf c0bb 906d 043d
00000330: 0f57 c53c aea2 7ebe 16ff 58bc b83a a2be
00000340: b4de f43d 759f 263d d6a1 2b3d 992b 64bd
00000350: 44cc d93d eba8 87bd c97e e4bd 47b7 b73d
00000360: f2e3 91be 8c7c b83d dc4e dcbb 5c99 893d
00000370: 90e9 663c a797 b7be 330c 37bf 72ad f9bc
00000380: 37f3 1b3e 3a49 803d 83d1 e7be 152e 4d3e
00000390: 0643 0e3d 441f 073e f20e 22bf 732b fdbc
000003a0: 7caa 0cbe adff 643d 3ef4 efbd dc30 773e
000003b0: 6a1e 1e3c bd21 a8be accd 87be 3796 dabd
000003c0: cc6f a03d 24a3 acbd 904c 3c3d 536e f33d
000003d0: a528 113c aa80 0d3e 063f 143e 4e21 f33d
000003e0: cfc7 71be 03b0 dfbd 330f 233d 77af 6f3b
000003f0: c581 603d 7514 19bd bcef efbb 3c6c 55be

bias f4 [50]
-0.008883614 0.28286543 -1.8090422 0.2738815 0.16222544 -0.42749274 1.952008 1.2315427
3.8335495 2.3279018 -0.43424863 -2.6616144 -0.6783635 1.2438307 2.7776282 -0.9526077
0.27695453 -1.1242672 1.2288145 -1.4605078 0.8133359 -1.6306981 1.0567945 2.2326236
0.9942364 -0.13079612 0.9338147 0.43556973 -1.3215514 -1.8163105 0.69492257 -0.056543212
0.90410966 -2.294368 -1.091177 0.3448592 -2.8274724 -0.08934357 -0.08601507 -1.7884275
-0.78122145 -3.4169738 1.6385832 0.83681184 0.93126297 -0.015975697 3.465053 1.2281903
2.060793 -1.6487423
00000000: 948c 11bc bdd3 903e b28e e7bf 323a 8c3e
00000010: 6d1e 263e 54e0 dabe 66db f93f 31a3 9d3f
00000020: e058 7540 58fc 1440 d655 debe e457 2ac0
00000030: 3ba9 2dbf d835 9f3f a9c4 3140 19de 73bf
00000040: fccc 8d3e fde7 8fbf cb49 9d3f ebf1 babf
00000050: c836 503f b7ba d0bf 0b45 873f 4ee3 0e40
00000060: 4786 7e3f 6bef 05be 7b0e 6f3f ff02 df3e
00000070: 9928 a9bf dd7c e8bf 72e6 313f db99 67bd
00000080: bb73 673f edd6 12c0 b0ab 8bbf 6391 b03e
00000090: 4ff5 34c0 c3f9 b6bd ab28 b0bd 31eb e4bf
000000a0: 21fe 47bf b3af 5ac0 18bd d13f 4d39 563f
000000b0: 4067 6e3f 77df 82bc 6ec3 5d40 5735 9d3f
000000c0: 08e4 0340 fd09 d3bf

weight f4 [20, 50]
-0.016413854 0.05349055 -0.06904275 0.03495203 -0.036895968 -0.11073578 0.06875837 -0.12963642
-0.006246906 0.057173993 -0.09779088 -0.13611318 0.01660644 -0.11430604 0.024937613 -0.008012633
-0.07092551 -0.15731451 -0.1270867 -0.11714163 0.036803707 -0.041100133 0.07376208 0.044174455
-0.14342013 0.08410321 -0.09698978 -0.021037914 -0.14462647 -0.19093089 -0.083055295 -0.040342227
0.08268788 -0.042698804 -0.014942573 -0.08138582 -0.009727114 -0.11116944 -0.12730877 -0.041575056
0.06491283 -0.02074302 0.04981519 -0.11480418 0.040173437 0.12796156 -0.00813285 0.062407922
0.0055706697 -0.0026258966 -0.07810143 -0.10180104 0.043205656 -0.28726247 0.54497576 0.17924826
-4.8119844e-05 -0.016001115 0.071325906 0.21288532 -0.37625608 0.14293979 -0.2761793 -0.045782734
0.2510218 -0.13768974 -0.054116756 0.08863664 0.18248343 0.1336104 0.24321021 -0.0063739344
-0.4215889 -0.37087482 -0.2205722 -0.13569051 0.12448439 -0.23117197 -0.6033282 0.016001943
-0.08720464 0.21579492 -0.4666661 -0.2842919 0.12372109 0.3472389 -0.10760232 -0.07761685
0.021316294 0.046886217 0.18909135 0.008762442 0.052435335 0.00040338686 -0.70979923 0.018842924
-0.55038226 -0.59290826 -0.100553356 0.11531259 0.093109086 -0.045123573 0.027712436 0.31221864
0.00092157477 -0.15965797 -0.030054232 -0.041448306 0.27819943 -0.28152296 -0.43484598 0.026259575
-0.31393316 -0.017549472 -0.24383415 -0.27806538 0.066875786 0.3220624 0.43655607 0.2600288
0.3815038 0.39211127 -0.088886365 -0.12139997 0.2554131 0.061069723 -0.021965977 -0.043295052
0.06940953 -0.34932524 -0.04770632 -0.13944028 0.017381888 0.12371102 0.038236283 0.012375417
-0.29570636 -0.27041373 -0.15579261 0.004694652 -0.00840877 0.010335417 0.06561694 -0.2014165
0.22354892 0.00834182 -0.5162807 -0.17523241 -0.17919669 -0.20470324 -0.104509465 -0.08380367
-0.4383036 0.06901372 0.27283698 -0.36289412 -0.039182644 -0.15436521 0.08839274 -0.50927776
-0.15825918 0.004386878 0.045604534 0.049319234 -0.47020915 -0.48585263 -0.07472029 -0.22632375
-0.10557472 0.009935251 -0.19090103 0.08784917 0.35223597 -0.13986711 0.05467282 -0.050092038
0.17561628 0.030876169 -0.408112 0.044319462 -0.19960673 -0.22308776 -0.32375905 -0.12343164
-0.4781749 0.079884015 0.009801256 0.05031292 0.007203099 -0.19387694 -0.11886312 -0.020214792
0.023711767 -0.15573078 0.15077491 0.05652587 0.3448424 0.6455349 -0.121870704 0.06859112
0.1003762 -0.17079851 0.20157126 0.22664215 0.58243763 0.11514401 0.11491756 -0.022654481
0.14998764 -0.053234898 -0.37185195 -0.56373805 -0.5080419 -0.31973144 0.14670277 -0.078675486
-0.047990896 0.23617195 0.5121847 0.48870263 -0.14348036 -0.20362362 -0.33862603 -0.24034624
0.17979746 -0.00848025 -0.08551534 -0.38995925 -0.0038612888 -0.073866464 0.13298966 0.5676059
-0.18944216 0.11105417 -0.36674625 -0.11484428 -0.05664035 -0.11509247 -0.09569117 -0.34573507
0.31043333 -0.24439575 -0.01640712 -0.057861235 -0.30061874 -0.12211985 -0.17597775 -0.40521875
-0.5563695 -0.7668076 0.0014121706 0.30463538 -0.1223187 -0.17847644 -0.3445434 -0.15888348
00000000: 5976 86bc e818 5b3d 4966 8dbd dc29 0f3d
00000010: 3a20 17bd 71c9 e2bd 30d1 8c3d 69bf 04be
00000020: d8b2 ccbb 472f 6a3d 9646 c8bd 4161 0bbe
00000030: 3b0a 883c 4919 eabd f749 cc3c 6b47 03bc
00000040: 6541 91bd 0e17 21be 0423 02be f3e7 efbd
00000050: 7cbf 163d 9d58 28bd 9310 973d 46f0 343d
00000060: badc 12be 4e3e ac3d 94a2 c6bd b457 acbc
00000070: f618 14be 6383 43be e518 aabd e43d 25bd
00000080: 4358 a93d f1e4 2ebd b2d1 74bc 9cad a6bd
00000090: 795e 1fbc ceac e3bd 3b5d 02be 9b4a 2abd
000000a0: 05f1 843d 44ed a9bc 030b 4c3d 741e ebbd
000000b0: e78c 243d 5b08 033e a53f 05bc 739f 7f3d
000000c0: 2a8a b63b 3c17 2cbb a4f3 9fbd 107d d0bd
000000d0: 6af8 303d 1114 93be 8883 0b3f db8c 373e
000000e0: 4ad4 49b8 c514 83bc 5113 923d 9cfe 593e
000000f0: a3a4 c0be cf5e 123e 6067 8dbe ad86 3bbd
00000100: ee85 803e 8afe 0cbe 88a9 5dbd 2087 b53d
00000110: f0dc 3a3e 2ad1 083e 190c 793e 70dc d0bb
00000120: 80da d7be 4ee3 bdbe aedd 61be 74f2 0abe
00000130: acf1 fe3d 58b8 6cbe b873 1abf 8216 833c
00000140: 5998 b2bd 58f9 5c3e dcee eebe b58e 91be
00000150: 7c61 fd3d 4cc9 b13e 9b5e dcbd 95f5 9ebd
00000160: 829f ae3c c30b 403d 2aa1 413e 5890 0f3c
00000170: 6fc6 563d ab7d d339 67b5 35bf 7a5c 9a3c
00000180: dae5 0cbf d6c8 17bf ebee cdbd 0229 ec3d
00000190: faaf be3d 7fd3 38bd 3105 e33c 1fdb 9f3e
000001a0: d695 713a 617d 23be 4b34 f6bc b3c5 29bd
000001b0: 2870 8e3e c723 90be 22a4 debe 521e d73c
000001c0: d9bb a0be e9c3 8fbc a9af 79be 965e 8ebe
000001d0: 2cf6 883d 5de5 a43e 4784 df3e 7f22 853e
000001e0: 7754 c33e cfc2 c83e 0e0a b6bd 8ca0 f8bd
000001f0: 81c5 823e 3f24 7a3d fef1 b3bc 2756 31bd
00000200: 9526 8e3d c2da b2be b467 43bd 6fc9 0ebe
00000210: 7664 8e3c 345c fd3d a69d 1c3d 43c2 4a3c
00000220: d366 97be ab73 8abe 1988 1fbe 98d5 993b
00000230: f0c4 09bc e255 293c 2d62 863d 2140 4ebe
00000240: 02ea 643e 21ac 083c f92a 04bf 2070 33be
00000250: 567f 37be ba9d 51be 0f09 d6bd 42a1 abbd
00000260: 5469 e0be 1157 8d3d 4ab1 8b3e 42cd b9be
00000270: fb7d 20bd ea11 1ebe 4107 b53d 0760 02bf
00000280: b20e 22be cdbf 8f3b d2cb 3a3d f702 4a3d
00000290: 41bf f0be adc1 f8be f406 99bd 6ac1 67be
000002a0: 8f37 d8bd 77c7 223c 8f7b 43be 44ea b33d
000002b0: 4658 b43e 5339 0fbe 9bf0 5f3d 4f2d 4dbd
000002c0: c1d4 333e 05f0 fc3c 0ef4 d0be 5388 353d
000002d0: b565 4cbe 1e71 64be bfc3 a5be bac9 fcbd
000002e0: 57d3 f4be 3b9a a33d 7295 203c ec14 4e3d
000002f0: f907 ec3b ad87 46be 826e f3bd 7e99 a5bc
00000300: 2e3f c23c e477 1fbe bd64 1a3e ac87 673d
00000310: 2f8f b03e c641 253f 5997 f9bd 8079 8c3d
00000320: 0a92 cd3d cee5 2ebe b268 4e3e e114 683e
00000330: a21a 153f 9fd0 eb3d e659 eb3d e495 b9bc
00000340: 5c96 193e d60c 5abd 6163 bebe 2351 10bf
00000350: 090f 02bf d7b3 a3be 4039 163e 9d20 a1bd
00000360: 1a92 44bd 0fd7 713e 891e 033f 3b37 fa3e
00000370: 84ec 12be b682 50be 6460 adbe 531d 76be
00000380: d31c 383e bff0 0abc ab22 afbd bda8 c7be
00000390: ad0d 7dbb 4d47 97bd 712e 083e 9f4e 113f
000003a0: 20fd 41be 5e70 e33d 2ac6 bbbe 7a33 ebbd
000003b0: b6ff 67bd 9ab5 ebbd bbf9 c3bd 3004 b1be
000003c0: 1ef1 9e3e e142 7abe 3968 86bc e7ff 6cbd
000003d0: b3ea 99be f919 fabd 8333 34be d578 cfbe
000003e0: 3b6e 0ebf 814d 44bf 9518 b93a 2bf9 9b3e
000003f0: 3a82 fabd 87c2 36be fe67 b0be 5ab2 22be

bias f4 [20]
-0.12715665 -0.7069204 0.19670944 0.5822096 -0.59141296 -0.096253924 0.22738916 1.586104
1.1354797 -2.374752 1.8106397 0.7337125 -2.1394079 2.886572 -2.6374328 0.91433644
0.31939462 0.47127303 -0.87147593 2.7421353
00000000: 5a35 02be bcf8 34bf 336e 493e b00b 153f
00000010: d766 17bf c720 c5bd b4d8 683e 7505 cb3f
00000020: 6657 913f f0fb 17c0 0bc3 e73f 95d4 3b3f
00000030: 0fec 08c0 98bd 3840 b3cb 28c0 f411 6a3f
00000040: b187 a33e b34a f13e 0c19 5fbf 257f 2f40

weight f4 [16, 20]
0.09603516 0.055185635 0.007287126 0.21290563 -0.44614783 -0.15988545 -0.012583053 0.033471208
-0.08913829 -0.03258816 0.4377013 0.15172005 -0.27281386 0.41314813 -0.25157657 0.5135177
-0.046292234 -0.014743302 0.21786374 0.35395047 -0.022828275 0.0725648 0.07522368 -0.38287744
0.43588302 0.39633444 -0.054500874 -0.21067569 -0.34200528 0.13959427 -0.6856301 -0.2443336
0.21888919 -0.43847662 -0.03664534 -0.35999674 -0.14675263 0.12566364 -0.1809001 -0.20343731
0.24065776 -0.012960068 -0.08092235 -0.16194554 0.5199572 0.19466516 -0.07918712 -0.13731924
-0.17873648 0.22712484 -0.3641994 -0.025529234 0.0028697588 -0.26413003 0.37407255 -0.57927686
-0.1985796 -0.0064553246 -0.26895428 -0.22765875 -0.14346932 0.09664806 -0.06147246 -0.26792088
0.21747066 0.18481731 -0.22866106 -0.36440542 -0.042170733 0.0500763 -0.3432864 -0.28583154
0.031097086 -0.14887667 0.28565505 -0.50624543 -0.36624554 -0.2871859 -0.53105265 -0.23827921
0.022797778 0.035001468 0.014971009 0.28798452 -0.15939666 -0.38994256 -0.0077972254 0.19782883
0.056085803 -0.28734133 0.5331858 0.07469607 -0.22353764 0.34055817 -0.24048892 0.55937827
0.13395917 0.22169274 0.559918 0.26772982 0.18681152 0.106853895 -0.3089499 -0.29887578
0.16454612 0.38992295 0.014300017 -0.0027287027 -0.26951253 0.20080207 -0.73539174 -0.16807684
-0.13685416 -0.49600103 0.3684001 -0.69065666 -0.37990394 -0.2499102 -0.55794734 -0.45662266
0.039457064 -0.043526 -0.38170105 -0.4482219 0.5158481 0.3688328 -0.0981494 -0.38926905
-0.31186908 0.16156866 -0.6076105 -0.15915406 0.13833405 -0.5023527 0.39498594 -0.5245696
-0.25697222 -0.06050775 -0.68230754 -0.18231629 -0.11807938 0.1225389 0.13937296 0.38301423
-0.14687662 -0.17896965 -0.11513899 0.2624331 -0.011210767 -0.048952963 0.6364854 -0.048115715
-0.27329466 0.43261045 -0.26658612 0.7630771 0.31094947 0.22188582 0.2795386 0.30589896
-0.18738054 0.21873985 -0.14575312 -0.50410724 0.48631564 0.45920536 0.09349241 -0.38315758
-0.20333278 0.12505452 -0.35752395 -0.06530943 0.059944347 -0.2765679 0.33216342 -0.47599775
-0.26803505 -0.05751621 -0.39552042 -0.38799423 -0.11077908 0.115292415 0.18143578 0.1902744
-0.39394313 -0.42330185 0.20172557 0.09719078 0.14446108 -0.08416984 0.4615366 -0.04215458
0.01244234 0.102899335 -0.08963153 0.4885361 0.18617162 -0.03213206 0.31449878 0.43540165
-0.06768133 0.16250774 0.33437672 0.17169082 -0.36914122 -0.39883876 0.20772204 0.12097746
0.23481503 0.043275747 0.48831216 -0.1279787 -0.2600973 0.13804752 -0.22971228 0.38495165
0.2556698 -0.0874606 0.4464019 0.29923013 0.14778164 -0.07077657 0.2725688 0.35911092
-0.5066894 -0.4449528 0.12724102 0.10165776 -0.05513489 -0.36301824 0.4165625 0.22717637
-0.11986296 0.31748074 -0.17809741 0.7446827 0.35241044 0.016599575 0.37565783 0.2428118
-0.19587831 -0.005191712 0.18745814 0.104987144 -0.5175714 -0.22785775 0.19143866 0.10981933
0.21183914 -0.32070163 0.4647636 0.07521531 -0.2178837 0.32910332 0.0136138555 0.329651
00000000: 15ae c43d 550a 623d d8c8 ee3b ef03 5a3e
00000010: 7d6d e4be 03b9 23be 2629 4ebc 1b19 093d
00000020: 238e b6bd 2a7b 05bd 631a e03e 805c 1b3e
00000030: 42ae 8bbe 2788 d33e a5ce 80be e575 033f
00000040: ed9c 3dbd e48d 71bc ac17 5f3e ff38 b53e
00000050: 5d02 bbbc db9c 943d df0e 9a3d 8308 c4be
00000060: 0f2c df3e 59ec ca3e 4f3c 5fbd 5ebb 57be
00000070: 511b afbe cdf1 0e3e 7485 2fbf 9632 7abe
00000080: 7d24 603e 0280 e0be 6d19 16bd 7e51 b8be
00000090: 5246 16be f8ad 003e e03d 39be df51 50be
000000a0: fd6e 763e 7756 54bc 9eba a5bd 0dd5 25be
000000b0: ea1b 053f 4e56 473e db2c a2bd 6a9d 0cbe
000000c0: b206 37be 6a93 683e 5878 babe af22 d1bc
000000d0: 9012 3c3b 0d3c 87be 7086 bf3e 7d4b 14bf
000000e0: 7358 4bbe 3087 d3bb 60b4 89be 601f 69be
000000f0: 9fe9 12be 6bef c53d 8cca 7bbd ed2c 89be
00000100: a1b0 5e3e c040 3d3e 2026 6abe 5993 babe
00000110: 38bb 2cbd ce1c 4d3d 3cc3 afbe 8358 92be
00000120: 51bf fe3c 2073 18be 6141 923e 4d99 01bf
00000130: 8984 bbbe 080a 93be 11f3 07bf 77ff 73be
00000140: 68c2 ba3c b35d 0f3d f748 753c b572 933e
00000150: e138 23be 8da6 c7be de7f ffbb a493 4a3e
00000160: 3aba 653d 671e 93be dd7e 083f 41fa 983d
00000170: 0de7 64be a45d ae3e ba42 76be 6a33 0f3f
00000180: 982c 093e 6c03 633e c956 0f3f e213 893e
00000190: 854b 3f3e 37d6 da3d ae2e 9ebe 3f06 99be
000001a0: c77e 283e fba3 c73e 9e4a 6a3c 09d4 32bb
000001b0: 8cfd 89be 0f9f 4d3e a242 3cbf 561c 2cbe
000001c0: 7f23 0cbe d9f3 fdbe f09e bc3e e0ce 30bf
000001d0: c582 c2be 76e8 7fbe a3d5 0ebf 72ca e9be
000001e0: bb9d 213d 5248 32bd 526e c3be 577d e5be
000001f0: 9f0e 043f a7d7 bc3e 8d02 c9bd 464e c7be
00000200: 4ead 9fbe 4172 253e 5d8c 1bbf 48f9 22be
00000210: 71a7 0d3e 309a 00bf 993b ca3e 314a 06bf
00000220: dd91 83be f9d6 77bd b5ab 2ebf 1fb1 3abe
00000230: 9ad3 f1bd adf5 fa3d c9b7 0e3e 711a c43e
00000240: d366 16be d243 37be fecd ebbd a25d 863e
00000250: 5dad 37bc e782 48bd b5f0 223f fc14 45bd
00000260: 47ed 8bbe 1e7f dd3e fa7d 88be 0559 433f
00000270: c534 9f3e 0936 633e af1f 8f3e ca9e 9c3e
00000280: afe0 3fbe 57fd 5f3e 4e40 15be 2c0d 01bf
00000290: 5dfe f83e f71c eb3e f378 bf3d 3b2d c4be
000002a0: 7836 50be 4b0e 003e 610d b7be f3c0 85bd
000002b0: 3488 753d 4f9a 8dbe 5311 aa3e fab5 f3be
000002c0: e43b 89be 1e96 6bbd a781 cabe 2ea7 c6be
000002d0: 24e0 e2bd 6e1e ec3d 4dca 393e 4bd7 423e
000002e0: eab2 c9be 05bb d8be 2691 4e3e f60b c73d
000002f0: 9bed 133e 3d61 acbd 864e ec3e 48aa 2cbd
00000300: f5da 4b3c e3bc d23d bc90 b7bd 6721 fa3e
00000310: c6a3 3e3e e89c 03bd fc05 a13e f7ec de3e
00000320: 829c 8abd 6e68 263e 6d33 ab3e b8cf 2f3e
00000330: 1400 bdbe 9834 ccbe 16b5 543e 08c3 f73d
00000340: 5a73 703e e941 313d 0d04 fa3e d90c 03be
00000350: 792b 85be 545c 0d3e b239 6bbe 6218 c53e
00000360: 27e7 823e 8b1e b3bd ca8e e43e b134 993e
00000370: 1254 173e 4ef3 90bd 238e 8b3e 63dd b73e
00000380: 66b6 01bf dad0 e3be 784b 023e f231 d03d
00000390: 1fd5 61bd 87dd b9be ae47 d53e eca0 683e
000003a0: b67a f5bd d68c a23e 2b5f 36be 87a3 3e3f
000003b0: 246f b43e d5fb 873c 3956 c03e a8a3 783e
000003c0: 5394 48be 3d1f aabb 07f5 3f3e 8003 d73d
000003d0: 8f7f 04bf 8b53 69be 7f08 443e f5e8 e03d
000003e0: 5cec 583e 0133 a4be 7ff5 ed3e 7c0a 9a3d
000003f0: e81c 5fbe 3b80 a83e a60c 5f3c 04c8 a83e

bias f4 [16]
0.19394256 -0.12155771 -0.328383 -0.07674829 0.13919418 -0.18831488 0.16199757 0.10685007
-0.09547445 -0.10503603 0.17076707 -0.08662742 0.13380732 0.2898354 -0.20185497 0.0401851
00000000: e198 463e 40f3 f8bd d121 a8be 352e 9dbd
00000010: eb88 0e3e 9ed5 40be b1e2 253e 36d4 da3d
00000020: 1c88 c3bd 211d d7bd 90dd 2e3e b769 b1bd
00000030: c904 093e 4e65 943e 12b3 4ebe 2299 243d
