runs/20250317_150514/vflAggregator.pt (torch, 3249 bytes, 1 tensors)

weight f4 [1, 32]
0.06783542 -0.17139083 0.08221712 -0.09049686 0.053652283 0.12934528 -0.0022747926 0.12005895
-0.12726603 0.030447187 0.12512866 -0.1361672 -0.14451852 0.048195865 -0.04800925 0.11882162
0.023610737 -0.1344465 -0.045672867 -0.14664651 0.18571775 -0.26091933 -0.19483954 0.11721156
-0.15854593 0.04889755 0.14874433 0.2101148 0.072303355 0.09652434 -0.212241 0.06741276
00000000: 4ced 8a3d 1481 2fbe 7361 a83d 6b56 b9bd
00000010: 7fc2 5b3d 1773 043e b014 15bb 77e1 f53d
00000020: 0752 02be 616c f93c ba21 003e 6a6f 0bbe
00000030: aafc 13be 0769 453d 59a5 44bd c058 f33d
00000040: 4e6b c13c 58ac 09be 7913 3bbd 812a 16be
00000050: cb2c 3e3e 3897 85be 0484 47be 9d0c f03d
00000060: dd59 22be cc48 483d 6f50 183e 5628 573e
00000070: c813 943d 8eae c53d b455 59be b30f 8a3d
