runs/20250317_150813/lrLocalModel.pt (torch, 4978 bytes, 2 tensors)

weight f4 [16, 6]
000000 5e cf 21 b8 9e 92 0e bf 84 60 70 bf 0a dc 92 bf
       -3.8578517e-05 -0.5569247 -0.9389727 -1.14734
000010 63 4c ff 3e 59 bd ef 41 74 99 82 39 fb 78 6a bf
       0.49862966 29.967455 0.00024909864 -0.9159085
000020 6e 45 84 bf 64 25 c9 bf 08 84 67 be fb de cf 41
       -1.0333688 -1.5714536 -0.2260896 25.983877
000030 38 eb ad b8 9a 56 94 3e 89 34 b2 3e 8a 34 d2 3e
       -8.293096e-05 0.28972322 0.34805706 0.4105571
000040 39 2a 19 3f b2 5d 4d 41 e3 72 74 37 10 cf 52 bf
       0.5983005 12.835375 1.45702825e-05 -0.823472
000050 0b 56 07 bf 8d 48 55 be 6c c6 34 bf 3b 39 a7 c1
       -0.52865666 -0.20828457 -0.7061527 -20.902945
000060 89 33 11 3a 85 3b 51 bf 53 c8 3f bf ce b8 1e bf
       0.00055389904 -0.81731445 -0.74915045 -0.6200074
000070 20 07 8f bf 0c 11 85 c1 b4 96 12 b9 da 54 17 3f
       -1.1174049 -16.633324 -0.00013979786 0.5911385
000080 5b e0 2b 3e ef a7 37 3f 89 90 58 3f 39 1c f2 40
       0.16784804 0.7174062 0.84595543 7.565945
000090 bf aa 96 ba 24 57 07 3e 77 6f 1b bf 1c 5f 99 bf
       -0.0011494978 0.13216835 -0.60716957 -1.198215
0000a0 68 38 7f 3f 88 d0 2a 42 a2 5b 27 39 a3 ae 2d bf
       0.99695444 42.703644 0.00015960497 -0.678446
0000b0 6f bd 57 bf 41 18 8c bf 98 bb ef be 5c 3c 32 40
       -0.8427343 -1.0944902 -0.4682281 2.784934
0000c0 b1 aa 36 3a 44 7b 59 bf 51 ec af bf ea ae c8 bf
       0.0006968184 -0.84953713 -1.3743993 -1.567838
0000d0 a1 ee 60 3e 6b a7 1a 42 d5 54 50 b9 53 f0 24 3f
       0.2196603 38.663494 -0.00019868028 0.64429206
0000e0 23 a4 59 3f 82 45 8f 3f 02 ef a4 bc 3b b9 c9 c1
       0.8501608 1.1193087 -0.020133499 -25.215445
0000f0 1c 6f 3a 39 7a cd 31 bf 57 84 23 bf cf ed 57 bf
       0.00017779734 -0.6945416 -0.6387381 -0.8434724
000100 ce 2c 8f 3e c9 c1 07 42 80 6b cb 37 fc 57 16 3e
       0.2796387 33.939243 2.4249544e-05 0.14682001
000110 59 b3 a6 be 9e e1 cb be 2e 5e a9 bd 20 04 6e 40
       -0.32558706 -0.3982057 -0.082699165 3.7190018
000120 f9 0c 1e 39 2d fc 22 bf 02 19 3d bf 96 58 9e bf
       0.00015072887 -0.6366604 -0.73866284 -1.2370784
000130 35 3a 35 bf 9b d3 9c c0 97 e5 af 3a 50 00 89 be
       -0.7079194 -4.9008307 0.0013419864 -0.2675805
000140 6f d7 10 bf 47 d2 d1 be df 28 93 be 0e 00 88 bf
       -0.56578726 -0.4098074 -0.2874212 -1.0625017
000150 5f c3 c5 39 5a e8 34 bf 1f 81 e5 bf 72 7a d4 bf
       0.0003772033 -0.7066704 -1.793003 -1.6599867
000160 fb 27 ce be 9a bc 03 42 1c d0 50 38 4f 5e 06 bf
       -0.40264878 32.93418 4.978488e-05 -0.52487653
000170 7b 2d 2e bf 96 bd 88 bf e1 85 78 3e b6 b8 01 42
       -0.6803815 -1.0682857 0.24269821 32.43038

bias f4 [16]
000000 91 07 6a 3d 65 cd c2 3d ae f1 06 3f 55 98 8a bf
       0.057136122 0.09511832 0.52712524 -1.0827738
000010 93 9e c0 bf 10 03 0a 3f 50 f7 55 3f a1 53 2a bf
       -1.5048393 0.53910923 0.83580494 -0.6653386
000020 00 8c 2a be 0e d5 b9 ba 4f 5c e8 3d 30 53 ab 3e
       -0.16654968 -0.0014177875 0.113457315 0.33461905
000030 98 76 32 bf e5 6a 34 3e 4d f4 c3 be c0 52 92 3e
       -0.6971221 0.17618902 -0.38272324 0.28578758
