runs/20250317_150813/mlpLocalModel.pt (torch, 42357 bytes, 8 tensors)

weight f4 [100, 17]
0	0x3fc7a4bf	1.5597152
1	0x3f9d358c	1.2281966
2	0x3de5701d	0.112030245
3	0xbda5a4bb	-0.080880605
4	0x3e57f387	0.21088992
5	0xbee980d9	-0.45606115
6	0xbea764d8	-0.32694125
7	0xbeb1326f	-0.3460879
8	0xbf2c188e	-0.6722497
9	0xbf2b78fd	-0.6698149
10	0xbf039c9e	-0.51410854
11	0xbfa6f183	-1.3042454
12	0xbf981594	-1.1881585
13	0xbf2568fc	-0.6461332
14	0xbf0f4fdf	-0.5598125
15	0xbf53f207	-0.8279118
16	0xbf2a5b25	-0.66545326
17	0x3ec0d1dc	0.3766011
18	0x3d3ba361	0.045810107
19	0x3d1a1f7a	0.037627675
20	0x3edc99d8	0.43086123
21	0xbe2e0135	-0.16992648
22	0x3e05d1ad	0.13068266
23	0xbf60546c	-0.8762882
24	0xbfcb5bf8	-1.5887442
25	0xbe6bf61e	-0.23043105
26	0xbf307b49	-0.6893812
27	0xbe5f510a	-0.21808258
28	0xbe364def	-0.17803167
29	0xbfc50c95	-1.5394465
30	0x3f373ed8	0.71580267
31	0xc0222759	-2.5336516
32	0x3e7d65c0	0.24745846
33	0x3e33453a	0.17506877
34	0x3ef85c7e	0.48508066
35	0x3edb9cf5	0.42893186
36	0x3f105fc8	0.5639615
37	0x3eead7e0	0.45867825
38	0x3fa2c22e	1.2715509
39	0x3e78f6c4	0.24312884
40	0xbebbd82a	-0.36688358
41	0xbe868c7a	-0.2627905
42	0xbebff79d	-0.374936
43	0xbf4fda8e	-0.81192863
44	0xbf78448f	-0.9697961
45	0xbf79e5a5	-0.97616035
46	0xbe14ae45	-0.14519604
47	0xbe0ae54d	-0.13564034
48	0x3ec65afe	0.38741297
49	0xbef819ed	-0.4845728
50	0x3f0c14fb	0.54719514
51	0xbf22e046	-0.63623464
52	0xbee9737a	-0.45595914
53	0xbdcfb6fa	-0.10142322
54	0x3f76fea6	0.9648231
55	0x3f5d994d	0.86562043
56	0xbdcf00b5	-0.10107557
57	0xbdf857ba	-0.121261075
58	0xbe88a41e	-0.2668771
59	0xbeece68d	-0.46269646
60	0x3e7b048e	0.24513456
61	0xbe9e3931	-0.3090301
62	0x3e83a365	0.25710598
63	0x3ef4fae8	0.47847676
64	0xbe887f16	-0.2665946
65	0x3e7de0fe	0.24792859
66	0xbf13c90a	-0.57728636
67	0xbf387aeb	-0.7206256
68	0xbcff2919	-0.031147527
69	0x3e7cc16c	0.2468316
70	0x3d326bd7	0.043559875
71	0x3ef07431	0.46963647
72	0x3f1e4356	0.61821496
73	0xbfbb5b06	-1.4637153
74	0xbf86e789	-1.0539409
75	0xbf679e6b	-0.904761
76	0xbf077c49	-0.5292402
77	0xbeaa023a	-0.33204824
78	0xbf0cab61	-0.54949003
79	0x3e22646c	0.1585862
80	0x3d836a61	0.064167745
81	0x3e4eb65e	0.20186755
82	0x3da3f623	0.08005931
83	0xbdd361d5	-0.10321394
84	0xbf2231c5	-0.6335719
85	0xc013b2d6	-2.3077903
86	0xbe9bd9be	-0.30439562
87	0xbf27ad85	-0.65499145
88	0x3e6bfa3a	0.23044673
89	0xbb31d31c	-0.0027133888
90	0x3e4ee5f9	0.20204915
91	0xbe80c276	-0.25148362
92	0xbe659b67	-0.22422563
93	0x3dae61aa	0.08514722
94	0xbce932c9	-0.028466599
95	0xbf095de3	-0.53658885
96	0x3f4371cf	0.76345533
97	0x3ea26cdd	0.3172368
98	0xbf3d406c	-0.73926425
99	0xbde82dfa	-0.11336894
100	0x3e69690c	0.22793978
101	0xbeaedaf1	-0.34151414
102	0x3c96f850	0.018428952
103	0x3e82ef18	0.2557304
104	0x3ebc1289	0.3673289
105	0x3cc18cbd	0.02362668
106	0x3dd04ae7	0.101705365
107	0xbdbe3bb8	-0.09288734
108	0xbed57ce0	-0.41696835
109	0xbe5e06dd	-0.21682306
110	0xbe19a8f8	-0.15005863
111	0xbe6ce38c	-0.23133677
112	0xbf3b6fb4	-0.7321732
113	0x3dabc180	0.083865166
114	0xbddd3416	-0.1080095
115	0xbf63e441	-0.8902016
116	0xbf2edc2e	-0.6830472
117	0xbe376a39	-0.17911614
118	0xbf5fa6e0	-0.87364006
119	0xbe060e7c	-0.13091463
120	0xbe5a518d	-0.21320172
121	0xbef5d96e	-0.48017448
122	0xbebc6e77	-0.36803028
123	0xbf149197	-0.5803465
124	0xbf8c84e8	-1.097806
125	0xbe37d6fc	-0.17953104
126	0xbf92df86	-1.1474464
127	0x3e35501b	0.17706339
128	0xbe2e3237	-0.17011343
129	0xbee46099	-0.44604948
130	0x3e3b0029	0.1826178
131	0x3bedc933	0.007256651
132	0x3f46c880	0.7764969
133	0xbf80e175	-1.0068804
134	0xbddca8cb	-0.10774382
135	0x3e68b448	0.22725022
136	0x4125e6c8	10.368843
137	0x41182117	9.508079
138	0x40c518f7	6.1592975
139	0x40a503aa	5.1566973
140	0x408e2afd	4.4427476
141	0x3f4a7a0a	0.79092467
142	0x3d530c15	0.051525194
143	0xbf5f2edd	-0.8718088
144	0xbd37b551	-0.04485065
145	0x3d0e3a7e	0.03472375
146	0xbe6eca52	-0.23319367
147	0x3eafffce	0.3437485
148	0xc0289ece	-2.6346927
149	0xbe499c47	-0.19688521
150	0x3cfdd508	0.03098537
151	0xbf49b73e	-0.7879523
152	0x3f3c1a31	0.73477465
153	0xbe433151	-0.19061781
154	0xbd02c785	-0.031928558
155	0x3e163470	0.14668441
156	0xbbec8d8e	-0.007219023
157	0x3e2fe69a	0.17177811
158	0xbe08bd9a	-0.13353577
159	0xbe254910	-0.16141152
160	0xbe6b520f	-0.22980522
161	0xbef45701	-0.4772263
162	0xbea9aff5	-0.33142057
163	0xbe572402	-0.2100983
164	0xbf6d2b48	-0.92644167
165	0xbeb36b0a	-0.35042602
166	0xbf96b1ea	-1.1773045
167	0xbf0ef911	-0.55848795
168	0xbed5ea7e	-0.41780466
169	0x3d903755	0.07041804
170	0x40614d3c	3.520339
171	0x40e8d3f3	7.2758727
172	0x40e9a560	7.3014374
173	0x40ed910e	7.423957
174	0x40511a86	3.2672439
175	0xbe813dbd	-0.25242415
176	0xbe49741e	-0.19673201
177	0x3ddb6717	0.10713022
178	0x3e54fa56	0.2079862
179	0x3d9a0f95	0.07522503
180	0xbe7ba60a	-0.24575058
181	0x3f4114c0	0.75422287
182	0xbc7fdafc	-0.015616175
183	0xbecba0c7	-0.397711
184	0xbf3907c7	-0.7227749
185	0x3f0afaf3	0.5428917
186	0xbf6f66b4	-0.9351609
187	0x3eb4f919	0.35346296
188	0xbdfacb89	-0.122458525
189	0xbd65e44b	-0.05612592
190	0x3ef234d2	0.47305924
191	0xbe9b098c	-0.3028072
192	0xbc21eea0	-0.009883553
193	0xbf002f9e	-0.5007266
194	0xbeb5ebb4	-0.3553139
195	0xbe745ac1	-0.23862745
196	0xbcc518be	-0.02405965
197	0xbe98d5c3	-0.29850587
198	0xbec80ad8	-0.39070773
199	0xbe4acd37	-0.19804846
200	0xbd80aea0	-0.06283307
201	0xbddce2bf	-0.10785436
202	0xbd6667bc	-0.056251273
203	0xbd1d4a9e	-0.03840124
204	0xbfd01717	-1.6257046
205	0xbed6f798	-0.41985774
206	0xbfbc6cf5	-1.4720751
207	0xbfc738fa	-1.5564263
208	0xbedf013f	-0.43555638
209	0xbfbaf660	-1.4606438
210	0xbe6a567b	-0.22884552
211	0x3d3008ca	0.042977132
212	0xbe86569d	-0.26237956
213	0xbdb12ae5	-0.086507596
214	0xbefb3b4f	-0.49068686
215	0x3ea33ccb	0.3188232
216	0x3e93a0d2	0.28833634
217	0xbe974f05	-0.29552475
218	0xbd935ff1	-0.07196034
219	0xbea5d319	-0.32387617
220	0xbf083056	-0.53198755
221	0x3d4b7557	0.04967245
222	0xbf0e2e59	-0.5553947
223	0x3edd7718	0.43254924
224	0x3f209abe	0.6273612
225	0xbf835a4a	-1.0261929
226	0xbf6f9c11	-0.93597513
227	0xbdadfa7c	-0.08495042
228	0x3eb2e4ad	0.3494009
229	0xbe0acece	-0.13555452
230	0x3bd2b3f0	0.0064301416
231	0xbfa04832	-1.2522032
232	0x3f0b9bb1	0.5453444
233	0x3ee11abc	0.4396571
234	0x3ded53c5	0.115882434
235	0xbfda2fef	-1.7045878
236	0xbec814a4	-0.39078248
237	0xbf3b4ae3	-0.73161143
238	0x3ffdaa8f	1.9817675
239	0x3f1dc768	0.61632395
240	0x3fcfc078	1.6230612
241	0x404e6354	3.2248125
242	0x3fff87cc	1.9963317
243	0xbe47499c	-0.19461673
244	0xbef82af1	-0.48470262
245	0xbeb7c471	-0.3589206
246	0xbe67be38	-0.22631156
247	0xbe69117b	-0.22760575
248	0xbcbc8a58	-0.023015186
249	0xbf7ec050	-0.99512196
250	0xbf63d0bf	-0.88990396
251	0x3e693be3	0.22776751
252	0x3ebfc081	0.37451556
253	0xbeba69db	-0.36408886
254	0xbe8b298d	-0.27180138
255	0x4084c428	4.148945

bias f4 [100]
0	0x3e098323	0.13428931
1	0x3ed3e39f	0.413846
2	0xbf03a440	-0.514225
3	0x3ecf570f	0.40496108
4	0x3f303e57	0.68845123
5	0x3e78b873	0.24289112
6	0xbea9cd25	-0.33164325
7	0xbe959dcd	-0.29221955
8	0xc082fd8e	-4.0934515
9	0xbeeb3ae7	-0.45943376
10	0x40355911	2.8335612
11	0xbeaadea9	-0.33373
12	0x3d480a3b	0.04883788
13	0x3fb482ff	1.4102477
14	0xbfb989ab	-1.4495138
15	0xbfe33a1a	-1.7752106
16	0x3f3ead22	0.7448293
17	0xbf017381	-0.5056687
18	0x3ea6feb2	0.32616192
19	0xbf8664ac	-1.0499473
20	0xbe8ea3d5	-0.2785937
21	0xbfb7ddf6	-1.4364612
22	0x3fd8d906	1.694123
23	0x3f496cbd	0.78681546
24	0xbf860d0a	-1.0472729
25	0x3ff6445b	1.923961
26	0xbdc62671	-0.09675301
27	0xbd53369a	-0.051565744
28	0xbfae506b	-1.3618292
29	0xbfe850d4	-1.8149667
30	0xbe5f6b67	-0.21818314
31	0x3fbb5f45	1.4638449
32	0x4034ab75	2.822965
33	0xc08ae882	-4.3408823
34	0xbf0b7e79	-0.54489857
35	0xbf0fc45f	-0.56159014
36	0xbfc5f1fd	-1.5464474
37	0x3f7f4513	0.99714774
38	0x3f226065	0.63428336
39	0x400fadcc	2.2449827
40	0xbff8588c	-1.9402022
41	0xbdcfe3f3	-0.101509
42	0xbfc79ff0	-1.5595684
43	0x40462054	3.0957232
44	0xc03482c0	-2.8204803
45	0xc011ae0e	-2.2762485
46	0x3f9faa4d	1.2473847
47	0xbed286ca	-0.4111846
48	0xc0167344	-2.3507853
49	0xbf7063e9	-0.9390245
50	0x3fb55f9b	1.4169801
51	0xbe71b5ba	-0.2360448
52	0xbf2d28df	-0.6764049
53	0x3f72ffaa	0.9492136
54	0xbeb12bbd	-0.34603682
55	0x404d0ca8	3.2038975
56	0x4037c7d6	2.871572
57	0x3f03f002	0.515381
58	0xbf98744e	-1.1910493
59	0xbffdbb7b	-1.982284
60	0xbe9eb89b	-0.31000218
61	0x3f76a230	0.9634123
62	0xbeea032b	-0.45705542
63	0x3fa36efd	1.2768246
64	0x4099dab0	4.8079453
65	0x3f35e28d	0.71048814
66	0x406f2aa8	3.7369785
67	0x3f06912a	0.5256525
68	0xbee72f4f	-0.4515328
69	0x3ebee695	0.37285295
70	0x401cd564	2.4505243
71	0xbf35c30e	-0.71000755
72	0xbf56b537	-0.8387026
73	0xbe8373aa	-0.25674182
74	0xbecec58d	-0.40385094
75	0xbe0939d3	-0.13400964
76	0xbf99b717	-1.2009
77	0x3e9851f0	0.29750013
78	0xc07b3b3f	-3.925491
79	0xbfb65938	-1.4245977
80	0xbf2adfcb	-0.6674773
81	0xbf08b544	-0.5340159
82	0xbeaeef4f	-0.34166953
83	0x3e975648	0.29558015
84	0x3fefda56	1.8738506
85	0xbf507d6d	-0.81441385
86	0xbec651a7	-0.3873417
87	0x3f91761c	1.1364169
88	0xbf942c49	-1.1576015
89	0xbf07a6ff	-0.5298919
90	0x4093d583	4.6198134
91	0xbe95834d	-0.29201737
92	0x3f746c2d	0.95477563
93	0xc0abd709	-5.3699994
94	0x3e6099ee	0.2193372
95	0xbe94535a	-0.28969842
96	0x3e27c9f2	0.1638563
97	0x4032b43f	2.7922513
98	0xbf0f9b84	-0.56096673
99	0x3f31fadb	0.695234

weight f4 [50, 100]
0	0xbdf26559	-0.11835737
1	0x3f12427b	0.5713269
2	0xbeff6a4f	-0.49885795
3	0xbe92ae1d	-0.28648463
4	0x3f507318	0.8142562
5	0xbe9600fd	-0.2929763
6	0xbd9718b0	-0.07377756
7	0x3ec61882	0.38690573
8	0xbe81791b	-0.2528771
9	0xbe00d024	-0.125794
10	0xbed7a4bd	-0.42117873
11	0x3d65ce49	0.056104932
12	0x3e73e885	0.23819168
13	0xbf26634c	-0.64995265
14	0xbee7e769	-0.4529374
15	0xbe396fb6	-0.1810902
16	0x3e90d0fd	0.28284445
17	0xbf27d871	-0.6556464
18	0x3d361097	0.044449415
19	0x3e246bbd	0.16056724
20	0x3e5925b0	0.21205783
21	0xbe5c0754	-0.2148717
22	0x3e48dc4e	0.1961529
23	0x3e4deb0b	0.20109193
24	0xbeedfc4e	-0.46481556
25	0xbca8b540	-0.02059424
26	0xbf11d708	-0.56968737
27	0xbe619ec9	-0.22033228
28	0x3eecf180	0.46278
29	0xbf9ad745	-1.2096945
30	0xbd6b2119	-0.05740461
31	0xbe93e393	-0.28884563
32	0xbd6ca257	-0.057772007
33	0xbf14e498	-0.58161306
34	0xbe08370d	-0.1330225
35	0xbe2d1835	-0.16903765
36	0xbed3bb22	-0.41353709
37	0xbf9e1a4c	-1.2351775
38	0xbd24d17c	-0.040238842
39	0xbf23c31f	-0.63969606
40	0xbdf4e7fc	-0.1195831
41	0xbe775118	-0.24152029
42	0xbc4944eb	-0.012284498
43	0x3d3c21b0	0.045930564
44	0xbdbd98df	-0.092576735
45	0xbebcd2ef	-0.3687968
46	0xbe9fce60	-0.3121214
47	0xbe4bbb2d	-0.1989562
48	0xbe033bb0	-0.12815738
49	0xbed85587	-0.42252752
50	0xbecd9e99	-0.40160063
51	0x3eaa9427	0.33316156
52	0xbe222f60	-0.15838385
53	0xbe739098	-0.23785627
54	0x3de639eb	0.11241516
55	0xbf5ff336	-0.87480485
56	0x3e02af6c	0.1276223
57	0x3f2320e2	0.6372205
58	0x3c8570fc	0.016289227
59	0xbeb94752	-0.36187226
60	0xbf3c9e94	-0.7367947
61	0x3ec8db2b	0.39229712
62	0xbead2b4b	-0.33822092
63	0x3f082c6f	0.531928
64	0xbe6b2410	-0.22962976
65	0xbe8dff5f	-0.27733895
66	0xbd258269	-0.040407572
67	0x3f402ced	0.7506855
68	0x3d72107b	0.05909775
69	0xbe81c5a5	-0.25346103
70	0xbe7961bc	-0.24353689
71	0xbea78780	-0.32720566
72	0xbb3d8daa	-0.002892355
73	0xbf1c7f49	-0.6113172
74	0xbf07d6eb	-0.53062314
75	0xbe1f90ca	-0.15582576
76	0xbef4ef56	-0.4783885
77	0x3de5b59e	0.11216281
78	0xbf6924c5	-0.9107173
79	0xbe11e132	-0.14246061
80	0xbf15807d	-0.5839918
81	0xbdb5b7dd	-0.0887296
82	0xbe81af64	-0.25329125
83	0xbf1e5223	-0.6184408
84	0x3d830751	0.0639788
85	0xbe2a3e23	-0.16625266
86	0xbe26282c	-0.16226262
87	0xbea32304	-0.31862652
88	0xbc26b1e8	-0.010174252
89	0xbec2bea2	-0.38036066
90	0x3cc82357	0.024430914
91	0xbefca994	-0.49348128
92	0x3d997c27	0.07494383
93	0xbcfeb9b1	-0.031094404
94	0x3ea1ce4f	0.31602713
95	0xbe633bf0	-0.22190833
96	0x3cd0be42	0.025481347
97	0xbed38d05	-0.41318527
98	0xbe911cf2	-0.28342396
99	0xbf16742d	-0.5877102
100	0xbdc7aa34	-0.097492605
101	0xbe8516fd	-0.259941
102	0xbf455a62	-0.7709104
103	0x3dadcd24	0.08486393
104	0x3f0d1217	0.5510573
105	0x3cb57763	0.022151655
106	0x3e4647c7	0.19363318
107	0xbf278e41	-0.6545144
108	0xbf81b400	-1.0133057
109	0xbf2f8390	-0.68560123
110	0x3d8fb839	0.070175596
111	0xbd234613	-0.03986175
112	0xba70bc57	-0.0009183338
113	0xbe3087db	-0.17239325
114	0xbe1bb67f	-0.15206335
115	0xbe34bddc	-0.1765055
116	0x3dd64255	0.104618706
117	0xbe8345ba	-0.25639135
118	0xbecd9227	-0.40150568
119	0xbd6d30bf	-0.057907816
120	0x3e01dad4	0.12681133
121	0x3d91db6e	0.07121931
122	0x3f39a69e	0.7251986
123	0x3f10eaeb	0.56608456
124	0xbe14d3bf	-0.145339
125	0xbe6a30a8	-0.22870123
126	0x3e62054c	0.22072333
127	0xbeb6e7c1	-0.3572369
128	0x3f094340	0.5361824
129	0xbeb04b6e	-0.34432548
130	0xbd32ee04	-0.04368402
131	0xbe514967	-0.20438157
132	0xc023e0f4	-2.560605
133	0xbe4782a9	-0.19483437
134	0x3d477df3	0.0487041
135	0xbe3428d8	-0.17593706
136	0xbed928fc	-0.4241408
137	0xbf3356ab	-0.7005412
138	0xbe3fd71c	-0.18734401
139	0xbd3077e4	-0.043083087
140	0xbe868bfc	-0.26278675
141	0xbe5b7d12	-0.2143443
142	0xbe56f63c	-0.20992368
143	0xbc963f1d	-0.018340642
144	0x3ea5037b	0.32229218
145	0xbf4fe730	-0.8121214
146	0xbd1005e8	-0.035161883
147	0xbea92bd7	-0.3304126
148	0xbde1b662	-0.11021115
149	0xbe79b9a3	-0.24387221
150	0xbed806dc	-0.42192733
151	0xbd84515d	-0.06460831
152	0x3f5fcc5e	0.87421215
153	0xbe66f87e	-0.2255573
154	0xbf619533	-0.88118285
155	0xbe9cf06f	-0.30652186
156	0xbe3b3163	-0.18280558
157	0xbe27eae3	-0.16398196
158	0xbeebf7fc	-0.46087635
159	0xbeda6090	-0.42651796
160	0x3e17aae7	0.14811288
161	0xbe3bc266	-0.18335876
162	0xbbc72328	-0.006077189
163	0xbe00a437	-0.12562643
164	0x3f90ab1c	1.1302218
165	0xbe644215	-0.22290833
166	0xbe9e9be0	-0.30978298
167	0x3f312ec6	0.69211996
168	0xbe79286d	-0.24331827
169	0x3e60e58e	0.21962568
170	0xbe6298ed	-0.22128649
171	0x3f6228e5	0.8834365
172	0x3e908f2d	0.28234234
173	0x3ec8a77c	0.3919028
174	0xbce91e75	-0.028456906
175	0xbe2a8a33	-0.16654281
176	0xbe2e21df	-0.17005108
177	0xbe3fd283	-0.18732648
178	0xbf2d1143	-0.67604464
179	0xbdf87d31	-0.12133253
180	0x3eb1b9d7	0.34712097
181	0x3d299d23	0.041409623
182	0x3cf9d39d	0.030496413
183	0xbf1b29a5	-0.6061042
184	0xbfc95bde	-1.5731161
185	0x3e989ca5	0.2980701
186	0xbe61a4ef	-0.22035573
187	0x3ed64f09	0.41857174
188	0xbe7f8e4a	-0.24956623
189	0xbe157640	-0.1459589
190	0x3d518847	0.051155355
191	0xbe836b20	-0.25667667
192	0xbe5e2f36	-0.21697697
193	0xbf1289a4	-0.5724127
194	0x3df05f13	0.11736884
195	0x3f6455eb	0.891936
196	0x3da67490	0.08127701
197	0xbf1020f9	-0.5630031
198	0xbee135d6	-0.43986386
199	0x3dfb4643	0.12269261
200	0x3e90769b	0.2821549
201	0xbe0a9a7f	-0.13535498
202	0xbe3835bf	-0.17989253
203	0xbe9aef62	-0.3026076
204	0xbf2da4ff	-0.6782989
205	0xbec5acd1	-0.3860841
206	0xbf12b604	-0.57308984
207	0xbf76fe89	-0.9648214
208	0xbbf37f3e	-0.00743094
209	0x3d29ac76	0.041424237
210	0xbed415b4	-0.41422808
211	0xbeae0659	-0.33989218
212	0xbe9e3c9c	-0.30905616
213	0xbf196e22	-0.59933674
214	0xbe9a6147	-0.30152342
215	0xbe88e8b8	-0.2674005
216	0xbdffaf07	-0.12484556
217	0xbe984b5e	-0.29745
218	0xbe31bf5c	-0.17358154
219	0xbf1f5869	-0.6224428
220	0xbe7e8e80	-0.24859047
221	0xbea6d66d	-0.3258547
222	0xbf2b479d	-0.6690615
223	0xbf036329	-0.5132318
224	0xbe27facf	-0.1640427
225	0xbf227caf	-0.634715
226	0xbf0763fd	-0.52886945
227	0xbdbac0f6	-0.09118836
228	0xbed0aaba	-0.40755254
229	0xbe5c8cac	-0.21538037
230	0xbdc5c6cb	-0.096570574
231	0xbe8759fd	-0.26435843
232	0x3e731094	0.23736793
233	0xbe9516ef	-0.2911906
234	0x3ea5c7ca	0.3237899
235	0x3c79e8b0	0.015253231
236	0xbeff6405	-0.49880996
237	0xbe6943ff	-0.22779845
238	0xbe5ad056	-0.21368536
239	0xbf4dcd89	-0.80391747
240	0xbdd99427	-0.10623961
241	0xbe50a967	-0.20377122
242	0xbe223f9c	-0.15844578
243	0xbe9b467f	-0.30327222
244	0xbece7d3f	-0.4032993
245	0xbe3fa79f	-0.18716286
246	0x3e23419c	0.15942997
247	0xbea3489d	-0.31891337
248	0xbdb10fc0	-0.08645582
249	0xbe6445fd	-0.22292323
250	0xbe53aee9	-0.20672192
251	0xbf37afe7	-0.7175278
252	0xbdb57c8c	-0.08861646
253	0xbe6979b3	-0.22800331
254	0x3d70292b	0.05863301
255	0x3cbd51ab	0.023110231

bias f4 [50]
0	0x3f88a244	1.067452
1	0xbf720b9c	-0.94548965
2	0x3fd4adc5	1.661553
3	0x408b7196	4.3576155
4	0x3d41f7ab	0.047355335
5	0x3f96dea4	1.1786695
6	0x3e11bda1	0.14232494
7	0x3e9eb559	0.30997732
8	0xc01959bf	-2.3961027
9	0xbfe85b37	-1.8152837
10	0xbe387f51	-0.18017317
11	0xbfaa8f28	-1.3324938
12	0x3ea5f10f	0.32410476
13	0xbe8733d1	-0.2640672
14	0xbef4b6be	-0.4779567
15	0xbe1a6bcf	-0.15080188
16	0xc038efd4	-2.889638
17	0x3ff697da	1.9265091
18	0x3d97d7c3	0.074142
19	0xc002cd7e	-2.0437922
20	0x3f5467fa	0.82971156
21	0x3ff3f268	1.9058352
22	0x3d51323d	0.0510733
23	0xc0166d7d	-2.3504326
24	0xbf8176b7	-1.0114354
25	0x401577d9	2.33544
26	0xbfaaae4f	-1.3334445
27	0xc05bdc52	-3.4353223
28	0x3f898f27	1.0746812
29	0xbe883c33	-0.26608428
30	0x3f226e08	0.63449144
31	0x3f1d0b15	0.61345035
32	0xbfe4b601	-1.7868043
33	0xbfd8bf42	-1.6933367
34	0xbe87a7f8	-0.26495337
35	0xbeb42760	-0.3518629
36	0xc025f720	-2.5932083
37	0xbfe2034a	-1.7657254
38	0x3e7f66a0	0.24941492
39	0xc00b995c	-2.1812353
40	0xbd0a1be9	-0.033718023
41	0xbea7a3a2	-0.3274203
42	0xbdfe9c05	-0.12432102
43	0xbe9712e1	-0.2950659
44	0x3f842728	1.032445
45	0xc002e997	-2.0455072
46	0xbf975d02	-1.1825259
47	0x3e9e8a2f	0.309648
48	0xbf115979	-0.5677715
49	0x402fe62a	2.748423

weight f4 [20, 50]
0	0xbd8192cc	-0.063268274
1	0x3e6e0362	0.23243478
2	0xbd5233a5	-0.051318783
3	0xbe0318e9	-0.12802471
4	0xbdca59c6	-0.09880404
5	0xbdd537c0	-0.10411024
6	0xbd586f31	-0.052840415
7	0x3bab0ebd	0.005220263
8	0x3de1abb2	0.110190764
9	0xbe97062a	-0.2949689
10	0xbe4d3abc	-0.20041937
11	0xbdfa35b5	-0.12217275
12	0xbe5d8547	-0.21632873
13	0xbd839a43	-0.064259075
14	0x3d94cf43	0.072660945
15	0x3d840fc4	0.064483196
16	0x3f1521f4	0.58254933
17	0xbdcd216e	-0.10016142
18	0xbe7d1b0c	-0.24717349
19	0xbe02e208	-0.12781537
20	0x3c3ec6f5	0.011644115
21	0x3e713360	0.23554754
22	0x3c7fad76	0.015605321
23	0xbccdb9d3	-0.025113022
24	0xbd44dadd	-0.048060287
25	0xbe9e5047	-0.30920622
26	0xbdb475be	-0.0881152
27	0xbe427395	-0.18989404
28	0x3db45cbe	0.08806752
29	0x3df8d76f	0.12150466
30	0xbdaa4ebb	-0.08315798
31	0x3ddbc9ce	0.107318506
32	0xbe07897c	-0.1323604
33	0xbdacf45e	-0.08445047
34	0xbf38dc01	-0.722107
35	0xbc12fdf0	-0.008971676
36	0xbcd82895	-0.026386539
37	0xbdc74b90	-0.09731209
38	0xbcbf2921	-0.023335041
39	0xbca560cb	-0.020187756
40	0xbd1a1036	-0.037613116
41	0xbdf3f429	-0.11911804
42	0x3d467e8e	0.048460536
43	0x3dca5644	0.09879735
44	0xbe960968	-0.2930405
45	0x3d7d56e2	0.061850436
46	0xbef3f352	-0.47646576
47	0xbd1db479	-0.03850219
48	0x3d749dcb	0.059720796
49	0x3e04c809	0.12966932
50	0x3ed00c8f	0.4063458
51	0x3f5f71c3	0.8728296
52	0x3e95ddf2	0.29270893
53	0xbd0996fe	-0.033591263
54	0xbe2293da	-0.15876713
55	0xbed2a1e4	-0.41139138
56	0x3db31b95	0.08745495
57	0x399da7c9	0.00030070383
58	0x3db78462	0.08960797
59	0xbdfffdd1	-0.124995835
60	0xbf32d95d	-0.6986292
61	0xbe1ff1a5	-0.15619524
62	0x3e91e340	0.2849369
63	0xbd5e1f0a	-0.05422882
64	0x3da0e5b5	0.07856313
65	0x3b4f44c0	0.0031626672
66	0xbec2a887	-0.380192
67	0xbe9b4677	-0.30327198
68	0xbe6e5715	-0.23275407
69	0xbecc1d7b	-0.39866242
70	0xbd70dcd5	-0.05880435
71	0x3eae8e73	0.34093055
72	0x3cfcd334	0.030862428
73	0xbeda6f23	-0.42662916
74	0xbe7e40c6	-0.24829397
75	0xbefa282d	-0.48858777
76	0x3dee86ad	0.11646781
77	0xbe95bbce	-0.29244846
78	0xbece7a92	-0.4032789
79	0x3dda65bc	0.106639355
80	0xbe325e6f	-0.17418836
81	0x3deb7a16	0.114978954
82	0xbde43bc9	-0.111442156
83	0x3d291a79	0.041285012
84	0xbf04b900	-0.5184479
85	0x3e197507	0.14986049
86	0xbd4649c6	-0.0484102
87	0xbbd71927	-0.0065642777
88	0xbe32dc85	-0.17466934
89	0xbdcc24d7	-0.09967964
90	0x3e0b45f2	0.13600901
91	0x3d9fc474	0.07801142
92	0xbd5f089a	-0.054451562
93	0xbb5eb5c1	-0.0033982845
94	0xbe0083e8	-0.12550318
95	0xbdccfbe7	-0.10008984
96	0xbf04d62e	-0.5188931
97	0xbe4b815b	-0.19873564
98	0xbdf4b644	-0.11948827
99	0xbec068fb	-0.37580094
100	0x3e012494	0.1261161
101	0x3e80e0e0	0.25171566
102	0xbed90785	-0.4238855
103	0xbdb6beec	-0.08923134
104	0x3cfdcf5c	0.030982666
105	0xbe6b3184	-0.22968107
106	0x3d4efc18	0.050533384
107	0xbe50cc9c	-0.20390552
108	0xbe5e4639	-0.21706475
109	0x3d812f12	0.06307806
110	0xbf0bcc78	-0.5460887
111	0xbce46dcb	-0.027884385
112	0xbe4573b7	-0.19282423
113	0x3d8631d1	0.065524705
114	0xbcf397f3	-0.029735541
115	0xbc44ee4f	-0.012019708
116	0x3e2aa096	0.16662821
117	0x3db42143	0.08795407
118	0xbceacdec	-0.028662644
119	0xbd8b502a	-0.068023995
120	0xbe083825	-0.13302667
121	0xbed762b2	-0.42067486
122	0xbc4a1079	-0.012333029
123	0xbc269e62	-0.010169597
124	0x3e5b470b	0.2141382
125	0xbede4a7a	-0.43416196
126	0x3eda8dc4	0.42686284
127	0x3e14c5a3	0.14528517
128	0xbee630c8	-0.44959092
129	0x3d1c11ca	0.038102902
130	0xbcb13c05	-0.021635065
131	0xbe086352	-0.13319138
132	0xbf1d6384	-0.61479974
133	0x3ee6d35c	0.4508313
134	0xbf200cd7	-0.6251959
135	0xbe11b302	-0.14228442
136	0x3e0a8ee9	0.13531078
137	0xbe7a30e6	-0.24432716
138	0xbcea0b5a	-0.028569866
139	0x3e9c2c1c	0.30502403
140	0xbcabf8c8	-0.020992652
141	0xbdaf0386	-0.08545594
142	0x3ddfa61d	0.109203555
143	0xbe11f847	-0.14254867
144	0xbeafa01a	-0.34301835
145	0x3f1bcf57	0.6086325
146	0xbe2f9cc8	-0.17149651
147	0xbdbbdf1a	-0.091734126
148	0xbdfd55fd	-0.123699166
149	0xbeb44e9c	-0.35216224
150	0xbd9fc407	-0.07801061
151	0xbd78ed42	-0.06077314
152	0xbdf14b32	-0.117819205
153	0xb93001eb	-0.00016785382
154	0x3e2bbdac	0.16771573
155	0xbe0797e5	-0.13241537
156	0xbcbd61c6	-0.023117911
157	0xbe064a0e	-0.13114187
158	0x3d8c40b8	0.068482816
159	0xbd096b70	-0.033549726
160	0xbd54cb4d	-0.051951695
161	0xbd2ee517	-0.042698946
162	0xbd01790f	-0.03160959
163	0xbd71a565	-0.058995623
164	0xbb990cda	-0.0046707215
165	0x3e16d209	0.1472856
166	0x3d94b03d	0.07260177
167	0xbe08523a	-0.13312617
168	0xbe4d1fe9	-0.20031704
169	0xbe1454e0	-0.14485502
170	0x3e22bd6b	0.1589257
171	0xbcc27fe4	-0.023742624
172	0xbd35f52e	-0.044423275
173	0xbe02a484	-0.1275807
174	0xbac61fe9	-0.0015115711
175	0xbcd710a6	-0.026253056
176	0xbc7c0231	-0.015381382
177	0xbe0b079b	-0.1357712
178	0xbdc9915b	-0.098421775
179	0xbd80767d	-0.062726
180	0xbd95321a	-0.07284947
181	0x3e5afc0f	0.21385215
182	0xbd90bd44	-0.070673496
183	0xbd101635	-0.03517743
184	0xbe387cc6	-0.18016347
185	0xbca6e446	-0.020372521
186	0xbe35f2e1	-0.17768432
187	0xbd231eb9	-0.03982422
188	0xbca06087	-0.019577278
189	0xbd581402	-0.052753456
190	0xbd8f4842	-0.06996204
191	0xbe151a5b	-0.14560835
192	0x3d256a0b	0.040384334
193	0x3dde80d5	0.108644165
194	0xbe1f99df	-0.15586041
195	0xbdf91939	-0.12163014
196	0xbde0a93d	-0.1096978
197	0xbda0e476	-0.078560755
198	0xbd28601e	-0.04110729
199	0xbacf2604	-0.0015804176
200	0xbd928bc0	-0.071555614
201	0xbde9a6f1	-0.11408795
202	0x3ede8e0a	0.43467742
203	0x3f37d5b7	0.7181048
204	0xbbf9e95a	-0.0076266946
205	0xbead2e2a	-0.33824283
206	0xbc886ab0	-0.016652435
207	0xbd934210	-0.07190335
208	0xbe1fb164	-0.15595013
209	0xbe06660b	-0.13124864
210	0x3df109f5	0.11769477
211	0xbe9b4e77	-0.303333
212	0xbdd2cce3	-0.10292985
213	0xbc1a55d1	-0.009419874
214	0x3e8bc639	0.2729967
215	0x3e0382a4	0.12842804
216	0xbe39834e	-0.18116495
217	0xbda50fc3	-0.08059647
218	0xbdb3ce01	-0.087795265
219	0xbec478cf	-0.3837342
220	0xbded075a	-0.11573668
221	0x3e5ee67a	0.21767607
222	0x3e44e726	0.19228801
223	0xbd934335	-0.07190553
224	0xbeeaca7e	-0.45857614
225	0xbe918fac	-0.28429925
226	0xbe12f960	-0.14352942
227	0xbd7cdf6b	-0.061736505
228	0xbdfb3150	-0.12265265
229	0xbe79c404	-0.2439118
230	0xbe85067e	-0.25981516
231	0x3e4f2282	0.20228007
232	0x3c8658c2	0.016399745
233	0xbe655367	-0.22395097
234	0xbefdceb3	-0.4957176
235	0x3c7bcc62	0.015368553
236	0x3e1fb731	0.15597226
237	0xbdd5365e	-0.1041076
238	0xbae30179	-0.0017319164
239	0xbe96f6ca	-0.2948516
240	0xbe245d61	-0.16051246
241	0xbe01705a	-0.12640515
242	0x3d6e17a4	0.058128014
243	0x3e370da0	0.17876291
244	0xbf17bb3c	-0.5927007
245	0xbf360c0e	-0.71112144
246	0xbe9dd479	-0.30826166
247	0x3bc67727	0.0060566845
248	0x3e96d0e7	0.29456255
249	0xbea3d411	-0.3199773
250	0x3e31a198	0.173468
251	0x3dbaf1eb	0.091281734
252	0xbed6a702	-0.41924292
253	0xbea148db	-0.31500897
254	0xbe7e4b8c	-0.24833506
255	0xbe0000b9	-0.12500276

bias f4 [20]
0	0xbece99cf	-0.40351722
1	0xbfd60823	-1.6721233
2	0xc0545adb	-3.3180454
3	0xbef086db	-0.46977887
4	0x3ec0cb7d	0.3765525
5	0xbfbff48b	-1.4996504
6	0x3f60ee16	0.8786329
7	0xc024aaff	-2.5729368
8	0xbe8a50f7	-0.27014896
9	0xbf2c9560	-0.6741543
10	0x404c2d42	3.1902623
11	0xbc24ba4b	-0.010054181
12	0x3fe1e60b	1.7648329
13	0xc04b4fb4	-3.1767397
14	0xbeb3a4f8	-0.350868
15	0xbdde0197	-0.10840147
16	0xbec5d980	-0.38642502
17	0x3faced52	1.3509924
18	0xbf2fca53	-0.686681
19	0xc04918f8	-3.142149

weight f4 [16, 20]
0	0xbe55ac7e	-0.20866582
1	0xbe82c3bd	-0.2553996
2	0xbcd4a437	-0.02595721
3	0xbdb8dae3	-0.09026124
4	0xbec6d7a1	-0.38836387
5	0x3d209ac8	0.03921011
6	0x3e1ac0f2	0.15112665
7	0x3cbcd9d9	0.023053097
8	0x3e3a5acb	0.18198697
9	0xbe02af11	-0.12762095
10	0xbe0ea61c	-0.13930553
11	0xbd90ac8e	-0.07064162
12	0x3c25b15e	0.010113088
13	0x3e128b84	0.14311033
14	0x3d34fde7	0.044187453
15	0x3ddb9dcd	0.107234575
16	0xbd75c80a	-0.060005225
17	0x3c8c2299	0.017106341
18	0x3d61ffb7	0.05517551
19	0xbc8bdc67	-0.01707287
20	0x3e1a03c1	0.15040495
21	0xbdd4ad7b	-0.10384651
22	0x3dad3cde	0.08458875
23	0xbd11e3a6	-0.035617493
24	0xbc0ef1b1	-0.008724616
25	0x3dfbb667	0.1229065
26	0xbd31995e	-0.043359153
27	0xbdf0e16e	-0.11761747
28	0xbd44ff72	-0.048095174
29	0xbeaf266f	-0.3420901
30	0xbdf86e37	-0.12130397
31	0xbe12b06b	-0.1432511
32	0x3df78894	0.12086597
33	0xbda5fd4b	-0.081049524
34	0x3d934094	0.07190052
35	0x3e4ef35b	0.2021002
36	0x3e83d472	0.2574802
37	0xbe4054e4	-0.18782383
38	0xbd28f4a3	-0.04124893
39	0x3d9a8b4c	0.075461
40	0x3e6ec1f0	0.23316169
41	0xbdc2d10a	-0.09512527
42	0xbca56d6f	-0.020193784
43	0xbd153af3	-0.03643317
44	0x3dbbccba	0.09169908
45	0xbd3c3323	-0.045947205
46	0xbe250827	-0.16116391
47	0x3e1e7260	0.15473318
48	0xbd2e8fc4	-0.042617574
49	0x3d55c9db	0.052194458
50	0x3cdc43c5	0.026887784
51	0x3e1994bb	0.14998142
52	0xbdf387b3	-0.11891117
53	0x3dc30626	0.09522657
54	0xbe2a9b9c	-0.16660923
55	0x3d94205c	0.072327346
56	0x3dcabb49	0.09899003
57	0x3ddc143a	0.107460454
58	0x3dac0cc8	0.08400875
59	0xba5e2d6b	-0.0008475396
60	0x3b4318fa	0.0029769526
61	0xbe1c0b7d	-0.15238757
62	0x3c75789d	0.01498237
63	0x3dcf26a4	0.10114792
64	0xbe35ddc9	-0.17760386
65	0x3d0c2c2a	0.034221806
66	0x3eb9ce31	0.36290124
67	0x3e4a79e3	0.19773059
68	0xbe6e54bc	-0.23274511
69	0xbe424d62	-0.18974832
70	0xbe291678	-0.16512477
71	0xbdd39435	-0.103310026
72	0x3e458ec0	0.19292736
73	0x3e4eb290	0.20185304
74	0x3de0c9e7	0.1097601
75	0x3ede56a1	0.43425468
76	0x3f0b4cf1	0.5441428
77	0x3dbfcb0f	0.09364902
78	0xbc6550a1	-0.013996274
79	0x3dbd8e1d	0.092556216
80	0x3e953a94	0.29146254
81	0x3ce364f1	0.027758094
82	0x3e45a92b	0.19302814
83	0x3bb65325	0.005564111
84	0x3c8db2fb	0.017297259
85	0xbbf46f8a	-0.0074595856
86	0x3dbd87df	0.09254431
87	0x3e07be2d	0.1325614
88	0xbd20627a	-0.039156415
89	0x3da625f3	0.08112707
90	0x3e2e58a8	0.17026007
91	0xbdaad438	-0.08341259
92	0xbe7ab651	-0.2448361
93	0x3d8d395c	0.06895706
94	0xbddc05ba	-0.1074328
95	0xbdac7698	-0.084210575
96	0xbe13763c	-0.14400572
97	0x3d93ebc2	0.072227016
98	0x3df30ac4	0.11867288
99	0xbb1243fe	-0.0022318359
100	0x3ed10629	0.40825012
101	0x3e0a20ce	0.13489076
102	0x3caeda81	0.021344425
103	0x3cdd9450	0.02704826
104	0x3e3b4128	0.18286574
105	0x3d69c841	0.057075743
106	0x3d0b9a17	0.0340825
107	0xbcc8f54e	-0.024531033
108	0xbe29998f	-0.16562484
109	0x3b24020e	0.0025025639
110	0x3e5effa2	0.21777204
111	0x3d9f40a8	0.07776004
112	0x3dc79f0c	0.09747133
113	0xbc76db87	-0.015066988
114	0x3e5b8345	0.21436794
115	0x3e7f769b	0.24947588
116	0x3dd7dd9f	0.10540318
117	0x3eba86cd	0.3643097
118	0xbc5ce52e	-0.013482375
119	0x3dca6b1e	0.09883712
120	0xbcf54c40	-0.029943585
121	0x3ebc75ac	0.36808527
122	0xbd93b6ba	-0.07212587
123	0xbd285416	-0.041095816
124	0x3e575e4e	0.21032068
125	0xbdc38bc3	-0.09548142
126	0xbdd69465	-0.10477523
127	0xbe4bd378	-0.19904888
128	0xbe037956	-0.12839255
129	0x3e9c6880	0.30548477
130	0x3e904e0d	0.28184548
131	0x3d8a1fe5	0.06744365
132	0xbde84246	-0.11340766
133	0xbd1d363c	-0.0383818
134	0xbe314611	-0.17311884
135	0xbecda684	-0.40166104
136	0x3cf13363	0.029443448
137	0x3ddd88ec	0.108171314
138	0x3b454317	0.0030099803
139	0x3e7a33b6	0.24433789
140	0x3e30cd4e	0.17265818
141	0x3e75cd39	0.24004067
142	0x3d821f85	0.06353668
143	0xbde362d6	-0.11102836
144	0x3e989f56	0.29809064
145	0x3d8b8730	0.06812894
146	0xbdd4f384	-0.103980094
147	0x3e01c8e9	0.12674297
148	0xbe09c652	-0.1345456
149	0x3e586e1f	0.21135758
150	0x3e8cf5d5	0.27531305
151	0x3db015ef	0.085979335
152	0x3c595e01	0.013267041
153	0x3e228612	0.15871456
154	0xbe92e2ac	-0.28688562
155	0x3db8de6f	0.09026801
156	0xbe739e16	-0.23790774
157	0x3e28dbfb	0.16490166
158	0xba97e083	-0.0011587295
159	0xbd6eb1e1	-0.058275107
160	0xbe250cf1	-0.16118218
161	0xbec92ccd	-0.39291993
162	0xbc1d1284	-0.009586934
163	0xbc0c0b2c	-0.008547585
164	0xbecd1fd5	-0.40063348
165	0x3d74f100	0.059800148
166	0x3e070297	0.13184582
167	0x3c6d0897	0.01446738
168	0xbdcf46b6	-0.10120909
169	0xbe412896	-0.18863139
170	0x3df36e83	0.11886313
171	0x3d1a0027	0.0375978
172	0xbd6b99c4	-0.05751969
173	0x3de06156	0.10956065
174	0x3e5ebde0	0.21752119
175	0xbe3b07eb	-0.18264739
176	0x3e791a6e	0.24326488
177	0xbe1b2870	-0.15152144
178	0x3d82e3d3	0.0639111
179	0x3e04fa03	0.12985997
180	0x3db404de	0.08789991
181	0xbe9c5481	-0.3053322
182	0xbd14ac6a	-0.03629724
183	0x3da490c2	0.08035423
184	0xbe4de29a	-0.20105973
185	0xbcfb5ca4	-0.030683823
186	0x3daca93f	0.08430719
187	0x3d03de53	0.032194447
188	0x3e3a9f42	0.18224815
189	0x3d4e22de	0.05032622
190	0xbe1de401	-0.15419008
191	0x3eaafb73	0.33394966
192	0xbdeb9047	-0.11502128
193	0xbe403bd5	-0.18772824
194	0x3e84b54a	0.25919563
195	0x3f38f8ef	0.7225484
196	0xbd7f479d	-0.062324155
197	0x3e608d2a	0.2192885
198	0x3cf304af	0.02966532
199	0xbd7ec700	-0.0622015
200	0x3eeedcd9	0.46652868
201	0xbcd18a6f	-0.025578706
202	0xba13d9b6	-0.00056400464
203	0xbe507050	-0.20355344
204	0xbddd47f2	-0.10804738
205	0x3d99b417	0.075050525
206	0xbd539e37	-0.051664557
207	0x3d95b7e1	0.07310463
208	0x3e634f1b	0.22198145
209	0x3e21819f	0.15772103
210	0xbee1404f	-0.43994376
211	0x3e719e2a	0.23595491
212	0x3cedc839	0.029026138
213	0xbde85868	-0.11344987
214	0x3e4df4b1	0.20112874
215	0x3ea072d8	0.3133762
216	0xbdefad74	-0.117030054
217	0x3e3a62ea	0.18201795
218	0x3ce2d865	0.027691076
219	0x3d6da901	0.058022503
220	0xbe7e6f71	-0.24847199
221	0xbdb50a96	-0.0883991
222	0xbcfa3f2d	-0.030547703
223	0xbd7ccad0	-0.061716855
224	0xbea0da38	-0.31416488
225	0xbd977511	-0.073953755
226	0xbd572247	-0.052522924
227	0xbe1e9714	-0.15487319
228	0xbe9b8a3f	-0.3037891
229	0xbde65ad3	-0.11247792
230	0xbdf5ead6	-0.12007682
231	0xbdd0fd27	-0.10204535
232	0xbd0daccc	-0.03458862
233	0xbde944a0	-0.11390042
234	0x3e23ff45	0.16015346
235	0xbbcced7b	-0.006253896
236	0x3c2bd619	0.010488057
237	0xbeb69d0b	-0.3566669
238	0xbcb78b59	-0.022405313
239	0x3d49a957	0.04923376
240	0xbe7cf1bc	-0.2470159
241	0xbdb48442	-0.08814289
242	0x3bebf1da	0.007200462
243	0x3dc919ed	0.09819398
244	0xbe2a59ca	-0.16635814
245	0x3d8e3fee	0.06945787
246	0xbc37649a	-0.011193419
247	0x3d907460	0.07053447
248	0x3c74589e	0.014913706
249	0xbe794b25	-0.24345072
250	0xbde9ff7b	-0.11425682
251	0xbd13c033	-0.036071967
252	0xbcf48691	-0.029849323
253	0xbd831389	-0.064002104
254	0x3e68d029	0.22735657
255	0xbe128d42	-0.14311698

bias f4 [16]
0	0x3fe5cc88	1.7953043
1	0x3e96671f	0.2937555
2	0x3e1ab96e	0.15109798
3	0xbe8eea2b	-0.2791303
4	0x3f1bfe90	0.60935307
5	0xbec8812e	-0.39161056
6	0xbe971b6b	-0.29513106
7	0xbf5feaed	-0.87467843
8	0x3f85b957	1.0447186
9	0x3f8778f9	1.0583793
10	0x3ef7c161	0.48389724
11	0x3f88fbb2	1.0701811
12	0xbda0d483	-0.078530334
13	0x3ed9a34c	0.42507398
14	0x3e8b075b	0.2715405
15	0x4008cab9	2.1373732
