runs/20250317_150813/vflAggregator.pt (torch, 3249 bytes, 1 tensors)

weight f4 [1, 32]
000000 69 a1 77 3a c6 f7 ac 3a 9e 86 bb 39 14 b7 3c ba
       0.0009446354 0.0013196401 0.00035767717 -0.00071989116
000010 82 e3 9b b8 6e c1 ee 38 4d 42 de 3b 32 bc c7 39
       -7.4333526e-05 0.000113847535 0.006782806 0.00038096454
000020 f1 ae 35 3b f3 65 a6 ba d2 5e ca 3a 56 7e 2e 39
       0.0027722681 -0.0012695178 0.0015439636 0.00016640997
000030 cd d9 1d 37 44 5c ab 3a 0f e4 e7 3a f9 cb 99 3a
       9.40864e-06 0.0013073762 0.0017691868 0.0011733762
000040 65 98 69 bc 32 c2 63 bc c9 41 00 bd 43 6f f9 3b
       -0.014257525 -0.01390128 -0.031312738 0.0076121404
000050 56 aa b5 bc 9b 54 7d bc eb 2a f1 bc a3 ab bd 3c
       -0.022175949 -0.015462066 -0.02943941 0.023153132
000060 56 3a 9d bd 40 79 21 bb 4f a4 4b ba 04 93 75 bc
       -0.07677142 -0.002463892 -0.00077683193 -0.014988665
000070 98 1e 89 bc 51 27 94 bc b7 80 94 3c b6 29 81 bd
       -0.016738221 -0.018085154 0.018127782 -0.06306784
